…
--- Final training dataset went from 0 to 4349 elements, with 0 none's, 0 crakles, 0 wheezes and 0 both ---
--- Final Validation dataset contains 1716 elements, with 0 none, 0 crackles, 0 wheezes and 0 both ---
Initializing weights...
Model: "vgg16"
_________________________________________________________________
 Layer (type)                Output Shape              Param #   
=================================================================
 input_1 (InputLayer)        [(None, 80, 500, 3)]      0         
                                                                 
 block1_conv1 (Conv2D)       (None, 80, 500, 64)       1792      
                                                                 
 block1_conv2 (Conv2D)       (None, 80, 500, 64)       36928     
                                                                 
 block1_pool (MaxPooling2D)  (None, 40, 250, 64)       0         
                                                                 
 block2_conv1 (Conv2D)       (None, 40, 250, 128)      73856     
                                                                 
 block2_conv2 (Conv2D)       (None, 40, 250, 128)      147584    
                                                                 
 block2_pool (MaxPooling2D)  (None, 20, 125, 128)      0         
                                                                 
 block3_conv1 (Conv2D)       (None, 20, 125, 256)      295168    
                                                                 
 block3_conv2 (Conv2D)       (None, 20, 125, 256)      590080    
                                                                 
 block3_conv3 (Conv2D)       (None, 20, 125, 256)      590080    
                                                                 
 block3_pool (MaxPooling2D)  (None, 10, 62, 256)       0         
                                                                 
 block4_conv1 (Conv2D)       (None, 10, 62, 512)       1180160   
                                                                 
 block4_conv2 (Conv2D)       (None, 10, 62, 512)       2359808   
                                                                 
 block4_conv3 (Conv2D)       (None, 10, 62, 512)       2359808   
                                                                 
 block4_pool (MaxPooling2D)  (None, 5, 31, 512)        0         
                                                                 
 block5_conv1 (Conv2D)       (None, 5, 31, 512)        2359808   
                                                                 
 block5_conv2 (Conv2D)       (None, 5, 31, 512)        2359808   
                                                                 
 block5_conv3 (Conv2D)       (None, 5, 31, 512)        2359808   
                                                                 
 block5_pool (MaxPooling2D)  (None, 2, 15, 512)        0         
                                                                 
=================================================================
Total params: 14,714,688
Trainable params: 14,714,688
Non-trainable params: 0
_________________________________________________________________
Model: "sequential"
_________________________________________________________________
 Layer (type)                Output Shape              Param #   
=================================================================
 batch_normalization (BatchN  (None, 80, 500, 3)       12        
 ormalization)                                                   
                                                                 
 vgg16 (Functional)          (None, 2, 15, 512)        14714688  
                                                                 
 batch_normalization_1 (Batc  (None, 2, 15, 512)       2048      
 hNormalization)                                                 
                                                                 
=================================================================
Total params: 14,716,748
Trainable params: 1,030
Non-trainable params: 14,715,718
_________________________________________________________________
(None, 2, 15, 512)
Model: "sequential_1"
_________________________________________________________________
 Layer (type)                Output Shape              Param #   
=================================================================
 global_average_pooling2d (G  (None, 512)              0         
 lobalAveragePooling2D)                                          
                                                                 
 dense (Dense)               (None, 256)               131328    
                                                                 
 dropout (Dropout)           (None, 256)               0         
                                                                 
 dense_1 (Dense)             (None, 256)               65792     
                                                                 
 dropout_1 (Dropout)         (None, 256)               0         
                                                                 
 dense_2 (Dense)             (None, 4)                 1028      
                                                                 
=================================================================
Total params: 198,148
Trainable params: 198,148
Non-trainable params: 0
_________________________________________________________________
Model: "leaf_model9_model_res"
______________________________________________________________________________________________________________
…
