…
-----------------------
--- Final training dataset went from 0 to 4349 elements, with 0 none's, 0 crakles, 0 wheezes and 0 both ---
--- Final Validation dataset contains 1716 elements, with 0 none, 0 crackles, 0 wheezes and 0 both ---
Initializing weights...
Model: "efficientnetb1"
__________________________________________________________________________________________________
 Layer (type)                   Output Shape         Param #     Connected to                     
==================================================================================================
 input_1 (InputLayer)           [(None, 80, 500, 3)  0           []                               
                                ]                                                                 
                                                                                                  
 rescaling (Rescaling)          (None, 80, 500, 3)   0           ['input_1[0][0]']                
                                                                                                  
 normalization (Normalization)  (None, 80, 500, 3)   7           ['rescaling[0][0]']              
                                                                                                  
 stem_conv_pad (ZeroPadding2D)  (None, 81, 501, 3)   0           ['normalization[0][0]']          
                                                                                                  
 stem_conv (Conv2D)             (None, 40, 250, 32)  864         ['stem_conv_pad[0][0]']          
                                                                                                  
 stem_bn (BatchNormalization)   (None, 40, 250, 32)  128         ['stem_conv[0][0]']              
                                                                                                  
 stem_activation (Activation)   (None, 40, 250, 32)  0           ['stem_bn[0][0]']                
                                                                                                  
 block1a_dwconv (DepthwiseConv2  (None, 40, 250, 32)  288        ['stem_activation[0][0]']        
 D)                                                                                               
                                                                                                  
 block1a_bn (BatchNormalization  (None, 40, 250, 32)  128        ['block1a_dwconv[0][0]']         
 )                                                                                                
                                                                                                  
 block1a_activation (Activation  (None, 40, 250, 32)  0          ['block1a_bn[0][0]']             
 )                                                                                                
                                                                                                  
 block1a_se_squeeze (GlobalAver  (None, 32)          0           ['block1a_activation[0][0]']     
 agePooling2D)                                                                                    
                                                                                                  
 block1a_se_reshape (Reshape)   (None, 1, 1, 32)     0           ['block1a_se_squeeze[0][0]']     
                                                                                                  
 block1a_se_reduce (Conv2D)     (None, 1, 1, 8)      264         ['block1a_se_reshape[0][0]']     
                                                                                                  
 block1a_se_expand (Conv2D)     (None, 1, 1, 32)     288         ['block1a_se_reduce[0][0]']      
                                                                                                  
 block1a_se_excite (Multiply)   (None, 40, 250, 32)  0           ['block1a_activation[0][0]',     
                                                                  'block1a_se_expand[0][0]']      
                                                                                                  
 block1a_project_conv (Conv2D)  (None, 40, 250, 16)  512         ['block1a_se_excite[0][0]']      
                                                                                                  
 block1a_project_bn (BatchNorma  (None, 40, 250, 16)  64         ['block1a_project_conv[0][0]']   
 lization)                                                                                        
                                                                                                  
 block1b_dwconv (DepthwiseConv2  (None, 40, 250, 16)  144        ['block1a_project_bn[0][0]']     
 D)                                                                                               
                                                                                                  
 block1b_bn (BatchNormalization  (None, 40, 250, 16)  64         ['block1b_dwconv[0][0]']         
 )                                                                                                
                                                                                                  
 block1b_activation (Activation  (None, 40, 250, 16)  0          ['block1b_bn[0][0]']             
 )                                                                                                
                                                                                                  
 block1b_se_squeeze (GlobalAver  (None, 16)          0           ['block1b_activation[0][0]']     
 agePooling2D)                                                                                    
                                                                                                  
 block1b_se_reshape (Reshape)   (None, 1, 1, 16)     0           ['block1b_se_squeeze[0][0]']     
                                                                                                  
 block1b_se_reduce (Conv2D)     (None, 1, 1, 4)      68          ['block1b_se_reshape[0][0]']     
                                                                                                  
 block1b_se_expand (Conv2D)     (None, 1, 1, 16)     80          ['block1b_se_reduce[0][0]']      
                                                                                                  
 block1b_se_excite (Multiply)   (None, 40, 250, 16)  0           ['block1b_activation[0][0]',     
                                                                  'block1b_se_expand[0][0]']      
                                                                                                  
 block1b_project_conv (Conv2D)  (None, 40, 250, 16)  256         ['block1b_se_excite[0][0]']      
                                                                                                  
 block1b_project_bn (BatchNorma  (None, 40, 250, 16)  64         ['block1b_project_conv[0][0]']   
 lization)                                                                                        
                                                                                                  
 block1b_drop (Dropout)         (None, 40, 250, 16)  0           ['block1b_project_bn[0][0]']     
                                                                                                  
 block1b_add (Add)              (None, 40, 250, 16)  0           ['block1b_drop[0][0]',           
                                                                  'block1a_project_bn[0][0]']     
                                                                                                  
 block2a_expand_conv (Conv2D)   (None, 40, 250, 96)  1536        ['block1b_add[0][0]']            
                                                                                                  
 block2a_expand_bn (BatchNormal  (None, 40, 250, 96)  384        ['block2a_expand_conv[0][0]']    
 ization)                                                                                         
                                                                                                  
 block2a_expand_activation (Act  (None, 40, 250, 96)  0          ['block2a_expand_bn[0][0]']      
 ivation)                                                                                         
                                                                                                  
 block2a_dwconv_pad (ZeroPaddin  (None, 41, 251, 96)  0          ['block2a_expand_activation[0][0]
 g2D)                                                            ']                               
                                                                                                  
 block2a_dwconv (DepthwiseConv2  (None, 20, 125, 96)  864        ['block2a_dwconv_pad[0][0]']     
 D)                                                                                               
                                                                                                  
 block2a_bn (BatchNormalization  (None, 20, 125, 96)  384        ['block2a_dwconv[0][0]']         
 )                                                                                                
                                                                                                  
 block2a_activation (Activation  (None, 20, 125, 96)  0          ['block2a_bn[0][0]']             
 )                                                                                                
                                                                                                  
 block2a_se_squeeze (GlobalAver  (None, 96)          0           ['block2a_activation[0][0]']     
 agePooling2D)                                                                                    
                                                                                                  
 block2a_se_reshape (Reshape)   (None, 1, 1, 96)     0           ['block2a_se_squeeze[0][0]']     
                                                                                                  
 block2a_se_reduce (Conv2D)     (None, 1, 1, 4)      388         ['block2a_se_reshape[0][0]']     
                                                                                                  
 block2a_se_expand (Conv2D)     (None, 1, 1, 96)     480         ['block2a_se_reduce[0][0]']      
                                                                                                  
 block2a_se_excite (Multiply)   (None, 20, 125, 96)  0           ['block2a_activation[0][0]',     
                                                                  'block2a_se_expand[0][0]']      
                                                                                                  
 block2a_project_conv (Conv2D)  (None, 20, 125, 24)  2304        ['block2a_se_excite[0][0]']      
                                                                                                  
 block2a_project_bn (BatchNorma  (None, 20, 125, 24)  96         ['block2a_project_conv[0][0]']   
 lization)                                                                                        
                                                                                                  
 block2b_expand_conv (Conv2D)   (None, 20, 125, 144  3456        ['block2a_project_bn[0][0]']     
                                )                                                                 
…
 block2b_bn (BatchNormalization  (None, 20, 125, 144  576        ['block2b_dwconv[0][0]']         
 )                              )                                                                 
                                                                                                  
 block2b_activation (Activation  (None, 20, 125, 144  0          ['block2b_bn[0][0]']             
 )                              )                                                                 
                                                                                                  
 block2b_se_squeeze (GlobalAver  (None, 144)         0           ['block2b_activation[0][0]']     
 agePooling2D)                                                                                    
                                                                                                  
 block2b_se_reshape (Reshape)   (None, 1, 1, 144)    0           ['block2b_se_squeeze[0][0]']     
                                                                                                  
 block2b_se_reduce (Conv2D)     (None, 1, 1, 6)      870         ['block2b_se_reshape[0][0]']     
                                                                                                  
 block2b_se_expand (Conv2D)     (None, 1, 1, 144)    1008        ['block2b_se_reduce[0][0]']      
                                                                                                  
 block2b_se_excite (Multiply)   (None, 20, 125, 144  0           ['block2b_activation[0][0]',     
                                )                                 'block2b_se_expand[0][0]']      
                                                                                                  
 block2b_project_conv (Conv2D)  (None, 20, 125, 24)  3456        ['block2b_se_excite[0][0]']      
                                                                                                  
 block2b_project_bn (BatchNorma  (None, 20, 125, 24)  96         ['block2b_project_conv[0][0]']   
 lization)                                                                                        
                                                                                                  
 block2b_drop (Dropout)         (None, 20, 125, 24)  0           ['block2b_project_bn[0][0]']     
                                                                                                  
 block2b_add (Add)              (None, 20, 125, 24)  0           ['block2b_drop[0][0]',           
                                                                  'block2a_project_bn[0][0]']     
                                                                                                  
 block2c_expand_conv (Conv2D)   (None, 20, 125, 144  3456        ['block2b_add[0][0]']            
                                )                                                                 
…
 block3a_expand_activation (Act  (None, 20, 125, 144  0          ['block3a_expand_bn[0][0]']      
 ivation)                       )                                                                 
                                                                                                  
 block3a_dwconv_pad (ZeroPaddin  (None, 23, 129, 144  0          ['block3a_expand_activation[0][0]
 g2D)                           )                                ']                               
                                                                                                  
 block3a_dwconv (DepthwiseConv2  (None, 10, 63, 144)  3600       ['block3a_dwconv_pad[0][0]']     
 D)                                                                                               
                                                                                                  
 block3a_bn (BatchNormalization  (None, 10, 63, 144)  576        ['block3a_dwconv[0][0]']         
 )                                                                                                
                                                                                                  
 block3a_activation (Activation  (None, 10, 63, 144)  0          ['block3a_bn[0][0]']             
 )                                                                                                
                                                                                                  
 block3a_se_squeeze (GlobalAver  (None, 144)         0           ['block3a_activation[0][0]']     
 agePooling2D)                                                                                    
                                                                                                  
 block3a_se_reshape (Reshape)   (None, 1, 1, 144)    0           ['block3a_se_squeeze[0][0]']     
                                                                                                  
 block3a_se_reduce (Conv2D)     (None, 1, 1, 6)      870         ['block3a_se_reshape[0][0]']     
                                                                                                  
 block3a_se_expand (Conv2D)     (None, 1, 1, 144)    1008        ['block3a_se_reduce[0][0]']      
                                                                                                  
 block3a_se_excite (Multiply)   (None, 10, 63, 144)  0           ['block3a_activation[0][0]',     
                                                                  'block3a_se_expand[0][0]']      
                                                                                                  
 block3a_project_conv (Conv2D)  (None, 10, 63, 40)   5760        ['block3a_se_excite[0][0]']      
                                                                                                  
 block3a_project_bn (BatchNorma  (None, 10, 63, 40)  160         ['block3a_project_conv[0][0]']   
 lization)                                                                                        
                                                                                                  
 block3b_expand_conv (Conv2D)   (None, 10, 63, 240)  9600        ['block3a_project_bn[0][0]']     
                                                                                                  
 block3b_expand_bn (BatchNormal  (None, 10, 63, 240)  960        ['block3b_expand_conv[0][0]']    
 ization)                                                                                         
                                                                                                  
 block3b_expand_activation (Act  (None, 10, 63, 240)  0          ['block3b_expand_bn[0][0]']      
 ivation)                                                                                         
                                                                                                  
 block3b_dwconv (DepthwiseConv2  (None, 10, 63, 240)  6000       ['block3b_expand_activation[0][0]
 D)                                                              ']                               
                                                                                                  
 block3b_bn (BatchNormalization  (None, 10, 63, 240)  960        ['block3b_dwconv[0][0]']         
 )                                                                                                
                                                                                                  
 block3b_activation (Activation  (None, 10, 63, 240)  0          ['block3b_bn[0][0]']             
 )                                                                                                
                                                                                                  
 block3b_se_squeeze (GlobalAver  (None, 240)         0           ['block3b_activation[0][0]']     
 agePooling2D)                                                                                    
                                                                                                  
 block3b_se_reshape (Reshape)   (None, 1, 1, 240)    0           ['block3b_se_squeeze[0][0]']     
                                                                                                  
 block3b_se_reduce (Conv2D)     (None, 1, 1, 10)     2410        ['block3b_se_reshape[0][0]']     
                                                                                                  
 block3b_se_expand (Conv2D)     (None, 1, 1, 240)    2640        ['block3b_se_reduce[0][0]']      
                                                                                                  
 block3b_se_excite (Multiply)   (None, 10, 63, 240)  0           ['block3b_activation[0][0]',     
                                                                  'block3b_se_expand[0][0]']      
                                                                                                  
 block3b_project_conv (Conv2D)  (None, 10, 63, 40)   9600        ['block3b_se_excite[0][0]']      
                                                                                                  
 block3b_project_bn (BatchNorma  (None, 10, 63, 40)  160         ['block3b_project_conv[0][0]']   
 lization)                                                                                        
                                                                                                  
 block3b_drop (Dropout)         (None, 10, 63, 40)   0           ['block3b_project_bn[0][0]']     
                                                                                                  
 block3b_add (Add)              (None, 10, 63, 40)   0           ['block3b_drop[0][0]',           
                                                                  'block3a_project_bn[0][0]']     
                                                                                                  
 block3c_expand_conv (Conv2D)   (None, 10, 63, 240)  9600        ['block3b_add[0][0]']            
                                                                                                  
 block3c_expand_bn (BatchNormal  (None, 10, 63, 240)  960        ['block3c_expand_conv[0][0]']    
 ization)                                                                                         
                                                                                                  
 block3c_expand_activation (Act  (None, 10, 63, 240)  0          ['block3c_expand_bn[0][0]']      
 ivation)                                                                                         
                                                                                                  
 block3c_dwconv (DepthwiseConv2  (None, 10, 63, 240)  6000       ['block3c_expand_activation[0][0]
 D)                                                              ']                               
                                                                                                  
 block3c_bn (BatchNormalization  (None, 10, 63, 240)  960        ['block3c_dwconv[0][0]']         
 )                                                                                                
                                                                                                  
 block3c_activation (Activation  (None, 10, 63, 240)  0          ['block3c_bn[0][0]']             
 )                                                                                                
                                                                                                  
 block3c_se_squeeze (GlobalAver  (None, 240)         0           ['block3c_activation[0][0]']     
 agePooling2D)                                                                                    
                                                                                                  
 block3c_se_reshape (Reshape)   (None, 1, 1, 240)    0           ['block3c_se_squeeze[0][0]']     
                                                                                                  
 block3c_se_reduce (Conv2D)     (None, 1, 1, 10)     2410        ['block3c_se_reshape[0][0]']     
                                                                                                  
 block3c_se_expand (Conv2D)     (None, 1, 1, 240)    2640        ['block3c_se_reduce[0][0]']      
                                                                                                  
 block3c_se_excite (Multiply)   (None, 10, 63, 240)  0           ['block3c_activation[0][0]',     
                                                                  'block3c_se_expand[0][0]']      
                                                                                                  
 block3c_project_conv (Conv2D)  (None, 10, 63, 40)   9600        ['block3c_se_excite[0][0]']      
                                                                                                  
 block3c_project_bn (BatchNorma  (None, 10, 63, 40)  160         ['block3c_project_conv[0][0]']   
 lization)                                                                                        
                                                                                                  
 block3c_drop (Dropout)         (None, 10, 63, 40)   0           ['block3c_project_bn[0][0]']     
                                                                                                  
 block3c_add (Add)              (None, 10, 63, 40)   0           ['block3c_drop[0][0]',           
                                                                  'block3b_add[0][0]']            
                                                                                                  
 block4a_expand_conv (Conv2D)   (None, 10, 63, 240)  9600        ['block3c_add[0][0]']            
                                                                                                  
 block4a_expand_bn (BatchNormal  (None, 10, 63, 240)  960        ['block4a_expand_conv[0][0]']    
 ization)                                                                                         
                                                                                                  
 block4a_expand_activation (Act  (None, 10, 63, 240)  0          ['block4a_expand_bn[0][0]']      
 ivation)                                                                                         
                                                                                                  
 block4a_dwconv_pad (ZeroPaddin  (None, 11, 65, 240)  0          ['block4a_expand_activation[0][0]
 g2D)                                                            ']                               
                                                                                                  
 block4a_dwconv (DepthwiseConv2  (None, 5, 32, 240)  2160        ['block4a_dwconv_pad[0][0]']     
 D)                                                                                               
                                                                                                  
 block4a_bn (BatchNormalization  (None, 5, 32, 240)  960         ['block4a_dwconv[0][0]']         
 )                                                                                                
                                                                                                  
 block4a_activation (Activation  (None, 5, 32, 240)  0           ['block4a_bn[0][0]']             
 )                                                                                                
                                                                                                  
 block4a_se_squeeze (GlobalAver  (None, 240)         0           ['block4a_activation[0][0]']     
 agePooling2D)                                                                                    
                                                                                                  
 block4a_se_reshape (Reshape)   (None, 1, 1, 240)    0           ['block4a_se_squeeze[0][0]']     
                                                                                                  
 block4a_se_reduce (Conv2D)     (None, 1, 1, 10)     2410        ['block4a_se_reshape[0][0]']     
                                                                                                  
 block4a_se_expand (Conv2D)     (None, 1, 1, 240)    2640        ['block4a_se_reduce[0][0]']      
                                                                                                  
 block4a_se_excite (Multiply)   (None, 5, 32, 240)   0           ['block4a_activation[0][0]',     
                                                                  'block4a_se_expand[0][0]']      
                                                                                                  
 block4a_project_conv (Conv2D)  (None, 5, 32, 80)    19200       ['block4a_se_excite[0][0]']      
                                                                                                  
 block4a_project_bn (BatchNorma  (None, 5, 32, 80)   320         ['block4a_project_conv[0][0]']   
 lization)                                                                                        
                                                                                                  
 block4b_expand_conv (Conv2D)   (None, 5, 32, 480)   38400       ['block4a_project_bn[0][0]']     
                                                                                                  
 block4b_expand_bn (BatchNormal  (None, 5, 32, 480)  1920        ['block4b_expand_conv[0][0]']    
 ization)                                                                                         
                                                                                                  
 block4b_expand_activation (Act  (None, 5, 32, 480)  0           ['block4b_expand_bn[0][0]']      
 ivation)                                                                                         
                                                                                                  
 block4b_dwconv (DepthwiseConv2  (None, 5, 32, 480)  4320        ['block4b_expand_activation[0][0]
 D)                                                              ']                               
                                                                                                  
 block4b_bn (BatchNormalization  (None, 5, 32, 480)  1920        ['block4b_dwconv[0][0]']         
 )                                                                                                
                                                                                                  
 block4b_activation (Activation  (None, 5, 32, 480)  0           ['block4b_bn[0][0]']             
 )                                                                                                
                                                                                                  
 block4b_se_squeeze (GlobalAver  (None, 480)         0           ['block4b_activation[0][0]']     
 agePooling2D)                                                                                    
                                                                                                  
 block4b_se_reshape (Reshape)   (None, 1, 1, 480)    0           ['block4b_se_squeeze[0][0]']     
                                                                                                  
 block4b_se_reduce (Conv2D)     (None, 1, 1, 20)     9620        ['block4b_se_reshape[0][0]']     
                                                                                                  
 block4b_se_expand (Conv2D)     (None, 1, 1, 480)    10080       ['block4b_se_reduce[0][0]']      
                                                                                                  
 block4b_se_excite (Multiply)   (None, 5, 32, 480)   0           ['block4b_activation[0][0]',     
                                                                  'block4b_se_expand[0][0]']      
                                                                                                  
 block4b_project_conv (Conv2D)  (None, 5, 32, 80)    38400       ['block4b_se_excite[0][0]']      
                                                                                                  
 block4b_project_bn (BatchNorma  (None, 5, 32, 80)   320         ['block4b_project_conv[0][0]']   
 lization)                                                                                        
                                                                                                  
 block4b_drop (Dropout)         (None, 5, 32, 80)    0           ['block4b_project_bn[0][0]']     
                                                                                                  
 block4b_add (Add)              (None, 5, 32, 80)    0           ['block4b_drop[0][0]',           
                                                                  'block4a_project_bn[0][0]']     
                                                                                                  
 block4c_expand_conv (Conv2D)   (None, 5, 32, 480)   38400       ['block4b_add[0][0]']            
                                                                                                  
 block4c_expand_bn (BatchNormal  (None, 5, 32, 480)  1920        ['block4c_expand_conv[0][0]']    
 ization)                                                                                         
                                                                                                  
 block4c_expand_activation (Act  (None, 5, 32, 480)  0           ['block4c_expand_bn[0][0]']      
 ivation)                                                                                         
                                                                                                  
 block4c_dwconv (DepthwiseConv2  (None, 5, 32, 480)  4320        ['block4c_expand_activation[0][0]
 D)                                                              ']                               
                                                                                                  
 block4c_bn (BatchNormalization  (None, 5, 32, 480)  1920        ['block4c_dwconv[0][0]']         
 )                                                                                                
                                                                                                  
 block4c_activation (Activation  (None, 5, 32, 480)  0           ['block4c_bn[0][0]']             
 )                                                                                                
                                                                                                  
 block4c_se_squeeze (GlobalAver  (None, 480)         0           ['block4c_activation[0][0]']     
 agePooling2D)                                                                                    
                                                                                                  
 block4c_se_reshape (Reshape)   (None, 1, 1, 480)    0           ['block4c_se_squeeze[0][0]']     
                                                                                                  
 block4c_se_reduce (Conv2D)     (None, 1, 1, 20)     9620        ['block4c_se_reshape[0][0]']     
                                                                                                  
 block4c_se_expand (Conv2D)     (None, 1, 1, 480)    10080       ['block4c_se_reduce[0][0]']      
                                                                                                  
 block4c_se_excite (Multiply)   (None, 5, 32, 480)   0           ['block4c_activation[0][0]',     
                                                                  'block4c_se_expand[0][0]']      
                                                                                                  
 block4c_project_conv (Conv2D)  (None, 5, 32, 80)    38400       ['block4c_se_excite[0][0]']      
                                                                                                  
 block4c_project_bn (BatchNorma  (None, 5, 32, 80)   320         ['block4c_project_conv[0][0]']   
 lization)                                                                                        
                                                                                                  
 block4c_drop (Dropout)         (None, 5, 32, 80)    0           ['block4c_project_bn[0][0]']     
                                                                                                  
 block4c_add (Add)              (None, 5, 32, 80)    0           ['block4c_drop[0][0]',           
                                                                  'block4b_add[0][0]']            
                                                                                                  
 block4d_expand_conv (Conv2D)   (None, 5, 32, 480)   38400       ['block4c_add[0][0]']            
                                                                                                  
 block4d_expand_bn (BatchNormal  (None, 5, 32, 480)  1920        ['block4d_expand_conv[0][0]']    
 ization)                                                                                         
                                                                                                  
 block4d_expand_activation (Act  (None, 5, 32, 480)  0           ['block4d_expand_bn[0][0]']      
 ivation)                                                                                         
                                                                                                  
 block4d_dwconv (DepthwiseConv2  (None, 5, 32, 480)  4320        ['block4d_expand_activation[0][0]
 D)                                                              ']                               
                                                                                                  
 block4d_bn (BatchNormalization  (None, 5, 32, 480)  1920        ['block4d_dwconv[0][0]']         
 )                                                                                                
                                                                                                  
 block4d_activation (Activation  (None, 5, 32, 480)  0           ['block4d_bn[0][0]']             
 )                                                                                                
                                                                                                  
 block4d_se_squeeze (GlobalAver  (None, 480)         0           ['block4d_activation[0][0]']     
 agePooling2D)                                                                                    
                                                                                                  
 block4d_se_reshape (Reshape)   (None, 1, 1, 480)    0           ['block4d_se_squeeze[0][0]']     
                                                                                                  
 block4d_se_reduce (Conv2D)     (None, 1, 1, 20)     9620        ['block4d_se_reshape[0][0]']     
                                                                                                  
 block4d_se_expand (Conv2D)     (None, 1, 1, 480)    10080       ['block4d_se_reduce[0][0]']      
                                                                                                  
 block4d_se_excite (Multiply)   (None, 5, 32, 480)   0           ['block4d_activation[0][0]',     
                                                                  'block4d_se_expand[0][0]']      
                                                                                                  
 block4d_project_conv (Conv2D)  (None, 5, 32, 80)    38400       ['block4d_se_excite[0][0]']      
                                                                                                  
 block4d_project_bn (BatchNorma  (None, 5, 32, 80)   320         ['block4d_project_conv[0][0]']   
 lization)                                                                                        
                                                                                                  
 block4d_drop (Dropout)         (None, 5, 32, 80)    0           ['block4d_project_bn[0][0]']     
                                                                                                  
 block4d_add (Add)              (None, 5, 32, 80)    0           ['block4d_drop[0][0]',           
                                                                  'block4c_add[0][0]']            
                                                                                                  
 block5a_expand_conv (Conv2D)   (None, 5, 32, 480)   38400       ['block4d_add[0][0]']            
                                                                                                  
 block5a_expand_bn (BatchNormal  (None, 5, 32, 480)  1920        ['block5a_expand_conv[0][0]']    
 ization)                                                                                         
                                                                                                  
 block5a_expand_activation (Act  (None, 5, 32, 480)  0           ['block5a_expand_bn[0][0]']      
 ivation)                                                                                         
                                                                                                  
 block5a_dwconv (DepthwiseConv2  (None, 5, 32, 480)  12000       ['block5a_expand_activation[0][0]
 D)                                                              ']                               
                                                                                                  
 block5a_bn (BatchNormalization  (None, 5, 32, 480)  1920        ['block5a_dwconv[0][0]']         
 )                                                                                                
                                                                                                  
 block5a_activation (Activation  (None, 5, 32, 480)  0           ['block5a_bn[0][0]']             
 )                                                                                                
                                                                                                  
 block5a_se_squeeze (GlobalAver  (None, 480)         0           ['block5a_activation[0][0]']     
 agePooling2D)                                                                                    
                                                                                                  
 block5a_se_reshape (Reshape)   (None, 1, 1, 480)    0           ['block5a_se_squeeze[0][0]']     
                                                                                                  
 block5a_se_reduce (Conv2D)     (None, 1, 1, 20)     9620        ['block5a_se_reshape[0][0]']     
                                                                                                  
 block5a_se_expand (Conv2D)     (None, 1, 1, 480)    10080       ['block5a_se_reduce[0][0]']      
                                                                                                  
 block5a_se_excite (Multiply)   (None, 5, 32, 480)   0           ['block5a_activation[0][0]',     
                                                                  'block5a_se_expand[0][0]']      
                                                                                                  
 block5a_project_conv (Conv2D)  (None, 5, 32, 112)   53760       ['block5a_se_excite[0][0]']      
                                                                                                  
 block5a_project_bn (BatchNorma  (None, 5, 32, 112)  448         ['block5a_project_conv[0][0]']   
 lization)                                                                                        
                                                                                                  
 block5b_expand_conv (Conv2D)   (None, 5, 32, 672)   75264       ['block5a_project_bn[0][0]']     
                                                                                                  
 block5b_expand_bn (BatchNormal  (None, 5, 32, 672)  2688        ['block5b_expand_conv[0][0]']    
 ization)                                                                                         
                                                                                                  
 block5b_expand_activation (Act  (None, 5, 32, 672)  0           ['block5b_expand_bn[0][0]']      
 ivation)                                                                                         
                                                                                                  
 block5b_dwconv (DepthwiseConv2  (None, 5, 32, 672)  16800       ['block5b_expand_activation[0][0]
 D)                                                              ']                               
                                                                                                  
 block5b_bn (BatchNormalization  (None, 5, 32, 672)  2688        ['block5b_dwconv[0][0]']         
 )                                                                                                
                                                                                                  
 block5b_activation (Activation  (None, 5, 32, 672)  0           ['block5b_bn[0][0]']             
 )                                                                                                
                                                                                                  
 block5b_se_squeeze (GlobalAver  (None, 672)         0           ['block5b_activation[0][0]']     
 agePooling2D)                                                                                    
                                                                                                  
 block5b_se_reshape (Reshape)   (None, 1, 1, 672)    0           ['block5b_se_squeeze[0][0]']     
                                                                                                  
 block5b_se_reduce (Conv2D)     (None, 1, 1, 28)     18844       ['block5b_se_reshape[0][0]']     
                                                                                                  
 block5b_se_expand (Conv2D)     (None, 1, 1, 672)    19488       ['block5b_se_reduce[0][0]']      
                                                                                                  
 block5b_se_excite (Multiply)   (None, 5, 32, 672)   0           ['block5b_activation[0][0]',     
                                                                  'block5b_se_expand[0][0]']      
                                                                                                  
 block5b_project_conv (Conv2D)  (None, 5, 32, 112)   75264       ['block5b_se_excite[0][0]']      
                                                                                                  
 block5b_project_bn (BatchNorma  (None, 5, 32, 112)  448         ['block5b_project_conv[0][0]']   
 lization)                                                                                        
                                                                                                  
 block5b_drop (Dropout)         (None, 5, 32, 112)   0           ['block5b_project_bn[0][0]']     
                                                                                                  
 block5b_add (Add)              (None, 5, 32, 112)   0           ['block5b_drop[0][0]',           
                                                                  'block5a_project_bn[0][0]']     
                                                                                                  
 block5c_expand_conv (Conv2D)   (None, 5, 32, 672)   75264       ['block5b_add[0][0]']            
                                                                                                  
 block5c_expand_bn (BatchNormal  (None, 5, 32, 672)  2688        ['block5c_expand_conv[0][0]']    
 ization)                                                                                         
                                                                                                  
 block5c_expand_activation (Act  (None, 5, 32, 672)  0           ['block5c_expand_bn[0][0]']      
 ivation)                                                                                         
                                                                                                  
 block5c_dwconv (DepthwiseConv2  (None, 5, 32, 672)  16800       ['block5c_expand_activation[0][0]
 D)                                                              ']                               
                                                                                                  
 block5c_bn (BatchNormalization  (None, 5, 32, 672)  2688        ['block5c_dwconv[0][0]']         
 )                                                                                                
                                                                                                  
 block5c_activation (Activation  (None, 5, 32, 672)  0           ['block5c_bn[0][0]']             
 )                                                                                                
                                                                                                  
 block5c_se_squeeze (GlobalAver  (None, 672)         0           ['block5c_activation[0][0]']     
 agePooling2D)                                                                                    
                                                                                                  
 block5c_se_reshape (Reshape)   (None, 1, 1, 672)    0           ['block5c_se_squeeze[0][0]']     
                                                                                                  
 block5c_se_reduce (Conv2D)     (None, 1, 1, 28)     18844       ['block5c_se_reshape[0][0]']     
                                                                                                  
 block5c_se_expand (Conv2D)     (None, 1, 1, 672)    19488       ['block5c_se_reduce[0][0]']      
                                                                                                  
 block5c_se_excite (Multiply)   (None, 5, 32, 672)   0           ['block5c_activation[0][0]',     
                                                                  'block5c_se_expand[0][0]']      
                                                                                                  
 block5c_project_conv (Conv2D)  (None, 5, 32, 112)   75264       ['block5c_se_excite[0][0]']      
                                                                                                  
 block5c_project_bn (BatchNorma  (None, 5, 32, 112)  448         ['block5c_project_conv[0][0]']   
 lization)                                                                                        
                                                                                                  
 block5c_drop (Dropout)         (None, 5, 32, 112)   0           ['block5c_project_bn[0][0]']     
                                                                                                  
 block5c_add (Add)              (None, 5, 32, 112)   0           ['block5c_drop[0][0]',           
                                                                  'block5b_add[0][0]']            
                                                                                                  
 block5d_expand_conv (Conv2D)   (None, 5, 32, 672)   75264       ['block5c_add[0][0]']            
                                                                                                  
 block5d_expand_bn (BatchNormal  (None, 5, 32, 672)  2688        ['block5d_expand_conv[0][0]']    
 ization)                                                                                         
                                                                                                  
 block5d_expand_activation (Act  (None, 5, 32, 672)  0           ['block5d_expand_bn[0][0]']      
 ivation)                                                                                         
                                                                                                  
 block5d_dwconv (DepthwiseConv2  (None, 5, 32, 672)  16800       ['block5d_expand_activation[0][0]
 D)                                                              ']                               
                                                                                                  
 block5d_bn (BatchNormalization  (None, 5, 32, 672)  2688        ['block5d_dwconv[0][0]']         
 )                                                                                                
                                                                                                  
 block5d_activation (Activation  (None, 5, 32, 672)  0           ['block5d_bn[0][0]']             
 )                                                                                                
                                                                                                  
 block5d_se_squeeze (GlobalAver  (None, 672)         0           ['block5d_activation[0][0]']     
 agePooling2D)                                                                                    
                                                                                                  
 block5d_se_reshape (Reshape)   (None, 1, 1, 672)    0           ['block5d_se_squeeze[0][0]']     
                                                                                                  
 block5d_se_reduce (Conv2D)     (None, 1, 1, 28)     18844       ['block5d_se_reshape[0][0]']     
                                                                                                  
 block5d_se_expand (Conv2D)     (None, 1, 1, 672)    19488       ['block5d_se_reduce[0][0]']      
                                                                                                  
 block5d_se_excite (Multiply)   (None, 5, 32, 672)   0           ['block5d_activation[0][0]',     
                                                                  'block5d_se_expand[0][0]']      
                                                                                                  
 block5d_project_conv (Conv2D)  (None, 5, 32, 112)   75264       ['block5d_se_excite[0][0]']      
                                                                                                  
 block5d_project_bn (BatchNorma  (None, 5, 32, 112)  448         ['block5d_project_conv[0][0]']   
 lization)                                                                                        
                                                                                                  
 block5d_drop (Dropout)         (None, 5, 32, 112)   0           ['block5d_project_bn[0][0]']     
                                                                                                  
 block5d_add (Add)              (None, 5, 32, 112)   0           ['block5d_drop[0][0]',           
                                                                  'block5c_add[0][0]']            
                                                                                                  
 block6a_expand_conv (Conv2D)   (None, 5, 32, 672)   75264       ['block5d_add[0][0]']            
                                                                                                  
 block6a_expand_bn (BatchNormal  (None, 5, 32, 672)  2688        ['block6a_expand_conv[0][0]']    
 ization)                                                                                         
                                                                                                  
 block6a_expand_activation (Act  (None, 5, 32, 672)  0           ['block6a_expand_bn[0][0]']      
 ivation)                                                                                         
                                                                                                  
 block6a_dwconv_pad (ZeroPaddin  (None, 9, 35, 672)  0           ['block6a_expand_activation[0][0]
 g2D)                                                            ']                               
                                                                                                  
 block6a_dwconv (DepthwiseConv2  (None, 3, 16, 672)  16800       ['block6a_dwconv_pad[0][0]']     
 D)                                                                                               
                                                                                                  
 block6a_bn (BatchNormalization  (None, 3, 16, 672)  2688        ['block6a_dwconv[0][0]']         
 )                                                                                                
                                                                                                  
 block6a_activation (Activation  (None, 3, 16, 672)  0           ['block6a_bn[0][0]']             
 )                                                                                                
                                                                                                  
 block6a_se_squeeze (GlobalAver  (None, 672)         0           ['block6a_activation[0][0]']     
 agePooling2D)                                                                                    
                                                                                                  
 block6a_se_reshape (Reshape)   (None, 1, 1, 672)    0           ['block6a_se_squeeze[0][0]']     
                                                                                                  
 block6a_se_reduce (Conv2D)     (None, 1, 1, 28)     18844       ['block6a_se_reshape[0][0]']     
                                                                                                  
 block6a_se_expand (Conv2D)     (None, 1, 1, 672)    19488       ['block6a_se_reduce[0][0]']      
                                                                                                  
 block6a_se_excite (Multiply)   (None, 3, 16, 672)   0           ['block6a_activation[0][0]',     
                                                                  'block6a_se_expand[0][0]']      
                                                                                                  
 block6a_project_conv (Conv2D)  (None, 3, 16, 192)   129024      ['block6a_se_excite[0][0]']      
                                                                                                  
 block6a_project_bn (BatchNorma  (None, 3, 16, 192)  768         ['block6a_project_conv[0][0]']   
 lization)                                                                                        
                                                                                                  
 block6b_expand_conv (Conv2D)   (None, 3, 16, 1152)  221184      ['block6a_project_bn[0][0]']     
                                                                                                  
 block6b_expand_bn (BatchNormal  (None, 3, 16, 1152)  4608       ['block6b_expand_conv[0][0]']    
 ization)                                                                                         
                                                                                                  
 block6b_expand_activation (Act  (None, 3, 16, 1152)  0          ['block6b_expand_bn[0][0]']      
 ivation)                                                                                         
                                                                                                  
 block6b_dwconv (DepthwiseConv2  (None, 3, 16, 1152)  28800      ['block6b_expand_activation[0][0]
 D)                                                              ']                               
                                                                                                  
 block6b_bn (BatchNormalization  (None, 3, 16, 1152)  4608       ['block6b_dwconv[0][0]']         
 )                                                                                                
                                                                                                  
 block6b_activation (Activation  (None, 3, 16, 1152)  0          ['block6b_bn[0][0]']             
 )                                                                                                
                                                                                                  
 block6b_se_squeeze (GlobalAver  (None, 1152)        0           ['block6b_activation[0][0]']     
 agePooling2D)                                                                                    
                                                                                                  
 block6b_se_reshape (Reshape)   (None, 1, 1, 1152)   0           ['block6b_se_squeeze[0][0]']     
                                                                                                  
 block6b_se_reduce (Conv2D)     (None, 1, 1, 48)     55344       ['block6b_se_reshape[0][0]']     
                                                                                                  
 block6b_se_expand (Conv2D)     (None, 1, 1, 1152)   56448       ['block6b_se_reduce[0][0]']      
                                                                                                  
 block6b_se_excite (Multiply)   (None, 3, 16, 1152)  0           ['block6b_activation[0][0]',     
                                                                  'block6b_se_expand[0][0]']      
                                                                                                  
 block6b_project_conv (Conv2D)  (None, 3, 16, 192)   221184      ['block6b_se_excite[0][0]']      
                                                                                                  
 block6b_project_bn (BatchNorma  (None, 3, 16, 192)  768         ['block6b_project_conv[0][0]']   
 lization)                                                                                        
                                                                                                  
 block6b_drop (Dropout)         (None, 3, 16, 192)   0           ['block6b_project_bn[0][0]']     
                                                                                                  
 block6b_add (Add)              (None, 3, 16, 192)   0           ['block6b_drop[0][0]',           
                                                                  'block6a_project_bn[0][0]']     
                                                                                                  
 block6c_expand_conv (Conv2D)   (None, 3, 16, 1152)  221184      ['block6b_add[0][0]']            
                                                                                                  
 block6c_expand_bn (BatchNormal  (None, 3, 16, 1152)  4608       ['block6c_expand_conv[0][0]']    
 ization)                                                                                         
                                                                                                  
 block6c_expand_activation (Act  (None, 3, 16, 1152)  0          ['block6c_expand_bn[0][0]']      
 ivation)                                                                                         
                                                                                                  
 block6c_dwconv (DepthwiseConv2  (None, 3, 16, 1152)  28800      ['block6c_expand_activation[0][0]
 D)                                                              ']                               
                                                                                                  
 block6c_bn (BatchNormalization  (None, 3, 16, 1152)  4608       ['block6c_dwconv[0][0]']         
 )                                                                                                
                                                                                                  
 block6c_activation (Activation  (None, 3, 16, 1152)  0          ['block6c_bn[0][0]']             
 )                                                                                                
                                                                                                  
 block6c_se_squeeze (GlobalAver  (None, 1152)        0           ['block6c_activation[0][0]']     
 agePooling2D)                                                                                    
                                                                                                  
 block6c_se_reshape (Reshape)   (None, 1, 1, 1152)   0           ['block6c_se_squeeze[0][0]']     
                                                                                                  
 block6c_se_reduce (Conv2D)     (None, 1, 1, 48)     55344       ['block6c_se_reshape[0][0]']     
                                                                                                  
 block6c_se_expand (Conv2D)     (None, 1, 1, 1152)   56448       ['block6c_se_reduce[0][0]']      
                                                                                                  
 block6c_se_excite (Multiply)   (None, 3, 16, 1152)  0           ['block6c_activation[0][0]',     
                                                                  'block6c_se_expand[0][0]']      
                                                                                                  
 block6c_project_conv (Conv2D)  (None, 3, 16, 192)   221184      ['block6c_se_excite[0][0]']      
                                                                                                  
 block6c_project_bn (BatchNorma  (None, 3, 16, 192)  768         ['block6c_project_conv[0][0]']   
 lization)                                                                                        
                                                                                                  
 block6c_drop (Dropout)         (None, 3, 16, 192)   0           ['block6c_project_bn[0][0]']     
                                                                                                  
 block6c_add (Add)              (None, 3, 16, 192)   0           ['block6c_drop[0][0]',           
                                                                  'block6b_add[0][0]']            
                                                                                                  
 block6d_expand_conv (Conv2D)   (None, 3, 16, 1152)  221184      ['block6c_add[0][0]']            
                                                                                                  
 block6d_expand_bn (BatchNormal  (None, 3, 16, 1152)  4608       ['block6d_expand_conv[0][0]']    
 ization)                                                                                         
                                                                                                  
 block6d_expand_activation (Act  (None, 3, 16, 1152)  0          ['block6d_expand_bn[0][0]']      
 ivation)                                                                                         
                                                                                                  
 block6d_dwconv (DepthwiseConv2  (None, 3, 16, 1152)  28800      ['block6d_expand_activation[0][0]
 D)                                                              ']                               
                                                                                                  
 block6d_bn (BatchNormalization  (None, 3, 16, 1152)  4608       ['block6d_dwconv[0][0]']         
 )                                                                                                
                                                                                                  
 block6d_activation (Activation  (None, 3, 16, 1152)  0          ['block6d_bn[0][0]']             
 )                                                                                                
                                                                                                  
 block6d_se_squeeze (GlobalAver  (None, 1152)        0           ['block6d_activation[0][0]']     
 agePooling2D)                                                                                    
                                                                                                  
 block6d_se_reshape (Reshape)   (None, 1, 1, 1152)   0           ['block6d_se_squeeze[0][0]']     
                                                                                                  
 block6d_se_reduce (Conv2D)     (None, 1, 1, 48)     55344       ['block6d_se_reshape[0][0]']     
                                                                                                  
 block6d_se_expand (Conv2D)     (None, 1, 1, 1152)   56448       ['block6d_se_reduce[0][0]']      
                                                                                                  
 block6d_se_excite (Multiply)   (None, 3, 16, 1152)  0           ['block6d_activation[0][0]',     
                                                                  'block6d_se_expand[0][0]']      
                                                                                                  
 block6d_project_conv (Conv2D)  (None, 3, 16, 192)   221184      ['block6d_se_excite[0][0]']      
                                                                                                  
 block6d_project_bn (BatchNorma  (None, 3, 16, 192)  768         ['block6d_project_conv[0][0]']   
 lization)                                                                                        
                                                                                                  
 block6d_drop (Dropout)         (None, 3, 16, 192)   0           ['block6d_project_bn[0][0]']     
                                                                                                  
 block6d_add (Add)              (None, 3, 16, 192)   0           ['block6d_drop[0][0]',           
                                                                  'block6c_add[0][0]']            
                                                                                                  
 block6e_expand_conv (Conv2D)   (None, 3, 16, 1152)  221184      ['block6d_add[0][0]']            
                                                                                                  
 block6e_expand_bn (BatchNormal  (None, 3, 16, 1152)  4608       ['block6e_expand_conv[0][0]']    
 ization)                                                                                         
                                                                                                  
 block6e_expand_activation (Act  (None, 3, 16, 1152)  0          ['block6e_expand_bn[0][0]']      
 ivation)                                                                                         
                                                                                                  
 block6e_dwconv (DepthwiseConv2  (None, 3, 16, 1152)  28800      ['block6e_expand_activation[0][0]
 D)                                                              ']                               
                                                                                                  
 block6e_bn (BatchNormalization  (None, 3, 16, 1152)  4608       ['block6e_dwconv[0][0]']         
 )                                                                                                
                                                                                                  
 block6e_activation (Activation  (None, 3, 16, 1152)  0          ['block6e_bn[0][0]']             
 )                                                                                                
                                                                                                  
 block6e_se_squeeze (GlobalAver  (None, 1152)        0           ['block6e_activation[0][0]']     
 agePooling2D)                                                                                    
                                                                                                  
 block6e_se_reshape (Reshape)   (None, 1, 1, 1152)   0           ['block6e_se_squeeze[0][0]']     
                                                                                                  
 block6e_se_reduce (Conv2D)     (None, 1, 1, 48)     55344       ['block6e_se_reshape[0][0]']     
                                                                                                  
 block6e_se_expand (Conv2D)     (None, 1, 1, 1152)   56448       ['block6e_se_reduce[0][0]']      
                                                                                                  
 block6e_se_excite (Multiply)   (None, 3, 16, 1152)  0           ['block6e_activation[0][0]',     
                                                                  'block6e_se_expand[0][0]']      
                                                                                                  
 block6e_project_conv (Conv2D)  (None, 3, 16, 192)   221184      ['block6e_se_excite[0][0]']      
                                                                                                  
 block6e_project_bn (BatchNorma  (None, 3, 16, 192)  768         ['block6e_project_conv[0][0]']   
 lization)                                                                                        
                                                                                                  
 block6e_drop (Dropout)         (None, 3, 16, 192)   0           ['block6e_project_bn[0][0]']     
                                                                                                  
 block6e_add (Add)              (None, 3, 16, 192)   0           ['block6e_drop[0][0]',           
                                                                  'block6d_add[0][0]']            
                                                                                                  
 block7a_expand_conv (Conv2D)   (None, 3, 16, 1152)  221184      ['block6e_add[0][0]']            
                                                                                                  
 block7a_expand_bn (BatchNormal  (None, 3, 16, 1152)  4608       ['block7a_expand_conv[0][0]']    
 ization)                                                                                         
                                                                                                  
 block7a_expand_activation (Act  (None, 3, 16, 1152)  0          ['block7a_expand_bn[0][0]']      
 ivation)                                                                                         
                                                                                                  
 block7a_dwconv (DepthwiseConv2  (None, 3, 16, 1152)  10368      ['block7a_expand_activation[0][0]
 D)                                                              ']                               
                                                                                                  
 block7a_bn (BatchNormalization  (None, 3, 16, 1152)  4608       ['block7a_dwconv[0][0]']         
 )                                                                                                
                                                                                                  
 block7a_activation (Activation  (None, 3, 16, 1152)  0          ['block7a_bn[0][0]']             
 )                                                                                                
                                                                                                  
 block7a_se_squeeze (GlobalAver  (None, 1152)        0           ['block7a_activation[0][0]']     
 agePooling2D)                                                                                    
                                                                                                  
 block7a_se_reshape (Reshape)   (None, 1, 1, 1152)   0           ['block7a_se_squeeze[0][0]']     
                                                                                                  
 block7a_se_reduce (Conv2D)     (None, 1, 1, 48)     55344       ['block7a_se_reshape[0][0]']     
                                                                                                  
 block7a_se_expand (Conv2D)     (None, 1, 1, 1152)   56448       ['block7a_se_reduce[0][0]']      
                                                                                                  
 block7a_se_excite (Multiply)   (None, 3, 16, 1152)  0           ['block7a_activation[0][0]',     
                                                                  'block7a_se_expand[0][0]']      
                                                                                                  
 block7a_project_conv (Conv2D)  (None, 3, 16, 320)   368640      ['block7a_se_excite[0][0]']      
                                                                                                  
 block7a_project_bn (BatchNorma  (None, 3, 16, 320)  1280        ['block7a_project_conv[0][0]']   
 lization)                                                                                        
                                                                                                  
 block7b_expand_conv (Conv2D)   (None, 3, 16, 1920)  614400      ['block7a_project_bn[0][0]']     
                                                                                                  
 block7b_expand_bn (BatchNormal  (None, 3, 16, 1920)  7680       ['block7b_expand_conv[0][0]']    
 ization)                                                                                         
                                                                                                  
 block7b_expand_activation (Act  (None, 3, 16, 1920)  0          ['block7b_expand_bn[0][0]']      
 ivation)                                                                                         
                                                                                                  
 block7b_dwconv (DepthwiseConv2  (None, 3, 16, 1920)  17280      ['block7b_expand_activation[0][0]
 D)                                                              ']                               
                                                                                                  
 block7b_bn (BatchNormalization  (None, 3, 16, 1920)  7680       ['block7b_dwconv[0][0]']         
 )                                                                                                
                                                                                                  
 block7b_activation (Activation  (None, 3, 16, 1920)  0          ['block7b_bn[0][0]']             
 )                                                                                                
                                                                                                  
 block7b_se_squeeze (GlobalAver  (None, 1920)        0           ['block7b_activation[0][0]']     
 agePooling2D)                                                                                    
                                                                                                  
 block7b_se_reshape (Reshape)   (None, 1, 1, 1920)   0           ['block7b_se_squeeze[0][0]']     
                                                                                                  
 block7b_se_reduce (Conv2D)     (None, 1, 1, 80)     153680      ['block7b_se_reshape[0][0]']     
                                                                                                  
 block7b_se_expand (Conv2D)     (None, 1, 1, 1920)   155520      ['block7b_se_reduce[0][0]']      
                                                                                                  
 block7b_se_excite (Multiply)   (None, 3, 16, 1920)  0           ['block7b_activation[0][0]',     
                                                                  'block7b_se_expand[0][0]']      
                                                                                                  
 block7b_project_conv (Conv2D)  (None, 3, 16, 320)   614400      ['block7b_se_excite[0][0]']      
                                                                                                  
 block7b_project_bn (BatchNorma  (None, 3, 16, 320)  1280        ['block7b_project_conv[0][0]']   
 lization)                                                                                        
                                                                                                  
 block7b_drop (Dropout)         (None, 3, 16, 320)   0           ['block7b_project_bn[0][0]']     
                                                                                                  
 block7b_add (Add)              (None, 3, 16, 320)   0           ['block7b_drop[0][0]',           
                                                                  'block7a_project_bn[0][0]']     
                                                                                                  
 top_conv (Conv2D)              (None, 3, 16, 1280)  409600      ['block7b_add[0][0]']            
                                                                                                  
 top_bn (BatchNormalization)    (None, 3, 16, 1280)  5120        ['top_conv[0][0]']               
                                                                                                  
 top_activation (Activation)    (None, 3, 16, 1280)  0           ['top_bn[0][0]']                 
                                                                                                  
==================================================================================================
Total params: 6,575,239
Trainable params: 6,513,184
Non-trainable params: 62,055
__________________________________________________________________________________________________
Model: "sequential"
_________________________________________________________________
 Layer (type)                Output Shape              Param #   
=================================================================
 efficientnetb1 (Functional)  (None, 3, 16, 1280)      6575239   
                                                                 
 batch_normalization (BatchN  (None, 3, 16, 1280)      5120      
 ormalization)                                                   
                                                                 
 global_average_pooling2d (G  (None, 1280)             0         
 lobalAveragePooling2D)                                          
                                                                 
 dense (Dense)               (None, 100)               128100    
                                                                 
 dropout (Dropout)           (None, 100)               0         
                                                                 
 dense_1 (Dense)             (None, 50)                5050      
                                                                 
 dropout_1 (Dropout)         (None, 50)                0         
                                                                 
 dense_2 (Dense)             (None, 4)                 204       
                                                                 
=================================================================
Total params: 6,713,713
Trainable params: 6,649,098
Non-trainable params: 64,615
_________________________________________________________________
Model: "leaf_model9_model_efnet1"
______________________________________________________________________________________________________________
…
