…
--- Final Validation dataset contains 2096 elements, with 989 none, 843 crackles, 120 wheezes and 144 both ---
[LogicalDevice(name='/device:GPU:0', device_type='GPU')]
Initializing weights...
weights = {0: 0.5252779248279513, 1: 1.0012613521695257, 2: 1.6620603015075377, 3: 2.0167682926829267}
Model: "resnet50"
__________________________________________________________________________________________________
 Layer (type)                   Output Shape         Param #     Connected to                     
==================================================================================================
 input_1 (InputLayer)           [(None, 80, 200, 3)  0           []                               
                                ]                                                                 
                                                                                                  
 conv1_pad (ZeroPadding2D)      (None, 86, 206, 3)   0           ['input_1[0][0]']                
                                                                                                  
 conv1_conv (Conv2D)            (None, 40, 100, 64)  9472        ['conv1_pad[0][0]']              
                                                                                                  
 conv1_bn (BatchNormalization)  (None, 40, 100, 64)  256         ['conv1_conv[0][0]']             
                                                                                                  
 conv1_relu (Activation)        (None, 40, 100, 64)  0           ['conv1_bn[0][0]']               
                                                                                                  
 pool1_pad (ZeroPadding2D)      (None, 42, 102, 64)  0           ['conv1_relu[0][0]']             
                                                                                                  
 pool1_pool (MaxPooling2D)      (None, 20, 50, 64)   0           ['pool1_pad[0][0]']              
                                                                                                  
 conv2_block1_1_conv (Conv2D)   (None, 20, 50, 64)   4160        ['pool1_pool[0][0]']             
                                                                                                  
 conv2_block1_1_bn (BatchNormal  (None, 20, 50, 64)  256         ['conv2_block1_1_conv[0][0]']    
 ization)                                                                                         
                                                                                                  
 conv2_block1_1_relu (Activatio  (None, 20, 50, 64)  0           ['conv2_block1_1_bn[0][0]']      
 n)                                                                                               
                                                                                                  
 conv2_block1_2_conv (Conv2D)   (None, 20, 50, 64)   36928       ['conv2_block1_1_relu[0][0]']    
                                                                                                  
 conv2_block1_2_bn (BatchNormal  (None, 20, 50, 64)  256         ['conv2_block1_2_conv[0][0]']    
 ization)                                                                                         
                                                                                                  
 conv2_block1_2_relu (Activatio  (None, 20, 50, 64)  0           ['conv2_block1_2_bn[0][0]']      
 n)                                                                                               
                                                                                                  
 conv2_block1_0_conv (Conv2D)   (None, 20, 50, 256)  16640       ['pool1_pool[0][0]']             
                                                                                                  
 conv2_block1_3_conv (Conv2D)   (None, 20, 50, 256)  16640       ['conv2_block1_2_relu[0][0]']    
                                                                                                  
 conv2_block1_0_bn (BatchNormal  (None, 20, 50, 256)  1024       ['conv2_block1_0_conv[0][0]']    
 ization)                                                                                         
                                                                                                  
 conv2_block1_3_bn (BatchNormal  (None, 20, 50, 256)  1024       ['conv2_block1_3_conv[0][0]']    
 ization)                                                                                         
                                                                                                  
 conv2_block1_add (Add)         (None, 20, 50, 256)  0           ['conv2_block1_0_bn[0][0]',      
                                                                  'conv2_block1_3_bn[0][0]']      
                                                                                                  
 conv2_block1_out (Activation)  (None, 20, 50, 256)  0           ['conv2_block1_add[0][0]']       
                                                                                                  
 conv2_block2_1_conv (Conv2D)   (None, 20, 50, 64)   16448       ['conv2_block1_out[0][0]']       
                                                                                                  
 conv2_block2_1_bn (BatchNormal  (None, 20, 50, 64)  256         ['conv2_block2_1_conv[0][0]']    
 ization)                                                                                         
                                                                                                  
 conv2_block2_1_relu (Activatio  (None, 20, 50, 64)  0           ['conv2_block2_1_bn[0][0]']      
 n)                                                                                               
                                                                                                  
 conv2_block2_2_conv (Conv2D)   (None, 20, 50, 64)   36928       ['conv2_block2_1_relu[0][0]']    
                                                                                                  
 conv2_block2_2_bn (BatchNormal  (None, 20, 50, 64)  256         ['conv2_block2_2_conv[0][0]']    
 ization)                                                                                         
                                                                                                  
 conv2_block2_2_relu (Activatio  (None, 20, 50, 64)  0           ['conv2_block2_2_bn[0][0]']      
 n)                                                                                               
                                                                                                  
 conv2_block2_3_conv (Conv2D)   (None, 20, 50, 256)  16640       ['conv2_block2_2_relu[0][0]']    
                                                                                                  
 conv2_block2_3_bn (BatchNormal  (None, 20, 50, 256)  1024       ['conv2_block2_3_conv[0][0]']    
 ization)                                                                                         
                                                                                                  
 conv2_block2_add (Add)         (None, 20, 50, 256)  0           ['conv2_block1_out[0][0]',       
                                                                  'conv2_block2_3_bn[0][0]']      
                                                                                                  
 conv2_block2_out (Activation)  (None, 20, 50, 256)  0           ['conv2_block2_add[0][0]']       
                                                                                                  
 conv2_block3_1_conv (Conv2D)   (None, 20, 50, 64)   16448       ['conv2_block2_out[0][0]']       
                                                                                                  
 conv2_block3_1_bn (BatchNormal  (None, 20, 50, 64)  256         ['conv2_block3_1_conv[0][0]']    
 ization)                                                                                         
                                                                                                  
 conv2_block3_1_relu (Activatio  (None, 20, 50, 64)  0           ['conv2_block3_1_bn[0][0]']      
 n)                                                                                               
                                                                                                  
 conv2_block3_2_conv (Conv2D)   (None, 20, 50, 64)   36928       ['conv2_block3_1_relu[0][0]']    
                                                                                                  
 conv2_block3_2_bn (BatchNormal  (None, 20, 50, 64)  256         ['conv2_block3_2_conv[0][0]']    
 ization)                                                                                         
                                                                                                  
 conv2_block3_2_relu (Activatio  (None, 20, 50, 64)  0           ['conv2_block3_2_bn[0][0]']      
 n)                                                                                               
                                                                                                  
 conv2_block3_3_conv (Conv2D)   (None, 20, 50, 256)  16640       ['conv2_block3_2_relu[0][0]']    
                                                                                                  
 conv2_block3_3_bn (BatchNormal  (None, 20, 50, 256)  1024       ['conv2_block3_3_conv[0][0]']    
 ization)                                                                                         
                                                                                                  
 conv2_block3_add (Add)         (None, 20, 50, 256)  0           ['conv2_block2_out[0][0]',       
                                                                  'conv2_block3_3_bn[0][0]']      
                                                                                                  
 conv2_block3_out (Activation)  (None, 20, 50, 256)  0           ['conv2_block3_add[0][0]']       
                                                                                                  
 conv3_block1_1_conv (Conv2D)   (None, 10, 25, 128)  32896       ['conv2_block3_out[0][0]']       
                                                                                                  
 conv3_block1_1_bn (BatchNormal  (None, 10, 25, 128)  512        ['conv3_block1_1_conv[0][0]']    
 ization)                                                                                         
                                                                                                  
 conv3_block1_1_relu (Activatio  (None, 10, 25, 128)  0          ['conv3_block1_1_bn[0][0]']      
 n)                                                                                               
                                                                                                  
 conv3_block1_2_conv (Conv2D)   (None, 10, 25, 128)  147584      ['conv3_block1_1_relu[0][0]']    
                                                                                                  
 conv3_block1_2_bn (BatchNormal  (None, 10, 25, 128)  512        ['conv3_block1_2_conv[0][0]']    
 ization)                                                                                         
                                                                                                  
 conv3_block1_2_relu (Activatio  (None, 10, 25, 128)  0          ['conv3_block1_2_bn[0][0]']      
 n)                                                                                               
                                                                                                  
 conv3_block1_0_conv (Conv2D)   (None, 10, 25, 512)  131584      ['conv2_block3_out[0][0]']       
                                                                                                  
 conv3_block1_3_conv (Conv2D)   (None, 10, 25, 512)  66048       ['conv3_block1_2_relu[0][0]']    
                                                                                                  
 conv3_block1_0_bn (BatchNormal  (None, 10, 25, 512)  2048       ['conv3_block1_0_conv[0][0]']    
 ization)                                                                                         
                                                                                                  
 conv3_block1_3_bn (BatchNormal  (None, 10, 25, 512)  2048       ['conv3_block1_3_conv[0][0]']    
 ization)                                                                                         
                                                                                                  
 conv3_block1_add (Add)         (None, 10, 25, 512)  0           ['conv3_block1_0_bn[0][0]',      
                                                                  'conv3_block1_3_bn[0][0]']      
                                                                                                  
 conv3_block1_out (Activation)  (None, 10, 25, 512)  0           ['conv3_block1_add[0][0]']       
                                                                                                  
 conv3_block2_1_conv (Conv2D)   (None, 10, 25, 128)  65664       ['conv3_block1_out[0][0]']       
                                                                                                  
 conv3_block2_1_bn (BatchNormal  (None, 10, 25, 128)  512        ['conv3_block2_1_conv[0][0]']    
 ization)                                                                                         
                                                                                                  
 conv3_block2_1_relu (Activatio  (None, 10, 25, 128)  0          ['conv3_block2_1_bn[0][0]']      
 n)                                                                                               
                                                                                                  
 conv3_block2_2_conv (Conv2D)   (None, 10, 25, 128)  147584      ['conv3_block2_1_relu[0][0]']    
                                                                                                  
 conv3_block2_2_bn (BatchNormal  (None, 10, 25, 128)  512        ['conv3_block2_2_conv[0][0]']    
 ization)                                                                                         
                                                                                                  
 conv3_block2_2_relu (Activatio  (None, 10, 25, 128)  0          ['conv3_block2_2_bn[0][0]']      
 n)                                                                                               
                                                                                                  
 conv3_block2_3_conv (Conv2D)   (None, 10, 25, 512)  66048       ['conv3_block2_2_relu[0][0]']    
                                                                                                  
 conv3_block2_3_bn (BatchNormal  (None, 10, 25, 512)  2048       ['conv3_block2_3_conv[0][0]']    
 ization)                                                                                         
                                                                                                  
 conv3_block2_add (Add)         (None, 10, 25, 512)  0           ['conv3_block1_out[0][0]',       
                                                                  'conv3_block2_3_bn[0][0]']      
                                                                                                  
 conv3_block2_out (Activation)  (None, 10, 25, 512)  0           ['conv3_block2_add[0][0]']       
                                                                                                  
 conv3_block3_1_conv (Conv2D)   (None, 10, 25, 128)  65664       ['conv3_block2_out[0][0]']       
                                                                                                  
 conv3_block3_1_bn (BatchNormal  (None, 10, 25, 128)  512        ['conv3_block3_1_conv[0][0]']    
 ization)                                                                                         
                                                                                                  
 conv3_block3_1_relu (Activatio  (None, 10, 25, 128)  0          ['conv3_block3_1_bn[0][0]']      
 n)                                                                                               
                                                                                                  
 conv3_block3_2_conv (Conv2D)   (None, 10, 25, 128)  147584      ['conv3_block3_1_relu[0][0]']    
                                                                                                  
 conv3_block3_2_bn (BatchNormal  (None, 10, 25, 128)  512        ['conv3_block3_2_conv[0][0]']    
 ization)                                                                                         
                                                                                                  
 conv3_block3_2_relu (Activatio  (None, 10, 25, 128)  0          ['conv3_block3_2_bn[0][0]']      
 n)                                                                                               
                                                                                                  
 conv3_block3_3_conv (Conv2D)   (None, 10, 25, 512)  66048       ['conv3_block3_2_relu[0][0]']    
                                                                                                  
 conv3_block3_3_bn (BatchNormal  (None, 10, 25, 512)  2048       ['conv3_block3_3_conv[0][0]']    
 ization)                                                                                         
                                                                                                  
 conv3_block3_add (Add)         (None, 10, 25, 512)  0           ['conv3_block2_out[0][0]',       
                                                                  'conv3_block3_3_bn[0][0]']      
                                                                                                  
 conv3_block3_out (Activation)  (None, 10, 25, 512)  0           ['conv3_block3_add[0][0]']       
                                                                                                  
 conv3_block4_1_conv (Conv2D)   (None, 10, 25, 128)  65664       ['conv3_block3_out[0][0]']       
                                                                                                  
 conv3_block4_1_bn (BatchNormal  (None, 10, 25, 128)  512        ['conv3_block4_1_conv[0][0]']    
 ization)                                                                                         
                                                                                                  
 conv3_block4_1_relu (Activatio  (None, 10, 25, 128)  0          ['conv3_block4_1_bn[0][0]']      
 n)                                                                                               
                                                                                                  
 conv3_block4_2_conv (Conv2D)   (None, 10, 25, 128)  147584      ['conv3_block4_1_relu[0][0]']    
                                                                                                  
 conv3_block4_2_bn (BatchNormal  (None, 10, 25, 128)  512        ['conv3_block4_2_conv[0][0]']    
 ization)                                                                                         
                                                                                                  
 conv3_block4_2_relu (Activatio  (None, 10, 25, 128)  0          ['conv3_block4_2_bn[0][0]']      
 n)                                                                                               
                                                                                                  
 conv3_block4_3_conv (Conv2D)   (None, 10, 25, 512)  66048       ['conv3_block4_2_relu[0][0]']    
                                                                                                  
 conv3_block4_3_bn (BatchNormal  (None, 10, 25, 512)  2048       ['conv3_block4_3_conv[0][0]']    
 ization)                                                                                         
                                                                                                  
 conv3_block4_add (Add)         (None, 10, 25, 512)  0           ['conv3_block3_out[0][0]',       
                                                                  'conv3_block4_3_bn[0][0]']      
                                                                                                  
 conv3_block4_out (Activation)  (None, 10, 25, 512)  0           ['conv3_block4_add[0][0]']       
                                                                                                  
 conv4_block1_1_conv (Conv2D)   (None, 5, 13, 256)   131328      ['conv3_block4_out[0][0]']       
                                                                                                  
 conv4_block1_1_bn (BatchNormal  (None, 5, 13, 256)  1024        ['conv4_block1_1_conv[0][0]']    
 ization)                                                                                         
                                                                                                  
 conv4_block1_1_relu (Activatio  (None, 5, 13, 256)  0           ['conv4_block1_1_bn[0][0]']      
 n)                                                                                               
                                                                                                  
 conv4_block1_2_conv (Conv2D)   (None, 5, 13, 256)   590080      ['conv4_block1_1_relu[0][0]']    
                                                                                                  
 conv4_block1_2_bn (BatchNormal  (None, 5, 13, 256)  1024        ['conv4_block1_2_conv[0][0]']    
 ization)                                                                                         
                                                                                                  
 conv4_block1_2_relu (Activatio  (None, 5, 13, 256)  0           ['conv4_block1_2_bn[0][0]']      
 n)                                                                                               
                                                                                                  
 conv4_block1_0_conv (Conv2D)   (None, 5, 13, 1024)  525312      ['conv3_block4_out[0][0]']       
                                                                                                  
 conv4_block1_3_conv (Conv2D)   (None, 5, 13, 1024)  263168      ['conv4_block1_2_relu[0][0]']    
                                                                                                  
 conv4_block1_0_bn (BatchNormal  (None, 5, 13, 1024)  4096       ['conv4_block1_0_conv[0][0]']    
 ization)                                                                                         
                                                                                                  
 conv4_block1_3_bn (BatchNormal  (None, 5, 13, 1024)  4096       ['conv4_block1_3_conv[0][0]']    
 ization)                                                                                         
                                                                                                  
 conv4_block1_add (Add)         (None, 5, 13, 1024)  0           ['conv4_block1_0_bn[0][0]',      
                                                                  'conv4_block1_3_bn[0][0]']      
                                                                                                  
 conv4_block1_out (Activation)  (None, 5, 13, 1024)  0           ['conv4_block1_add[0][0]']       
                                                                                                  
 conv4_block2_1_conv (Conv2D)   (None, 5, 13, 256)   262400      ['conv4_block1_out[0][0]']       
                                                                                                  
 conv4_block2_1_bn (BatchNormal  (None, 5, 13, 256)  1024        ['conv4_block2_1_conv[0][0]']    
 ization)                                                                                         
                                                                                                  
 conv4_block2_1_relu (Activatio  (None, 5, 13, 256)  0           ['conv4_block2_1_bn[0][0]']      
 n)                                                                                               
                                                                                                  
 conv4_block2_2_conv (Conv2D)   (None, 5, 13, 256)   590080      ['conv4_block2_1_relu[0][0]']    
                                                                                                  
 conv4_block2_2_bn (BatchNormal  (None, 5, 13, 256)  1024        ['conv4_block2_2_conv[0][0]']    
 ization)                                                                                         
                                                                                                  
 conv4_block2_2_relu (Activatio  (None, 5, 13, 256)  0           ['conv4_block2_2_bn[0][0]']      
 n)                                                                                               
                                                                                                  
 conv4_block2_3_conv (Conv2D)   (None, 5, 13, 1024)  263168      ['conv4_block2_2_relu[0][0]']    
                                                                                                  
 conv4_block2_3_bn (BatchNormal  (None, 5, 13, 1024)  4096       ['conv4_block2_3_conv[0][0]']    
 ization)                                                                                         
                                                                                                  
 conv4_block2_add (Add)         (None, 5, 13, 1024)  0           ['conv4_block1_out[0][0]',       
                                                                  'conv4_block2_3_bn[0][0]']      
                                                                                                  
 conv4_block2_out (Activation)  (None, 5, 13, 1024)  0           ['conv4_block2_add[0][0]']       
                                                                                                  
 conv4_block3_1_conv (Conv2D)   (None, 5, 13, 256)   262400      ['conv4_block2_out[0][0]']       
                                                                                                  
 conv4_block3_1_bn (BatchNormal  (None, 5, 13, 256)  1024        ['conv4_block3_1_conv[0][0]']    
 ization)                                                                                         
                                                                                                  
 conv4_block3_1_relu (Activatio  (None, 5, 13, 256)  0           ['conv4_block3_1_bn[0][0]']      
 n)                                                                                               
                                                                                                  
 conv4_block3_2_conv (Conv2D)   (None, 5, 13, 256)   590080      ['conv4_block3_1_relu[0][0]']    
                                                                                                  
 conv4_block3_2_bn (BatchNormal  (None, 5, 13, 256)  1024        ['conv4_block3_2_conv[0][0]']    
 ization)                                                                                         
                                                                                                  
 conv4_block3_2_relu (Activatio  (None, 5, 13, 256)  0           ['conv4_block3_2_bn[0][0]']      
 n)                                                                                               
                                                                                                  
 conv4_block3_3_conv (Conv2D)   (None, 5, 13, 1024)  263168      ['conv4_block3_2_relu[0][0]']    
                                                                                                  
 conv4_block3_3_bn (BatchNormal  (None, 5, 13, 1024)  4096       ['conv4_block3_3_conv[0][0]']    
 ization)                                                                                         
                                                                                                  
 conv4_block3_add (Add)         (None, 5, 13, 1024)  0           ['conv4_block2_out[0][0]',       
                                                                  'conv4_block3_3_bn[0][0]']      
                                                                                                  
 conv4_block3_out (Activation)  (None, 5, 13, 1024)  0           ['conv4_block3_add[0][0]']       
                                                                                                  
 conv4_block4_1_conv (Conv2D)   (None, 5, 13, 256)   262400      ['conv4_block3_out[0][0]']       
                                                                                                  
 conv4_block4_1_bn (BatchNormal  (None, 5, 13, 256)  1024        ['conv4_block4_1_conv[0][0]']    
 ization)                                                                                         
                                                                                                  
 conv4_block4_1_relu (Activatio  (None, 5, 13, 256)  0           ['conv4_block4_1_bn[0][0]']      
 n)                                                                                               
                                                                                                  
 conv4_block4_2_conv (Conv2D)   (None, 5, 13, 256)   590080      ['conv4_block4_1_relu[0][0]']    
                                                                                                  
 conv4_block4_2_bn (BatchNormal  (None, 5, 13, 256)  1024        ['conv4_block4_2_conv[0][0]']    
 ization)                                                                                         
                                                                                                  
 conv4_block4_2_relu (Activatio  (None, 5, 13, 256)  0           ['conv4_block4_2_bn[0][0]']      
 n)                                                                                               
                                                                                                  
 conv4_block4_3_conv (Conv2D)   (None, 5, 13, 1024)  263168      ['conv4_block4_2_relu[0][0]']    
                                                                                                  
 conv4_block4_3_bn (BatchNormal  (None, 5, 13, 1024)  4096       ['conv4_block4_3_conv[0][0]']    
 ization)                                                                                         
                                                                                                  
 conv4_block4_add (Add)         (None, 5, 13, 1024)  0           ['conv4_block3_out[0][0]',       
                                                                  'conv4_block4_3_bn[0][0]']      
                                                                                                  
 conv4_block4_out (Activation)  (None, 5, 13, 1024)  0           ['conv4_block4_add[0][0]']       
                                                                                                  
 conv4_block5_1_conv (Conv2D)   (None, 5, 13, 256)   262400      ['conv4_block4_out[0][0]']       
                                                                                                  
 conv4_block5_1_bn (BatchNormal  (None, 5, 13, 256)  1024        ['conv4_block5_1_conv[0][0]']    
 ization)                                                                                         
                                                                                                  
 conv4_block5_1_relu (Activatio  (None, 5, 13, 256)  0           ['conv4_block5_1_bn[0][0]']      
 n)                                                                                               
                                                                                                  
 conv4_block5_2_conv (Conv2D)   (None, 5, 13, 256)   590080      ['conv4_block5_1_relu[0][0]']    
                                                                                                  
 conv4_block5_2_bn (BatchNormal  (None, 5, 13, 256)  1024        ['conv4_block5_2_conv[0][0]']    
 ization)                                                                                         
                                                                                                  
 conv4_block5_2_relu (Activatio  (None, 5, 13, 256)  0           ['conv4_block5_2_bn[0][0]']      
 n)                                                                                               
                                                                                                  
 conv4_block5_3_conv (Conv2D)   (None, 5, 13, 1024)  263168      ['conv4_block5_2_relu[0][0]']    
                                                                                                  
 conv4_block5_3_bn (BatchNormal  (None, 5, 13, 1024)  4096       ['conv4_block5_3_conv[0][0]']    
 ization)                                                                                         
                                                                                                  
 conv4_block5_add (Add)         (None, 5, 13, 1024)  0           ['conv4_block4_out[0][0]',       
                                                                  'conv4_block5_3_bn[0][0]']      
                                                                                                  
 conv4_block5_out (Activation)  (None, 5, 13, 1024)  0           ['conv4_block5_add[0][0]']       
                                                                                                  
 conv4_block6_1_conv (Conv2D)   (None, 5, 13, 256)   262400      ['conv4_block5_out[0][0]']       
                                                                                                  
 conv4_block6_1_bn (BatchNormal  (None, 5, 13, 256)  1024        ['conv4_block6_1_conv[0][0]']    
 ization)                                                                                         
                                                                                                  
 conv4_block6_1_relu (Activatio  (None, 5, 13, 256)  0           ['conv4_block6_1_bn[0][0]']      
 n)                                                                                               
                                                                                                  
 conv4_block6_2_conv (Conv2D)   (None, 5, 13, 256)   590080      ['conv4_block6_1_relu[0][0]']    
                                                                                                  
 conv4_block6_2_bn (BatchNormal  (None, 5, 13, 256)  1024        ['conv4_block6_2_conv[0][0]']    
 ization)                                                                                         
                                                                                                  
 conv4_block6_2_relu (Activatio  (None, 5, 13, 256)  0           ['conv4_block6_2_bn[0][0]']      
 n)                                                                                               
                                                                                                  
 conv4_block6_3_conv (Conv2D)   (None, 5, 13, 1024)  263168      ['conv4_block6_2_relu[0][0]']    
                                                                                                  
 conv4_block6_3_bn (BatchNormal  (None, 5, 13, 1024)  4096       ['conv4_block6_3_conv[0][0]']    
 ization)                                                                                         
                                                                                                  
 conv4_block6_add (Add)         (None, 5, 13, 1024)  0           ['conv4_block5_out[0][0]',       
                                                                  'conv4_block6_3_bn[0][0]']      
                                                                                                  
 conv4_block6_out (Activation)  (None, 5, 13, 1024)  0           ['conv4_block6_add[0][0]']       
                                                                                                  
 conv5_block1_1_conv (Conv2D)   (None, 3, 7, 512)    524800      ['conv4_block6_out[0][0]']       
                                                                                                  
 conv5_block1_1_bn (BatchNormal  (None, 3, 7, 512)   2048        ['conv5_block1_1_conv[0][0]']    
 ization)                                                                                         
                                                                                                  
 conv5_block1_1_relu (Activatio  (None, 3, 7, 512)   0           ['conv5_block1_1_bn[0][0]']      
 n)                                                                                               
                                                                                                  
 conv5_block1_2_conv (Conv2D)   (None, 3, 7, 512)    2359808     ['conv5_block1_1_relu[0][0]']    
                                                                                                  
 conv5_block1_2_bn (BatchNormal  (None, 3, 7, 512)   2048        ['conv5_block1_2_conv[0][0]']    
 ization)                                                                                         
                                                                                                  
 conv5_block1_2_relu (Activatio  (None, 3, 7, 512)   0           ['conv5_block1_2_bn[0][0]']      
 n)                                                                                               
                                                                                                  
 conv5_block1_0_conv (Conv2D)   (None, 3, 7, 2048)   2099200     ['conv4_block6_out[0][0]']       
                                                                                                  
 conv5_block1_3_conv (Conv2D)   (None, 3, 7, 2048)   1050624     ['conv5_block1_2_relu[0][0]']    
                                                                                                  
 conv5_block1_0_bn (BatchNormal  (None, 3, 7, 2048)  8192        ['conv5_block1_0_conv[0][0]']    
 ization)                                                                                         
                                                                                                  
 conv5_block1_3_bn (BatchNormal  (None, 3, 7, 2048)  8192        ['conv5_block1_3_conv[0][0]']    
 ization)                                                                                         
                                                                                                  
 conv5_block1_add (Add)         (None, 3, 7, 2048)   0           ['conv5_block1_0_bn[0][0]',      
                                                                  'conv5_block1_3_bn[0][0]']      
                                                                                                  
 conv5_block1_out (Activation)  (None, 3, 7, 2048)   0           ['conv5_block1_add[0][0]']       
                                                                                                  
 conv5_block2_1_conv (Conv2D)   (None, 3, 7, 512)    1049088     ['conv5_block1_out[0][0]']       
                                                                                                  
 conv5_block2_1_bn (BatchNormal  (None, 3, 7, 512)   2048        ['conv5_block2_1_conv[0][0]']    
 ization)                                                                                         
                                                                                                  
 conv5_block2_1_relu (Activatio  (None, 3, 7, 512)   0           ['conv5_block2_1_bn[0][0]']      
 n)                                                                                               
                                                                                                  
 conv5_block2_2_conv (Conv2D)   (None, 3, 7, 512)    2359808     ['conv5_block2_1_relu[0][0]']    
                                                                                                  
 conv5_block2_2_bn (BatchNormal  (None, 3, 7, 512)   2048        ['conv5_block2_2_conv[0][0]']    
 ization)                                                                                         
                                                                                                  
 conv5_block2_2_relu (Activatio  (None, 3, 7, 512)   0           ['conv5_block2_2_bn[0][0]']      
 n)                                                                                               
                                                                                                  
 conv5_block2_3_conv (Conv2D)   (None, 3, 7, 2048)   1050624     ['conv5_block2_2_relu[0][0]']    
                                                                                                  
 conv5_block2_3_bn (BatchNormal  (None, 3, 7, 2048)  8192        ['conv5_block2_3_conv[0][0]']    
 ization)                                                                                         
                                                                                                  
 conv5_block2_add (Add)         (None, 3, 7, 2048)   0           ['conv5_block1_out[0][0]',       
                                                                  'conv5_block2_3_bn[0][0]']      
                                                                                                  
 conv5_block2_out (Activation)  (None, 3, 7, 2048)   0           ['conv5_block2_add[0][0]']       
                                                                                                  
 conv5_block3_1_conv (Conv2D)   (None, 3, 7, 512)    1049088     ['conv5_block2_out[0][0]']       
                                                                                                  
 conv5_block3_1_bn (BatchNormal  (None, 3, 7, 512)   2048        ['conv5_block3_1_conv[0][0]']    
 ization)                                                                                         
                                                                                                  
 conv5_block3_1_relu (Activatio  (None, 3, 7, 512)   0           ['conv5_block3_1_bn[0][0]']      
 n)                                                                                               
                                                                                                  
 conv5_block3_2_conv (Conv2D)   (None, 3, 7, 512)    2359808     ['conv5_block3_1_relu[0][0]']    
                                                                                                  
 conv5_block3_2_bn (BatchNormal  (None, 3, 7, 512)   2048        ['conv5_block3_2_conv[0][0]']    
 ization)                                                                                         
                                                                                                  
 conv5_block3_2_relu (Activatio  (None, 3, 7, 512)   0           ['conv5_block3_2_bn[0][0]']      
 n)                                                                                               
                                                                                                  
 conv5_block3_3_conv (Conv2D)   (None, 3, 7, 2048)   1050624     ['conv5_block3_2_relu[0][0]']    
                                                                                                  
 conv5_block3_3_bn (BatchNormal  (None, 3, 7, 2048)  8192        ['conv5_block3_3_conv[0][0]']    
 ization)                                                                                         
                                                                                                  
 conv5_block3_add (Add)         (None, 3, 7, 2048)   0           ['conv5_block2_out[0][0]',       
                                                                  'conv5_block3_3_bn[0][0]']      
                                                                                                  
 conv5_block3_out (Activation)  (None, 3, 7, 2048)   0           ['conv5_block3_add[0][0]']       
                                                                                                  
==================================================================================================
Total params: 23,587,712
Trainable params: 23,534,592
Non-trainable params: 53,120
__________________________________________________________________________________________________
Model: "sequential"
_________________________________________________________________
 Layer (type)                Output Shape              Param #   
=================================================================
 resnet50 (Functional)       (None, 3, 7, 2048)        23587712  
                                                                 
 global_average_pooling2d (G  (None, 2048)             0         
 lobalAveragePooling2D)                                          
                                                                 
 dense (Dense)               (None, 100)               204900    
                                                                 
 dropout (Dropout)           (None, 100)               0         
                                                                 
 dense_1 (Dense)             (None, 50)                5050      
                                                                 
 dropout_1 (Dropout)         (None, 50)                0         
                                                                 
 dense_2 (Dense)             (None, 2)                 102       
                                                                 
=================================================================
Total params: 23,797,764
Trainable params: 23,744,644
Non-trainable params: 53,120
_________________________________________________________________
Model: "leaf_model9_model_efnet1"
______________________________________________________________________________________________________________
…
