…
--- Final training dataset went from 0 to 16416 elements, with 11726 none's, 1637 crakles, 2096 wheezes and 957 both ---
--- Final Validation dataset contains 2912 elements, with 2424 none, 60 crackles, 324 wheezes and 104 both ---
Initializing weights...
weights = {0: 0.3499914719426915, 1: 2.5070250458155163, 2: 1.9580152671755726, 3: 4.2884012539184955}
Model: "sequential"
_________________________________________________________________
 Layer (type)                Output Shape              Param #   
=================================================================
 efficientnetb1 (Functional)  (None, 3, 7, 1280)       6575239   
                                                                 
 global_average_pooling2d (G  (None, 1280)             0         
 lobalAveragePooling2D)                                          
                                                                 
 dense (Dense)               (None, 100)               128100    
                                                                 
 dropout (Dropout)           (None, 100)               0         
                                                                 
 dense_1 (Dense)             (None, 50)                5050      
                                                                 
 dropout_1 (Dropout)         (None, 50)                0         
                                                                 
 dense_2 (Dense)             (None, 2)                 102       
                                                                 
=================================================================
Total params: 6,708,491
Trainable params: 6,646,436
Non-trainable params: 62,055
_________________________________________________________________
Model: "leaf_pretrained"
______________________________________________________________________________________________________________
…
