…
Learning Rate Parameters: {'factor': 0.5, 'patience': 5, 'min_lr': 1e-05}
Early Stopping Patience: 7
-----------------------
Model: "conv2d"
__________________________________________________________________________________________________
Layer (type)                    Output Shape         Param #     Connected to                     
==================================================================================================
input_1 (InputLayer)            [(32, 128, 1250, 3)] 0                                            
__________________________________________________________________________________________________
batch_normalization (BatchNorma (32, 128, 1250, 3)   12          input_1[0][0]                    
__________________________________________________________________________________________________
conv2d (Conv2D)                 (32, 128, 1250, 16)  64          batch_normalization[0][0]        
__________________________________________________________________________________________________
conv2d_2 (Conv2D)               (32, 128, 1250, 16)  64          batch_normalization[0][0]        
__________________________________________________________________________________________________
max_pooling2d (MaxPooling2D)    (32, 128, 1250, 3)   0           batch_normalization[0][0]        
__________________________________________________________________________________________________
conv2d_1 (Conv2D)               (32, 128, 1250, 16)  2320        conv2d[0][0]                     
__________________________________________________________________________________________________
conv2d_3 (Conv2D)               (32, 128, 1250, 16)  6416        conv2d_2[0][0]                   
__________________________________________________________________________________________________
conv2d_4 (Conv2D)               (32, 128, 1250, 16)  64          max_pooling2d[0][0]              
__________________________________________________________________________________________________
concatenate (Concatenate)       (32, 128, 1250, 48)  0           conv2d_1[0][0]                   
                                                                 conv2d_3[0][0]                   
                                                                 conv2d_4[0][0]                   
__________________________________________________________________________________________________
average_pooling2d (AveragePooli (32, 64, 625, 48)    0           concatenate[0][0]                
__________________________________________________________________________________________________
batch_normalization_1 (BatchNor (32, 64, 625, 48)    192         average_pooling2d[0][0]          
__________________________________________________________________________________________________
dropout (Dropout)               (32, 64, 625, 48)    0           batch_normalization_1[0][0]      
__________________________________________________________________________________________________
inverted_residual (InvertedResi (32, 64, 625, 32)    35840       dropout[0][0]                    
__________________________________________________________________________________________________
inverted_residual_1 (InvertedRe (32, 64, 625, 32)    20864       inverted_residual[0][0]          
__________________________________________________________________________________________________
average_pooling2d_1 (AveragePoo (32, 32, 312, 32)    0           inverted_residual_1[0][0]        
__________________________________________________________________________________________________
batch_normalization_2 (BatchNor (32, 32, 312, 32)    128         average_pooling2d_1[0][0]        
__________________________________________________________________________________________________
dropout_1 (Dropout)             (32, 32, 312, 32)    0           batch_normalization_2[0][0]      
__________________________________________________________________________________________________
inverted_residual_2 (InvertedRe (32, 32, 312, 64)    27136       dropout_1[0][0]                  
__________________________________________________________________________________________________
inverted_residual_3 (InvertedRe (32, 32, 312, 64)    66304       inverted_residual_2[0][0]        
__________________________________________________________________________________________________
average_pooling2d_2 (AveragePoo (32, 16, 156, 64)    0           inverted_residual_3[0][0]        
__________________________________________________________________________________________________
batch_normalization_3 (BatchNor (32, 16, 156, 64)    256         average_pooling2d_2[0][0]        
__________________________________________________________________________________________________
dropout_2 (Dropout)             (32, 16, 156, 64)    0           batch_normalization_3[0][0]      
__________________________________________________________________________________________________
inverted_residual_4 (InvertedRe (32, 16, 156, 128)   91136       dropout_2[0][0]                  
__________________________________________________________________________________________________
inverted_residual_5 (InvertedRe (32, 16, 156, 128)   230912      inverted_residual_4[0][0]        
__________________________________________________________________________________________________
average_pooling2d_3 (AveragePoo (32, 8, 78, 128)     0           inverted_residual_5[0][0]        
__________________________________________________________________________________________________
batch_normalization_4 (BatchNor (32, 8, 78, 128)     512         average_pooling2d_3[0][0]        
__________________________________________________________________________________________________
dropout_3 (Dropout)             (32, 8, 78, 128)     0           batch_normalization_4[0][0]      
__________________________________________________________________________________________________
inverted_residual_6 (InvertedRe (32, 8, 78, 256)     329728      dropout_3[0][0]                  
__________________________________________________________________________________________________
inverted_residual_7 (InvertedRe (32, 8, 78, 256)     855040      inverted_residual_6[0][0]        
__________________________________________________________________________________________________
average_pooling2d_4 (AveragePoo (32, 4, 39, 256)     0           inverted_residual_7[0][0]        
__________________________________________________________________________________________________
batch_normalization_5 (BatchNor (32, 4, 39, 256)     1024        average_pooling2d_4[0][0]        
__________________________________________________________________________________________________
dropout_4 (Dropout)             (32, 4, 39, 256)     0           batch_normalization_5[0][0]      
__________________________________________________________________________________________________
inverted_residual_8 (InvertedRe (32, 4, 39, 512)     1249280     dropout_4[0][0]                  
__________________________________________________________________________________________________
inverted_residual_9 (InvertedRe (32, 4, 39, 512)     3282944     inverted_residual_8[0][0]        
__________________________________________________________________________________________________
global_average_pooling2d (Globa (32, 512)            0           inverted_residual_9[0][0]        
__________________________________________________________________________________________________
dense (Dense)                   (32, 2)              1026        global_average_pooling2d[0][0]   Traceback (most recent call last):
  File "/home/alilerachidi/anaconda3/envs/ObjectDetection/lib/python3.7/runpy.py", line 193, in _run_module_as_main
    "__main__", mod_spec)
  File "/home/alilerachidi/anaconda3/envs/ObjectDetection/lib/python3.7/runpy.py", line 85, in _run_code
    exec(code, run_globals)
  File "/home/alilerachidi/classification_algorithm/trainers/main/models/conv/train2000.py", line 267, in <module>
…
