…
--- Final training dataset went from 0 to 3969 elements, with 1889 none's, 991 crakles, 597 wheezes and 492 both ---
--- Final Validation dataset contains 2096 elements, with 989 none, 843 crackles, 120 wheezes and 144 both ---
GPUs
['/device:GPU:0']
Initializing weights...
weights = {0: 0.5252779248279513, 1: 1.0012613521695257, 2: 1.6620603015075377, 3: 2.0167682926829267}
Model: "sequential"
_________________________________________________________________
 Layer (type)                Output Shape              Param #   
=================================================================
 resnet50 (Functional)       (None, 3, 16, 2048)       23587712  
                                                                 
 reshape (Reshape)           (None, 16, 6144)          0         
                                                                 
 bidirectional (Bidirectiona  (None, 16, 256)          6423552   
 l)                                                              
                                                                 
 bidirectional_1 (Bidirectio  (None, 16, 256)          394240    
 nal)                                                            
                                                                 
 dense (Dense)               (None, 16, 256)           65792     
                                                                 
 dropout (Dropout)           (None, 16, 256)           0         
                                                                 
 flatten (Flatten)           (None, 4096)              0         
                                                                 
 dense_1 (Dense)             (None, 2)                 8194      
                                                                 
=================================================================
Total params: 30,479,490
Trainable params: 30,426,370
Non-trainable params: 53,120
_________________________________________________________________
Model: "leaf_model9_model_efnet1_174_2"
______________________________________________________________________________________________________________
…
--- Final training dataset went from 0 to 3969 elements, with 1889 none's, 991 crakles, 597 wheezes and 492 both ---
--- Final Validation dataset contains 2096 elements, with 989 none, 843 crackles, 120 wheezes and 144 both ---
GPUs
['/device:GPU:0']
Initializing weights...
weights = {0: 0.5252779248279513, 1: 1.0012613521695257, 2: 1.6620603015075377, 3: 2.0167682926829267}
Model: "sequential_1"
_________________________________________________________________
 Layer (type)                Output Shape              Param #   
=================================================================
 resnet50 (Functional)       (None, 3, 16, 2048)       23587712  
                                                                 
 global_average_pooling2d (G  (None, 2048)             0         
 lobalAveragePooling2D)                                          
                                                                 
 dense_2 (Dense)             (None, 1024)              2098176   
                                                                 
 dropout_1 (Dropout)         (None, 1024)              0         
                                                                 
 dense_3 (Dense)             (None, 512)               524800    
                                                                 
 dropout_2 (Dropout)         (None, 512)               0         
                                                                 
 dense_4 (Dense)             (None, 2)                 1026      
                                                                 
=================================================================
Total params: 26,211,714
Trainable params: 26,158,594
Non-trainable params: 53,120
_________________________________________________________________
Model: "leaf_model9_model_efnet1_174_1"
______________________________________________________________________________________________________________
…
--- Final training dataset went from 0 to 3969 elements, with 1889 none's, 991 crakles, 597 wheezes and 492 both ---
--- Final Validation dataset contains 2096 elements, with 989 none, 843 crackles, 120 wheezes and 144 both ---
GPUs
['/device:GPU:0']
Initializing weights...
weights = {0: 0.5252779248279513, 1: 1.0012613521695257, 2: 1.6620603015075377, 3: 2.0167682926829267}
Model: "sequential_2"
_________________________________________________________________
 Layer (type)                Output Shape              Param #   
=================================================================
 resnet50 (Functional)       (None, 3, 16, 2048)       23587712  
                                                                 
 global_average_pooling2d_1   (None, 2048)             0         
 (GlobalAveragePooling2D)                                        
                                                                 
 dense_5 (Dense)             (None, 1024)              2098176   
                                                                 
 dropout_3 (Dropout)         (None, 1024)              0         
                                                                 
 dense_6 (Dense)             (None, 512)               524800    
                                                                 
 dropout_4 (Dropout)         (None, 512)               0         
                                                                 
 dense_7 (Dense)             (None, 64)                32832     
                                                                 
 dropout_5 (Dropout)         (None, 64)                0         
                                                                 
 dense_8 (Dense)             (None, 32)                2080      
                                                                 
 dropout_6 (Dropout)         (None, 32)                0         
                                                                 
 dense_9 (Dense)             (None, 64)                2112      
                                                                 
 dropout_7 (Dropout)         (None, 64)                0         
                                                                 
 dense_10 (Dense)            (None, 512)               33280     
                                                                 
 dropout_8 (Dropout)         (None, 512)               0         
                                                                 
 dense_11 (Dense)            (None, 1024)              525312    
                                                                 
 dropout_9 (Dropout)         (None, 1024)              0         
                                                                 
 dense_12 (Dense)            (None, 2)                 2050      
                                                                 
=================================================================
Total params: 26,808,354
Trainable params: 26,755,234
Non-trainable params: 53,120
_________________________________________________________________
Model: "leaf_model9_model_efnet1_174_3"
______________________________________________________________________________________________________________
…
