…
--- Final training dataset went from 0 to 3969 elements, with 1889 none's, 991 crakles, 597 wheezes and 492 both ---
--- Final Validation dataset contains 2096 elements, with 989 none, 843 crackles, 120 wheezes and 144 both ---
GPUs
['/device:GPU:0']
Initializing weights...
weights = {0: 0.5252779248279513, 1: 1.0012613521695257, 2: 1.6620603015075377, 3: 2.0167682926829267}
Model: "sequential"
_________________________________________________________________
 Layer (type)                Output Shape              Param #   
=================================================================
 resnet50 (Functional)       (None, 3, 16, 2048)       23587712  
                                                                 
 reshape (Reshape)           (None, 16, 6144)          0         
                                                                 
 bidirectional (Bidirectiona  (None, 16, 128)          3179008   
 l)                                                              
                                                                 
 dropout (Dropout)           (None, 16, 128)           0         
                                                                 
 bidirectional_1 (Bidirectio  (None, 16, 128)          98816     
 nal)                                                            
                                                                 
 dropout_1 (Dropout)         (None, 16, 128)           0         
                                                                 
 dense (Dense)               (None, 16, 100)           12900     
                                                                 
 dropout_2 (Dropout)         (None, 16, 100)           0         
                                                                 
 flatten (Flatten)           (None, 1600)              0         
                                                                 
 dense_1 (Dense)             (None, 2)                 3202      
                                                                 
 dense_2 (Dense)             (None, 2)                 6         
                                                                 
=================================================================
Total params: 26,881,644
Trainable params: 26,828,524
Non-trainable params: 53,120
_________________________________________________________________
Model: "leaf_model9_model_efnet1"
______________________________________________________________________________________________________________
…
--- Final training dataset went from 0 to 3969 elements, with 1889 none's, 991 crakles, 597 wheezes and 492 both ---
--- Final Validation dataset contains 2096 elements, with 989 none, 843 crackles, 120 wheezes and 144 both ---
GPUs
['/device:GPU:0']
Initializing weights...
weights = {0: 0.5252779248279513, 1: 1.0012613521695257, 2: 1.6620603015075377, 3: 2.0167682926829267}
Model: "sequential_1"
_________________________________________________________________
 Layer (type)                Output Shape              Param #   
=================================================================
 resnet50 (Functional)       (None, 3, 16, 2048)       23587712  
                                                                 
 flatten_1 (Flatten)         (None, 98304)             0         
                                                                 
 dense_3 (Dense)             (None, 100)               9830500   
                                                                 
 dropout_3 (Dropout)         (None, 100)               0         
                                                                 
 dense_4 (Dense)             (None, 50)                5050      
                                                                 
 dropout_4 (Dropout)         (None, 50)                0         
                                                                 
 dense_5 (Dense)             (None, 2)                 102       
                                                                 
=================================================================
Total params: 33,423,364
Trainable params: 33,370,244
Non-trainable params: 53,120
_________________________________________________________________
Model: "leaf_model9_model_efnet1_1"
______________________________________________________________________________________________________________
…
--- Final training dataset went from 0 to 3969 elements, with 1889 none's, 991 crakles, 597 wheezes and 492 both ---
--- Final Validation dataset contains 2096 elements, with 989 none, 843 crackles, 120 wheezes and 144 both ---
GPUs
['/device:GPU:0']
Initializing weights...
weights = {0: 0.5252779248279513, 1: 1.0012613521695257, 2: 1.6620603015075377, 3: 2.0167682926829267}
Model: "sequential_2"
_________________________________________________________________
 Layer (type)                Output Shape              Param #   
=================================================================
 resnet50 (Functional)       (None, 3, 16, 2048)       23587712  
                                                                 
 global_average_pooling2d (G  (None, 2048)             0         
 lobalAveragePooling2D)                                          
                                                                 
 dense_6 (Dense)             (None, 4096)              8392704   
                                                                 
 dropout_5 (Dropout)         (None, 4096)              0         
                                                                 
 dense_7 (Dense)             (None, 4096)              16781312  
                                                                 
 dropout_6 (Dropout)         (None, 4096)              0         
                                                                 
 dense_8 (Dense)             (None, 1024)              4195328   
                                                                 
 dropout_7 (Dropout)         (None, 1024)              0         
                                                                 
 dense_9 (Dense)             (None, 2)                 2050      
                                                                 
=================================================================
Total params: 52,959,106
Trainable params: 52,905,986
Non-trainable params: 53,120
_________________________________________________________________
Model: "leaf_model9_model_efnet1_2"
______________________________________________________________________________________________________________
…
