…
conv2d_4 (Conv2D)               (None, 128, 1250, 16 64          max_pooling2d[0][0]              
__________________________________________________________________________________________________
concatenate (Concatenate)       (None, 128, 1250, 48 0           conv2d_1[0][0]                   
                                                                 conv2d_3[0][0]                   
                                                                 conv2d_4[0][0]                   
__________________________________________________________________________________________________
average_pooling2d (AveragePooli (None, 64, 625, 48)  0           concatenate[0][0]                
__________________________________________________________________________________________________
batch_normalization_1 (BatchNor (None, 64, 625, 48)  192         average_pooling2d[0][0]          
__________________________________________________________________________________________________
dropout (Dropout)               (None, 64, 625, 48)  0           batch_normalization_1[0][0]      
__________________________________________________________________________________________________
inverted_residual (InvertedResi (None, 64, 625, 32)  35840       dropout[0][0]                    
__________________________________________________________________________________________________
inverted_residual_1 (InvertedRe (None, 64, 625, 32)  20864       inverted_residual[0][0]          
__________________________________________________________________________________________________
average_pooling2d_1 (AveragePoo (None, 32, 312, 32)  0           inverted_residual_1[0][0]        
__________________________________________________________________________________________________
batch_normalization_2 (BatchNor (None, 32, 312, 32)  128         average_pooling2d_1[0][0]        
__________________________________________________________________________________________________
dropout_1 (Dropout)             (None, 32, 312, 32)  0           batch_normalization_2[0][0]      
__________________________________________________________________________________________________
inverted_residual_2 (InvertedRe (None, 32, 312, 64)  27136       dropout_1[0][0]                  
__________________________________________________________________________________________________
inverted_residual_3 (InvertedRe (None, 32, 312, 64)  66304       inverted_residual_2[0][0]        
__________________________________________________________________________________________________
average_pooling2d_2 (AveragePoo (None, 16, 156, 64)  0           inverted_residual_3[0][0]        
__________________________________________________________________________________________________
batch_normalization_3 (BatchNor (None, 16, 156, 64)  256         average_pooling2d_2[0][0]        
__________________________________________________________________________________________________
dropout_2 (Dropout)             (None, 16, 156, 64)  0           batch_normalization_3[0][0]      
__________________________________________________________________________________________________
inverted_residual_4 (InvertedRe (None, 16, 156, 128) 91136       dropout_2[0][0]                  
__________________________________________________________________________________________________
inverted_residual_5 (InvertedRe (None, 16, 156, 128) 230912      inverted_residual_4[0][0]        
__________________________________________________________________________________________________
average_pooling2d_3 (AveragePoo (None, 8, 78, 128)   0           inverted_residual_5[0][0]        
__________________________________________________________________________________________________
batch_normalization_4 (BatchNor (None, 8, 78, 128)   512         average_pooling2d_3[0][0]        
__________________________________________________________________________________________________
dropout_3 (Dropout)             (None, 8, 78, 128)   0           batch_normalization_4[0][0]      
__________________________________________________________________________________________________
inverted_residual_6 (InvertedRe (None, 8, 78, 256)   329728      dropout_3[0][0]                  
__________________________________________________________________________________________________
inverted_residual_7 (InvertedRe (None, 8, 78, 256)   855040      inverted_residual_6[0][0]        
__________________________________________________________________________________________________
average_pooling2d_4 (AveragePoo (None, 4, 39, 256)   0           inverted_residual_7[0][0]        
__________________________________________________________________________________________________
batch_normalization_5 (BatchNor (None, 4, 39, 256)   1024        average_pooling2d_4[0][0]        
__________________________________________________________________________________________________
dropout_4 (Dropout)             (None, 4, 39, 256)   0           batch_normalization_5[0][0]      
__________________________________________________________________________________________________
inverted_residual_8 (InvertedRe (None, 4, 39, 512)   1249280     dropout_4[0][0]                  
__________________________________________________________________________________________________
inverted_residual_9 (InvertedRe (None, 4, 39, 512)   3282944     inverted_residual_8[0][0]        
__________________________________________________________________________________________________
global_average_pooling2d (Globa (None, 512)          0           inverted_residual_9[0][0]        
__________________________________________________________________________________________________
dense (Dense)                   (None, 2)            1026        global_average_pooling2d[0][0]   
==================================================================================================
Total params: 6,201,262
Trainable params: 6,159,752
Non-trainable params: 41,510
__________________________________________________________________________________________________
Model: "student"
__________________________________________________________________________________________________
Layer (type)                    Output Shape         Param #     Connected to                     
==================================================================================================
input_2 (InputLayer)            [(None, 128, 1250, 3 0                                            
__________________________________________________________________________________________________
batch_normalization_6 (BatchNor (None, 128, 1250, 3) 12          input_2[0][0]                    
__________________________________________________________________________________________________
conv2d_5 (Conv2D)               (None, 128, 1250, 8) 32          batch_normalization_6[0][0]      
__________________________________________________________________________________________________
conv2d_7 (Conv2D)               (None, 128, 1250, 8) 32          batch_normalization_6[0][0]      
__________________________________________________________________________________________________
max_pooling2d_1 (MaxPooling2D)  (None, 128, 1250, 3) 0           batch_normalization_6[0][0]      
__________________________________________________________________________________________________
conv2d_6 (Conv2D)               (None, 128, 1250, 8) 584         conv2d_5[0][0]                   
__________________________________________________________________________________________________
conv2d_8 (Conv2D)               (None, 128, 1250, 8) 1608        conv2d_7[0][0]                   
__________________________________________________________________________________________________
conv2d_9 (Conv2D)               (None, 128, 1250, 8) 32          max_pooling2d_1[0][0]            
__________________________________________________________________________________________________
concatenate_1 (Concatenate)     (None, 128, 1250, 24 0           conv2d_6[0][0]                   
                                                                 conv2d_8[0][0]                   
                                                                 conv2d_9[0][0]                   
__________________________________________________________________________________________________
average_pooling2d_5 (AveragePoo (None, 64, 625, 24)  0           concatenate_1[0][0]              
__________________________________________________________________________________________________
batch_normalization_7 (BatchNor (None, 64, 625, 24)  96          average_pooling2d_5[0][0]        
__________________________________________________________________________________________________
conv2d_10 (Conv2D)              (None, 64, 625, 16)  400         batch_normalization_7[0][0]      
__________________________________________________________________________________________________
conv2d_12 (Conv2D)              (None, 64, 625, 16)  400         batch_normalization_7[0][0]      
__________________________________________________________________________________________________
max_pooling2d_2 (MaxPooling2D)  (None, 64, 625, 24)  0           batch_normalization_7[0][0]      
__________________________________________________________________________________________________
conv2d_11 (Conv2D)              (None, 64, 625, 16)  2320        conv2d_10[0][0]                  
__________________________________________________________________________________________________
conv2d_13 (Conv2D)              (None, 64, 625, 16)  6416        conv2d_12[0][0]                  
__________________________________________________________________________________________________
conv2d_14 (Conv2D)              (None, 64, 625, 16)  400         max_pooling2d_2[0][0]            
__________________________________________________________________________________________________
concatenate_2 (Concatenate)     (None, 64, 625, 48)  0           conv2d_11[0][0]                  
                                                                 conv2d_13[0][0]                  
                                                                 conv2d_14[0][0]                  
__________________________________________________________________________________________________
average_pooling2d_6 (AveragePoo (None, 32, 313, 48)  0           concatenate_2[0][0]              
__________________________________________________________________________________________________
batch_normalization_8 (BatchNor (None, 32, 313, 48)  192         average_pooling2d_6[0][0]        
__________________________________________________________________________________________________
conv2d_15 (Conv2D)              (None, 32, 313, 32)  1568        batch_normalization_8[0][0]      
__________________________________________________________________________________________________
conv2d_17 (Conv2D)              (None, 32, 313, 32)  1568        batch_normalization_8[0][0]      
__________________________________________________________________________________________________
max_pooling2d_3 (MaxPooling2D)  (None, 32, 313, 48)  0           batch_normalization_8[0][0]      
__________________________________________________________________________________________________
conv2d_16 (Conv2D)              (None, 32, 313, 32)  9248        conv2d_15[0][0]                  
__________________________________________________________________________________________________
conv2d_18 (Conv2D)              (None, 32, 313, 32)  25632       conv2d_17[0][0]                  
__________________________________________________________________________________________________
conv2d_19 (Conv2D)              (None, 32, 313, 32)  1568        max_pooling2d_3[0][0]            
__________________________________________________________________________________________________
concatenate_3 (Concatenate)     (None, 32, 313, 96)  0           conv2d_16[0][0]                  
                                                                 conv2d_18[0][0]                  
                                                                 conv2d_19[0][0]                  
__________________________________________________________________________________________________
average_pooling2d_7 (AveragePoo (None, 16, 157, 96)  0           concatenate_3[0][0]              
__________________________________________________________________________________________________
batch_normalization_9 (BatchNor (None, 16, 157, 96)  384         average_pooling2d_7[0][0]        
__________________________________________________________________________________________________
conv2d_20 (Conv2D)              (None, 16, 157, 64)  6208        batch_normalization_9[0][0]      
__________________________________________________________________________________________________
conv2d_22 (Conv2D)              (None, 16, 157, 64)  6208        batch_normalization_9[0][0]      
__________________________________________________________________________________________________
max_pooling2d_4 (MaxPooling2D)  (None, 16, 157, 96)  0           batch_normalization_9[0][0]      
__________________________________________________________________________________________________
conv2d_21 (Conv2D)              (None, 16, 157, 64)  36928       conv2d_20[0][0]                  
__________________________________________________________________________________________________
conv2d_23 (Conv2D)              (None, 16, 157, 64)  102464      conv2d_22[0][0]                  
__________________________________________________________________________________________________
conv2d_24 (Conv2D)              (None, 16, 157, 64)  6208        max_pooling2d_4[0][0]            2021-03-30 10:29:43.905931: I tensorflow/compiler/mlir/mlir_graph_optimization_pass.cc:116] None of the MLIR optimization passes are enabled (registered 2)
2021-03-30 10:29:43.907852: I tensorflow/core/platform/profile_utils/cpu_utils.cc:112] CPU Frequency: 2299995000 Hz
2021-03-30 10:29:46.819127: I tensorflow/stream_executor/platform/default/dso_loader.cc:49] Successfully opened dynamic library libcublas.so.11
…
2021-03-30 10:29:56.493815: I tensorflow/core/profiler/lib/profiler_session.cc:71] Profiler session collecting data.
2021-03-30 10:29:56.497027: I tensorflow/core/profiler/internal/gpu/cupti_tracer.cc:1487] CUPTI activity buffer flushed
2021-03-30 10:29:56.538268: I tensorflow/core/profiler/internal/gpu/cupti_collector.cc:228]  GpuTracer has collected 1996 callback api events and 1992 activity events. 
2021-03-30 10:29:56.575658: I tensorflow/core/profiler/lib/profiler_session.cc:172] Profiler session tear down.

__________________________________________________________________________________________________
concatenate_4 (Concatenate)     (None, 16, 157, 192) 0           conv2d_21[0][0]                  
                                                                 conv2d_23[0][0]                  
                                                                 conv2d_24[0][0]                  
__________________________________________________________________________________________________
average_pooling2d_8 (AveragePoo (None, 8, 79, 192)   0           concatenate_4[0][0]              
__________________________________________________________________________________________________
batch_normalization_10 (BatchNo (None, 8, 79, 192)   768         average_pooling2d_8[0][0]        
__________________________________________________________________________________________________
conv2d_25 (Conv2D)              (None, 8, 79, 128)   24704       batch_normalization_10[0][0]     
__________________________________________________________________________________________________
conv2d_27 (Conv2D)              (None, 8, 79, 128)   24704       batch_normalization_10[0][0]     
__________________________________________________________________________________________________
max_pooling2d_5 (MaxPooling2D)  (None, 8, 79, 192)   0           batch_normalization_10[0][0]     
__________________________________________________________________________________________________
conv2d_26 (Conv2D)              (None, 8, 79, 128)   147584      conv2d_25[0][0]                  
__________________________________________________________________________________________________
conv2d_28 (Conv2D)              (None, 8, 79, 128)   409728      conv2d_27[0][0]                  
__________________________________________________________________________________________________
conv2d_29 (Conv2D)              (None, 8, 79, 128)   24704       max_pooling2d_5[0][0]            
__________________________________________________________________________________________________
concatenate_5 (Concatenate)     (None, 8, 79, 384)   0           conv2d_26[0][0]                  
                                                                 conv2d_28[0][0]                  
                                                                 conv2d_29[0][0]                  
__________________________________________________________________________________________________
average_pooling2d_9 (AveragePoo (None, 4, 40, 384)   0           concatenate_5[0][0]              
__________________________________________________________________________________________________
batch_normalization_11 (BatchNo (None, 4, 40, 384)   1536        average_pooling2d_9[0][0]        
__________________________________________________________________________________________________
global_average_pooling2d_1 (Glo (None, 384)          0           batch_normalization_11[0][0]     
__________________________________________________________________________________________________
dense_1 (Dense)                 (None, 2)            770         global_average_pooling2d_1[0][0] 
==================================================================================================
Total params: 845,006
Trainable params: 843,512
Non-trainable params: 1,494
__________________________________________________________________________________________________
Epoch 1/40
872/872 - 547s - calc_accuracy: 0.6480 - student_loss: 0.2676 - distillation_loss: -8.9703e-03 - val_calc_accuracy: 0.4251 - val_student_loss: 0.5744
…
