…
Early Stopping Patience and Delta: 8, 1.0%
-----------------------
Size of training set: 13945
Size of validation set: 3486
Initializing weights...
weights = {0: 0.6399045521292217, 1: 1.2145345596432553, 2: 1.1234209847898944, 3: 1.3816582117945466}
Model: "conv2d"
_________________________________________________________________
Layer (type)                 Output Shape              Param #   
=================================================================
input_1 (InputLayer)         [(None, 128, 1250, 3)]    0         
_________________________________________________________________
batch_normalization (BatchNo (None, 128, 1250, 3)      12        
_________________________________________________________________
conv2d_mo_e (Conv2DMoE)      (None, 128, 1250, 8)      7680464   
_________________________________________________________________
average_pooling2d (AveragePo (None, 64, 625, 8)        0         
_________________________________________________________________
batch_normalization_1 (Batch (None, 64, 625, 8)        32        
_________________________________________________________________
conv2d_mo_e_1 (Conv2DMoE)    (None, 64, 625, 16)       10242368  
_________________________________________________________________
average_pooling2d_1 (Average (None, 32, 313, 16)       0         
_________________________________________________________________
batch_normalization_2 (Batch (None, 32, 313, 16)       64        
_________________________________________________________________
conv2d_mo_e_2 (Conv2DMoE)    (None, 32, 313, 32)       10265728  
_________________________________________________________________
average_pooling2d_2 (Average (None, 16, 157, 32)       0         
_________________________________________________________________
batch_normalization_3 (Batch (None, 16, 157, 32)       128       
_________________________________________________________________
conv2d_mo_e_3 (Conv2DMoE)    (None, 16, 157, 64)       10326272  
_________________________________________________________________
average_pooling2d_3 (Average (None, 8, 79, 64)         0         
_________________________________________________________________
batch_normalization_4 (Batch (None, 8, 79, 64)         256       
_________________________________________________________________
conv2d_mo_e_4 (Conv2DMoE)    (None, 8, 79, 128)        10502656  
_________________________________________________________________
average_pooling2d_4 (Average (None, 4, 40, 128)        0         
_________________________________________________________________
batch_normalization_5 (Batch (None, 4, 40, 128)        512       
_________________________________________________________________
conv2d_mo_e_5 (Conv2DMoE)    (None, 4, 40, 256)        11076608  
_________________________________________________________________
average_pooling2d_5 (Average (None, 2, 20, 256)        0         
_________________________________________________________________
batch_normalization_6 (Batch (None, 2, 20, 256)        1024      
_________________________________________________________________
global_average_pooling2d (Gl (None, 256)               0         
_________________________________________________________________
dense (Dense)                (None, 2)                 514       
=================================================================
Total params: 60,096,638
Trainable params: 60,095,624
Non-trainable params: 1,014
_________________________________________________________________
Epoch 1/40
872/872 - 417s - loss: 0.4522 - calc_accuracy: 0.4601 - val_loss: 0.8145 - val_calc_accuracy: 0.4412
Epoch 2/40
872/872 - 428s - loss: 0.3849 - calc_accuracy: 0.5715 - val_loss: 0.5030 - val_calc_accuracy: 0.5990
…
