…
weights = {0: 0.6399045521292217, 1: 1.2145345596432553, 2: 1.1234209847898944, 3: 1.3816582117945466}
Model: "conv2d"
__________________________________________________________________________________________________
Layer (type)                    Output Shape         Param #     Connected to                     
==================================================================================================
input_1 (InputLayer)            [(None, 128, 1250, 3 0                                            
__________________________________________________________________________________________________
batch_normalization (BatchNorma (None, 128, 1250, 3) 12          input_1[0][0]                    
__________________________________________________________________________________________________
conv2d (Conv2D)                 (None, 128, 1250, 8) 32          batch_normalization[0][0]        
__________________________________________________________________________________________________
conv2d_2 (Conv2D)               (None, 128, 1250, 8) 32          batch_normalization[0][0]        
__________________________________________________________________________________________________
max_pooling2d (MaxPooling2D)    (None, 128, 1250, 3) 0           batch_normalization[0][0]        
__________________________________________________________________________________________________
conv2d_1 (Conv2D)               (None, 128, 1250, 8) 584         conv2d[0][0]                     
__________________________________________________________________________________________________
conv2d_3 (Conv2D)               (None, 128, 1250, 8) 1608        conv2d_2[0][0]                   
__________________________________________________________________________________________________
conv2d_4 (Conv2D)               (None, 128, 1250, 8) 32          max_pooling2d[0][0]              
__________________________________________________________________________________________________
concatenate (Concatenate)       (None, 128, 1250, 24 0           conv2d_1[0][0]                   
                                                                 conv2d_3[0][0]                   
                                                                 conv2d_4[0][0]                   
__________________________________________________________________________________________________
average_pooling2d (AveragePooli (None, 64, 625, 24)  0           concatenate[0][0]                
__________________________________________________________________________________________________
batch_normalization_1 (BatchNor (None, 64, 625, 24)  96          average_pooling2d[0][0]          
__________________________________________________________________________________________________
conv2d_5 (Conv2D)               (None, 64, 625, 24)  600         batch_normalization_1[0][0]      
__________________________________________________________________________________________________
conv2d_7 (Conv2D)               (None, 64, 625, 24)  600         batch_normalization_1[0][0]      
__________________________________________________________________________________________________
max_pooling2d_1 (MaxPooling2D)  (None, 64, 625, 24)  0           batch_normalization_1[0][0]      
__________________________________________________________________________________________________
conv2d_6 (Conv2D)               (None, 64, 625, 24)  5208        conv2d_5[0][0]                   
__________________________________________________________________________________________________
conv2d_8 (Conv2D)               (None, 64, 625, 24)  14424       conv2d_7[0][0]                   
__________________________________________________________________________________________________
conv2d_9 (Conv2D)               (None, 64, 625, 24)  600         max_pooling2d_1[0][0]            
__________________________________________________________________________________________________
concatenate_1 (Concatenate)     (None, 64, 625, 72)  0           conv2d_6[0][0]                   
                                                                 conv2d_8[0][0]                   
                                                                 conv2d_9[0][0]                   
__________________________________________________________________________________________________
average_pooling2d_1 (AveragePoo (None, 32, 313, 72)  0           concatenate_1[0][0]              
__________________________________________________________________________________________________
batch_normalization_2 (BatchNor (None, 32, 313, 72)  288         average_pooling2d_1[0][0]        
__________________________________________________________________________________________________
conv2d_10 (Conv2D)              (None, 32, 313, 72)  5256        batch_normalization_2[0][0]      
__________________________________________________________________________________________________
conv2d_12 (Conv2D)              (None, 32, 313, 72)  5256        batch_normalization_2[0][0]      
__________________________________________________________________________________________________
max_pooling2d_2 (MaxPooling2D)  (None, 32, 313, 72)  0           batch_normalization_2[0][0]      
__________________________________________________________________________________________________
conv2d_11 (Conv2D)              (None, 32, 313, 72)  46728       conv2d_10[0][0]                  
__________________________________________________________________________________________________
conv2d_13 (Conv2D)              (None, 32, 313, 72)  129672      conv2d_12[0][0]                  
__________________________________________________________________________________________________
conv2d_14 (Conv2D)              (None, 32, 313, 72)  5256        max_pooling2d_2[0][0]            
__________________________________________________________________________________________________
concatenate_2 (Concatenate)     (None, 32, 313, 216) 0           conv2d_11[0][0]                  
                                                                 conv2d_13[0][0]                  
                                                                 conv2d_14[0][0]                  
__________________________________________________________________________________________________
average_pooling2d_2 (AveragePoo (None, 16, 157, 216) 0           concatenate_2[0][0]              
__________________________________________________________________________________________________
batch_normalization_3 (BatchNor (None, 16, 157, 216) 864         average_pooling2d_2[0][0]        
__________________________________________________________________________________________________
conv2d_15 (Conv2D)              (None, 16, 157, 216) 46872       batch_normalization_3[0][0]      
__________________________________________________________________________________________________
conv2d_17 (Conv2D)              (None, 16, 157, 216) 46872       batch_normalization_3[0][0]      
__________________________________________________________________________________________________
max_pooling2d_3 (MaxPooling2D)  (None, 16, 157, 216) 0           batch_normalization_3[0][0]      
__________________________________________________________________________________________________
conv2d_16 (Conv2D)              (None, 16, 157, 216) 420120      conv2d_15[0][0]                  2021-04-03 00:40:26.971368: I tensorflow/compiler/mlir/mlir_graph_optimization_pass.cc:116] None of the MLIR optimization passes are enabled (registered 2)
2021-04-03 00:40:26.973159: I tensorflow/core/platform/profile_utils/cpu_utils.cc:112] CPU Frequency: 2299995000 Hz
2021-04-03 00:40:28.646616: I tensorflow/stream_executor/platform/default/dso_loader.cc:49] Successfully opened dynamic library libcublas.so.11
…
2021-04-03 00:40:32.918450: I tensorflow/core/profiler/lib/profiler_session.cc:71] Profiler session collecting data.
2021-04-03 00:40:32.921190: I tensorflow/core/profiler/internal/gpu/cupti_tracer.cc:1487] CUPTI activity buffer flushed
2021-04-03 00:40:32.979854: I tensorflow/core/profiler/internal/gpu/cupti_collector.cc:228]  GpuTracer has collected 831 callback api events and 827 activity events. 
2021-04-03 00:40:33.024276: I tensorflow/core/profiler/lib/profiler_session.cc:172] Profiler session tear down.

__________________________________________________________________________________________________
conv2d_18 (Conv2D)              (None, 16, 157, 216) 1166616     conv2d_17[0][0]                  
__________________________________________________________________________________________________
conv2d_19 (Conv2D)              (None, 16, 157, 216) 46872       max_pooling2d_3[0][0]            
__________________________________________________________________________________________________
concatenate_3 (Concatenate)     (None, 16, 157, 648) 0           conv2d_16[0][0]                  
                                                                 conv2d_18[0][0]                  
                                                                 conv2d_19[0][0]                  
__________________________________________________________________________________________________
average_pooling2d_3 (AveragePoo (None, 8, 79, 648)   0           concatenate_3[0][0]              
__________________________________________________________________________________________________
batch_normalization_4 (BatchNor (None, 8, 79, 648)   2592        average_pooling2d_3[0][0]        
__________________________________________________________________________________________________
global_average_pooling2d (Globa (None, 648)          0           batch_normalization_4[0][0]      
__________________________________________________________________________________________________
dense (Dense)                   (None, 2)            1298        global_average_pooling2d[0][0]   
==================================================================================================
Total params: 1,948,390
Trainable params: 1,946,464
Non-trainable params: 1,926
__________________________________________________________________________________________________
Epoch 1/40
872/872 - 301s - loss: 0.3331 - calc_accuracy: 0.6448 - val_loss: 0.9328 - val_calc_accuracy: 0.5556
…
