…
Early Stopping Patience and Delta: 9, 1.0%
-----------------------
Size of training set: 13945
Size of validation set: 3486
Initializing weights...
weights = {0: 0.6399045521292217, 1: 1.2145345596432553, 2: 1.1234209847898944, 3: 1.3816582117945466}
Model: "conv2d"
_________________________________________________________________
Layer (type)                 Output Shape              Param #   
=================================================================
input_1 (InputLayer)         [(None, 128, 1250, 3)]    0         
_________________________________________________________________
conv2d_6 (Conv2D)            (None, 128, 1250, 12)     336       
_________________________________________________________________
average_pooling2d_1 (Average (None, 64, 625, 12)       0         
_________________________________________________________________
batch_normalization_1 (Batch (None, 64, 625, 12)       48        
_________________________________________________________________
conv2d_7 (Conv2D)            (None, 64, 625, 16)       1744      
_________________________________________________________________
mix_depth_group_convolution2 (None, 64, 625, 16)       414       
_________________________________________________________________
conv2d_8 (Conv2D)            (None, 64, 625, 16)       2320      
_________________________________________________________________
average_pooling2d_2 (Average (None, 32, 313, 16)       0         
_________________________________________________________________
batch_normalization_2 (Batch (None, 32, 313, 16)       64        
_________________________________________________________________
conv2d_9 (Conv2D)            (None, 32, 313, 32)       4640      
_________________________________________________________________
mix_depth_group_convolution2 (None, 32, 313, 32)       828       
_________________________________________________________________
conv2d_10 (Conv2D)           (None, 32, 313, 32)       9248      
_________________________________________________________________
average_pooling2d_3 (Average (None, 16, 157, 32)       0         
_________________________________________________________________
batch_normalization_3 (Batch (None, 16, 157, 32)       128       
_________________________________________________________________
conv2d_11 (Conv2D)           (None, 16, 157, 64)       18496     
_________________________________________________________________
mix_depth_group_convolution2 (None, 16, 157, 64)       1656      
_________________________________________________________________
conv2d_12 (Conv2D)           (None, 16, 157, 64)       36928     
_________________________________________________________________
average_pooling2d_4 (Average (None, 8, 79, 64)         0         
_________________________________________________________________
batch_normalization_4 (Batch (None, 8, 79, 64)         256       
_________________________________________________________________
conv2d_13 (Conv2D)           (None, 8, 79, 128)        73856     
_________________________________________________________________
mix_depth_group_convolution2 (None, 8, 79, 128)        3402      
_________________________________________________________________
conv2d_14 (Conv2D)           (None, 8, 79, 128)        147584    
_________________________________________________________________
average_pooling2d_5 (Average (None, 4, 40, 128)        0         
_________________________________________________________________
batch_normalization_5 (Batch (None, 4, 40, 128)        512       
_________________________________________________________________
global_average_pooling2d (Gl (None, 128)               0         
_________________________________________________________________
dense (Dense)                (None, 128)               16512     
_________________________________________________________________
dense_1 (Dense)              (None, 2)                 258       
=================================================================
Total params: 319,230
Trainable params: 318,726
Non-trainable params: 504
_________________________________________________________________
Epoch 1/40
872/872 - 467s - loss: 0.3147 - calc_accuracy: 0.6603 - val_loss: 0.4449 - val_calc_accuracy: 0.6830
Epoch 2/40
872/872 - 450s - loss: 0.2566 - calc_accuracy: 0.7356 - val_loss: 0.3029 - val_calc_accuracy: 0.7659
…
