…
Initializing weights...
weights = {0: 0.7018518518518518, 1: 1.738532110091743}
Model: "model"
__________________________________________________________________________________________________
Layer (type)                    Output Shape         Param #     Connected to                     
==================================================================================================
input_4 (InputLayer)            [(None, 1, 128, 1250 0                                            
__________________________________________________________________________________________________
batch_normalization_17 (BatchNo (None, 1, 128, 1250) 5000        input_4[0][0]                    
__________________________________________________________________________________________________
input_3 (InputLayer)            [(None, 1, 128, 1250 0                                            
__________________________________________________________________________________________________
conv2d_24 (Conv2D)              (None, 8, 128, 1250) 16          batch_normalization_17[0][0]     
__________________________________________________________________________________________________
conv2d_26 (Conv2D)              (None, 8, 128, 1250) 16          batch_normalization_17[0][0]     
__________________________________________________________________________________________________
max_pooling2d_1 (MaxPooling2D)  (None, 1, 128, 1250) 0           batch_normalization_17[0][0]     
__________________________________________________________________________________________________
input_2 (InputLayer)            [(None, 1, 128, 1250 0                                            
__________________________________________________________________________________________________
batch_normalization_11 (BatchNo (None, 1, 128, 1250) 5000        input_3[0][0]                    
__________________________________________________________________________________________________
conv2d_25 (Conv2D)              (None, 8, 128, 1250) 584         conv2d_24[0][0]                  
__________________________________________________________________________________________________
conv2d_27 (Conv2D)              (None, 8, 128, 1250) 1608        conv2d_26[0][0]                  
__________________________________________________________________________________________________
conv2d_28 (Conv2D)              (None, 8, 128, 1250) 16          max_pooling2d_1[0][0]            
__________________________________________________________________________________________________
batch_normalization_5 (BatchNor (None, 1, 128, 1250) 5000        input_2[0][0]                    
__________________________________________________________________________________________________
conv2d_10 (Conv2D)              (None, 4, 128, 1250) 8           batch_normalization_11[0][0]     
__________________________________________________________________________________________________
concatenate_1 (Concatenate)     (None, 8, 128, 3750) 0           conv2d_25[0][0]                  
                                                                 conv2d_27[0][0]                  
                                                                 conv2d_28[0][0]                  
__________________________________________________________________________________________________
conv2d_5 (Conv2D)               (None, 16, 128, 1250 32          batch_normalization_5[0][0]      
__________________________________________________________________________________________________
conv2d_7 (Conv2D)               (None, 16, 128, 1250 32          batch_normalization_5[0][0]      
__________________________________________________________________________________________________
max_pooling2d (MaxPooling2D)    (None, 1, 128, 1250) 0           batch_normalization_5[0][0]      
__________________________________________________________________________________________________
conv2d_11 (Conv2D)              (None, 8, 128, 1250) 1160        conv2d_10[0][0]                  
__________________________________________________________________________________________________
average_pooling2d_15 (AveragePo (None, 8, 64, 1875)  0           concatenate_1[0][0]              
__________________________________________________________________________________________________
conv2d_6 (Conv2D)               (None, 16, 128, 1250 2320        conv2d_5[0][0]                   
__________________________________________________________________________________________________
conv2d_8 (Conv2D)               (None, 16, 128, 1250 6416        conv2d_7[0][0]                   
__________________________________________________________________________________________________
conv2d_9 (Conv2D)               (None, 16, 128, 1250 32          max_pooling2d[0][0]              
__________________________________________________________________________________________________
conv2d_12 (Conv2D)              (None, 16, 128, 1250 144         conv2d_11[0][0]                  
__________________________________________________________________________________________________
batch_normalization_18 (BatchNo (None, 8, 64, 1875)  7500        average_pooling2d_15[0][0]       
__________________________________________________________________________________________________
concatenate (Concatenate)       (None, 16, 128, 3750 0           conv2d_6[0][0]                   
                                                                 conv2d_8[0][0]                   
                                                                 conv2d_9[0][0]                   
__________________________________________________________________________________________________
average_pooling2d_10 (AveragePo (None, 16, 64, 625)  0           conv2d_12[0][0]                  
__________________________________________________________________________________________________
conv2d_29 (Conv2D)              (None, 16, 64, 1875) 144         batch_normalization_18[0][0]     
__________________________________________________________________________________________________
conv2d_31 (Conv2D)              (None, 16, 64, 1875) 144         batch_normalization_18[0][0]     
__________________________________________________________________________________________________
max_pooling2d_2 (MaxPooling2D)  (None, 8, 64, 1875)  0           batch_normalization_18[0][0]     
__________________________________________________________________________________________________
average_pooling2d_5 (AveragePoo (None, 16, 64, 1875) 0           concatenate[0][0]                
__________________________________________________________________________________________________
dropout_5 (Dropout)             (None, 16, 64, 625)  0           average_pooling2d_10[0][0]       
__________________________________________________________________________________________________
conv2d_30 (Conv2D)              (None, 16, 64, 1875) 2320        conv2d_29[0][0]                  
__________________________________________________________________________________________________
conv2d_32 (Conv2D)              (None, 16, 64, 1875) 6416        conv2d_31[0][0]                  
__________________________________________________________________________________________________
conv2d_33 (Conv2D)              (None, 16, 64, 1875) 144         max_pooling2d_2[0][0]            
__________________________________________________________________________________________________
batch_normalization_6 (BatchNor (None, 16, 64, 1875) 7500        average_pooling2d_5[0][0]        
__________________________________________________________________________________________________
batch_normalization_12 (BatchNo (None, 16, 64, 625)  2500        dropout_5[0][0]                  
__________________________________________________________________________________________________
concatenate_2 (Concatenate)     (None, 16, 64, 5625) 0           conv2d_30[0][0]                  
                                                                 conv2d_32[0][0]                  
                                                                 conv2d_33[0][0]                  
__________________________________________________________________________________________________
dropout (Dropout)               (None, 16, 64, 1875) 0           batch_normalization_6[0][0]      
__________________________________________________________________________________________________
conv2d_13 (Conv2D)              (None, 16, 64, 625)  9232        batch_normalization_12[0][0]     
__________________________________________________________________________________________________
average_pooling2d_16 (AveragePo (None, 16, 32, 2813) 0           concatenate_2[0][0]              
__________________________________________________________________________________________________
inverted_residual (InvertedResi (None, 32, 64, 1875) 30564       dropout[0][0]                    
__________________________________________________________________________________________________
conv2d_14 (Conv2D)              (None, 32, 64, 625)  544         conv2d_13[0][0]                  
__________________________________________________________________________________________________
batch_normalization_19 (BatchNo (None, 16, 32, 2813) 11252       average_pooling2d_16[0][0]       
__________________________________________________________________________________________________
input_1 (InputLayer)            [(None, 1, 128, 1250 0                                            
__________________________________________________________________________________________________
inverted_residual_1 (InvertedRe (None, 32, 64, 1875) 41700       inverted_residual[0][0]          
__________________________________________________________________________________________________
average_pooling2d_11 (AveragePo (None, 32, 32, 313)  0           conv2d_14[0][0]                  
__________________________________________________________________________________________________
conv2d_34 (Conv2D)              (None, 32, 32, 2813) 544         batch_normalization_19[0][0]     
__________________________________________________________________________________________________
conv2d_36 (Conv2D)              (None, 32, 32, 2813) 544         batch_normalization_19[0][0]     
__________________________________________________________________________________________________
max_pooling2d_3 (MaxPooling2D)  (None, 16, 32, 2813) 0           batch_normalization_19[0][0]     
__________________________________________________________________________________________________
conv2d (Conv2D)                 (None, 8, 128, 1250) 80          input_1[0][0]                    
__________________________________________________________________________________________________
average_pooling2d_6 (AveragePoo (None, 32, 32, 937)  0           inverted_residual_1[0][0]        
__________________________________________________________________________________________________
dropout_6 (Dropout)             (None, 32, 32, 313)  0           average_pooling2d_11[0][0]       
__________________________________________________________________________________________________
conv2d_35 (Conv2D)              (None, 32, 32, 2813) 9248        conv2d_34[0][0]                  
__________________________________________________________________________________________________
conv2d_37 (Conv2D)              (None, 32, 32, 2813) 25632       conv2d_36[0][0]                  
__________________________________________________________________________________________________
conv2d_38 (Conv2D)              (None, 32, 32, 2813) 544         max_pooling2d_3[0][0]            
__________________________________________________________________________________________________
mix_depth_group_convolution2d ( (None, 8, 128, 1250) 1080        conv2d[0][0]                     
__________________________________________________________________________________________________
batch_normalization_7 (BatchNor (None, 32, 32, 937)  3748        average_pooling2d_6[0][0]        
__________________________________________________________________________________________________
batch_normalization_13 (BatchNo (None, 32, 32, 313)  1252        dropout_6[0][0]                  
__________________________________________________________________________________________________
concatenate_3 (Concatenate)     (None, 32, 32, 8439) 0           conv2d_35[0][0]                  
                                                                 conv2d_37[0][0]                  
                                                                 conv2d_38[0][0]                  
__________________________________________________________________________________________________
average_pooling2d (AveragePooli (None, 8, 64, 625)   0           mix_depth_group_convolution2d[0][
__________________________________________________________________________________________________
dropout_1 (Dropout)             (None, 32, 32, 937)  0           batch_normalization_7[0][0]      
__________________________________________________________________________________________________
conv2d_15 (Conv2D)              (None, 32, 32, 313)  36896       batch_normalization_13[0][0]     
__________________________________________________________________________________________________
average_pooling2d_17 (AveragePo (None, 32, 16, 4220) 0           concatenate_3[0][0]              
__________________________________________________________________________________________________
batch_normalization (BatchNorma (None, 8, 64, 625)   2500        average_pooling2d[0][0]          
__________________________________________________________________________________________________
inverted_residual_2 (InvertedRe (None, 64, 32, 937)  36588       dropout_1[0][0]                  
__________________________________________________________________________________________________
conv2d_16 (Conv2D)              (None, 64, 32, 313)  2112        conv2d_15[0][0]                  
__________________________________________________________________________________________________
batch_normalization_20 (BatchNo (None, 32, 16, 4220) 16880       average_pooling2d_17[0][0]       
__________________________________________________________________________________________________
conv2d_1 (Conv2D)               (None, 16, 64, 625)  1168        batch_normalization[0][0]        
__________________________________________________________________________________________________
inverted_residual_3 (InvertedRe (None, 64, 32, 937)  74220       inverted_residual_2[0][0]        
__________________________________________________________________________________________________
average_pooling2d_12 (AveragePo (None, 64, 16, 157)  0           conv2d_16[0][0]                  
__________________________________________________________________________________________________
conv2d_39 (Conv2D)              (None, 64, 16, 4220) 2112        batch_normalization_20[0][0]     
__________________________________________________________________________________________________
conv2d_41 (Conv2D)              (None, 64, 16, 4220) 2112        batch_normalization_20[0][0]     
__________________________________________________________________________________________________
max_pooling2d_4 (MaxPooling2D)  (None, 32, 16, 4220) 0           batch_normalization_20[0][0]     
__________________________________________________________________________________________________
mix_depth_group_convolution2d_1 (None, 16, 64, 625)  2160        conv2d_1[0][0]                   
__________________________________________________________________________________________________
average_pooling2d_7 (AveragePoo (None, 64, 16, 468)  0           inverted_residual_3[0][0]        
__________________________________________________________________________________________________
dropout_7 (Dropout)             (None, 64, 16, 157)  0           average_pooling2d_12[0][0]       
__________________________________________________________________________________________________
conv2d_40 (Conv2D)              (None, 64, 16, 4220) 36928       conv2d_39[0][0]                  
__________________________________________________________________________________________________
conv2d_42 (Conv2D)              (None, 64, 16, 4220) 102464      conv2d_41[0][0]                  
__________________________________________________________________________________________________
conv2d_43 (Conv2D)              (None, 64, 16, 4220) 2112        max_pooling2d_4[0][0]            
__________________________________________________________________________________________________
average_pooling2d_1 (AveragePoo (None, 16, 32, 313)  0           mix_depth_group_convolution2d_1[0
__________________________________________________________________________________________________
batch_normalization_8 (BatchNor (None, 64, 16, 468)  1872        average_pooling2d_7[0][0]        
__________________________________________________________________________________________________
batch_normalization_14 (BatchNo (None, 64, 16, 157)  628         dropout_7[0][0]                  
__________________________________________________________________________________________________
concatenate_4 (Concatenate)     (None, 64, 16, 12660 0           conv2d_40[0][0]                  
                                                                 conv2d_42[0][0]                  
                                                                 conv2d_43[0][0]                  
__________________________________________________________________________________________________
batch_normalization_1 (BatchNor (None, 16, 32, 313)  1252        average_pooling2d_1[0][0]        
__________________________________________________________________________________________________
dropout_2 (Dropout)             (None, 64, 16, 468)  0           batch_normalization_8[0][0]      
__________________________________________________________________________________________________
conv2d_17 (Conv2D)              (None, 64, 16, 157)  147520      batch_normalization_14[0][0]     
__________________________________________________________________________________________________
average_pooling2d_18 (AveragePo (None, 64, 8, 6330)  0           concatenate_4[0][0]              
__________________________________________________________________________________________________
conv2d_2 (Conv2D)               (None, 32, 32, 313)  4640        batch_normalization_1[0][0]      
__________________________________________________________________________________________________
inverted_residual_4 (InvertedRe (None, 128, 16, 468) 93168       dropout_2[0][0]                  
__________________________________________________________________________________________________
conv2d_18 (Conv2D)              (None, 128, 16, 157) 8320        conv2d_17[0][0]                  
__________________________________________________________________________________________________
batch_normalization_21 (BatchNo (None, 64, 8, 6330)  25320       average_pooling2d_18[0][0]       
__________________________________________________________________________________________________
mix_depth_group_convolution2d_2 (None, 32, 32, 313)  4320        conv2d_2[0][0]                   
__________________________________________________________________________________________________
inverted_residual_5 (InvertedRe (None, 128, 16, 468) 229872      inverted_residual_4[0][0]        
__________________________________________________________________________________________________
average_pooling2d_13 (AveragePo (None, 128, 8, 79)   0           conv2d_18[0][0]                  
__________________________________________________________________________________________________
conv2d_44 (Conv2D)              (None, 128, 8, 6330) 8320        batch_normalization_21[0][0]     
__________________________________________________________________________________________________
conv2d_46 (Conv2D)              (None, 128, 8, 6330) 8320        batch_normalization_21[0][0]     
__________________________________________________________________________________________________
max_pooling2d_5 (MaxPooling2D)  (None, 64, 8, 6330)  0           batch_normalization_21[0][0]     
__________________________________________________________________________________________________
average_pooling2d_2 (AveragePoo (None, 32, 16, 157)  0           mix_depth_group_convolution2d_2[0
__________________________________________________________________________________________________
average_pooling2d_8 (AveragePoo (None, 128, 8, 234)  0           inverted_residual_5[0][0]        
__________________________________________________________________________________________________
dropout_8 (Dropout)             (None, 128, 8, 79)   0           average_pooling2d_13[0][0]       
__________________________________________________________________________________________________
conv2d_45 (Conv2D)              (None, 128, 8, 6330) 147584      conv2d_44[0][0]                  
__________________________________________________________________________________________________
conv2d_47 (Conv2D)              (None, 128, 8, 6330) 409728      conv2d_46[0][0]                  
__________________________________________________________________________________________________
conv2d_48 (Conv2D)              (None, 128, 8, 6330) 8320        max_pooling2d_5[0][0]            
__________________________________________________________________________________________________
batch_normalization_2 (BatchNor (None, 32, 16, 157)  628         average_pooling2d_2[0][0]        
__________________________________________________________________________________________________
batch_normalization_9 (BatchNor (None, 128, 8, 234)  936         average_pooling2d_8[0][0]        
__________________________________________________________________________________________________
batch_normalization_15 (BatchNo (None, 128, 8, 79)   316         dropout_8[0][0]                  
__________________________________________________________________________________________________
concatenate_5 (Concatenate)     (None, 128, 8, 18990 0           conv2d_45[0][0]                  
                                                                 conv2d_47[0][0]                  
                                                                 conv2d_48[0][0]                  
__________________________________________________________________________________________________
conv2d_3 (Conv2D)               (None, 64, 16, 157)  18496       batch_normalization_2[0][0]      
__________________________________________________________________________________________________
dropout_3 (Dropout)             (None, 128, 8, 234)  0           batch_normalization_9[0][0]      
__________________________________________________________________________________________________
conv2d_19 (Conv2D)              (None, 128, 8, 79)   589952      batch_normalization_15[0][0]     
__________________________________________________________________________________________________
average_pooling2d_19 (AveragePo (None, 128, 4, 9495) 0           concatenate_5[0][0]              
__________________________________________________________________________________________________
mix_depth_group_convolution2d_3 (None, 64, 16, 157)  8640        conv2d_3[0][0]                   
__________________________________________________________________________________________________
inverted_residual_6 (InvertedRe (None, 256, 8, 234)  325368      dropout_3[0][0]                  
__________________________________________________________________________________________________
conv2d_20 (Conv2D)              (None, 256, 8, 79)   33024       conv2d_19[0][0]                  
__________________________________________________________________________________________________
batch_normalization_22 (BatchNo (None, 128, 4, 9495) 37980       average_pooling2d_19[0][0]       
__________________________________________________________________________________________________
average_pooling2d_3 (AveragePoo (None, 64, 8, 79)    0           mix_depth_group_convolution2d_3[0
__________________________________________________________________________________________________
inverted_residual_7 (InvertedRe (None, 256, 8, 234)  844536      inverted_residual_6[0][0]        
__________________________________________________________________________________________________
average_pooling2d_14 (AveragePo (None, 256, 4, 40)   0           conv2d_20[0][0]                  
__________________________________________________________________________________________________
conv2d_49 (Conv2D)              (None, 256, 4, 9495) 33024       batch_normalization_22[0][0]     
__________________________________________________________________________________________________
conv2d_51 (Conv2D)              (None, 256, 4, 9495) 33024       batch_normalization_22[0][0]     
__________________________________________________________________________________________________
max_pooling2d_6 (MaxPooling2D)  (None, 128, 4, 9495) 0           batch_normalization_22[0][0]     
__________________________________________________________________________________________________
batch_normalization_3 (BatchNor (None, 64, 8, 79)    316         average_pooling2d_3[0][0]        
__________________________________________________________________________________________________
average_pooling2d_9 (AveragePoo (None, 256, 4, 117)  0           inverted_residual_7[0][0]        
__________________________________________________________________________________________________
dropout_9 (Dropout)             (None, 256, 4, 40)   0           average_pooling2d_14[0][0]       
__________________________________________________________________________________________________
conv2d_50 (Conv2D)              (None, 256, 4, 9495) 590080      conv2d_49[0][0]                  
__________________________________________________________________________________________________
conv2d_52 (Conv2D)              (None, 256, 4, 9495) 1638656     conv2d_51[0][0]                  
__________________________________________________________________________________________________
conv2d_53 (Conv2D)              (None, 256, 4, 9495) 33024       max_pooling2d_6[0][0]            
__________________________________________________________________________________________________
conv2d_4 (Conv2D)               (None, 128, 8, 79)   73856       batch_normalization_3[0][0]      
__________________________________________________________________________________________________
batch_normalization_10 (BatchNo (None, 256, 4, 117)  468         average_pooling2d_9[0][0]        
__________________________________________________________________________________________________
batch_normalization_16 (BatchNo (None, 256, 4, 40)   160         dropout_9[0][0]                  
__________________________________________________________________________________________________
concatenate_6 (Concatenate)     (None, 256, 4, 28485 0           conv2d_50[0][0]                  
                                                                 conv2d_52[0][0]                  
                                                                 conv2d_53[0][0]                  
__________________________________________________________________________________________________
mix_depth_group_convolution2d_4 (None, 128, 8, 79)   17280       conv2d_4[0][0]                   
__________________________________________________________________________________________________
dropout_4 (Dropout)             (None, 256, 4, 117)  0           batch_normalization_10[0][0]     
__________________________________________________________________________________________________
conv2d_21 (Conv2D)              (None, 256, 4, 40)   65792       batch_normalization_16[0][0]     
__________________________________________________________________________________________________
average_pooling2d_20 (AveragePo (None, 256, 2, 14243 0           concatenate_6[0][0]              
__________________________________________________________________________________________________
average_pooling2d_4 (AveragePoo (None, 128, 4, 40)   0           mix_depth_group_convolution2d_4[0
__________________________________________________________________________________________________
inverted_residual_8 (InvertedRe (None, 512, 4, 117)  1236348     dropout_4[0][0]                  
__________________________________________________________________________________________________
conv2d_22 (Conv2D)              (None, 512, 4, 40)   1180160     conv2d_21[0][0]                  
__________________________________________________________________________________________________
batch_normalization_23 (BatchNo (None, 256, 2, 14243 56972       average_pooling2d_20[0][0]       
__________________________________________________________________________________________________
batch_normalization_4 (BatchNor (None, 128, 4, 40)   160         average_pooling2d_4[0][0]        
__________________________________________________________________________________________________
inverted_residual_9 (InvertedRe (None, 512, 4, 117)  3257724     inverted_residual_8[0][0]        
__________________________________________________________________________________________________
conv2d_23 (Conv2D)              (None, 512, 4, 40)   2359808     conv2d_22[0][0]                  
__________________________________________________________________________________________________
global_average_pooling2d_3 (Glo (None, 256)          0           batch_normalization_23[0][0]     
__________________________________________________________________________________________________
global_average_pooling2d (Globa (None, 128)          0           batch_normalization_4[0][0]      
__________________________________________________________________________________________________
global_average_pooling2d_1 (Glo (None, 512)          0           inverted_residual_9[0][0]        
__________________________________________________________________________________________________
global_average_pooling2d_2 (Glo (None, 512)          0           conv2d_23[0][0]                  
__________________________________________________________________________________________________
dense (Dense)                   (None, 1)            257         global_average_pooling2d_3[0][0] 
__________________________________________________________________________________________________
concatenate_7 (Concatenate)     (None, 1153)         0           global_average_pooling2d[0][0]   
                                                                 global_average_pooling2d_1[0][0] 
                                                                 global_average_pooling2d_2[0][0] 
                                                                 dense[0][0]                      
__________________________________________________________________________________________________
dense_1 (Dense)                 (None, 32)           36928       concatenate_7[0][0]              
__________________________________________________________________________________________________
dense_2 (Dense)                 (None, 1)            33          dense_1[0][0]                    
==================================================================================================
Total params: 14,081,398
Trainable params: 13,940,256
Non-trainable params: 141,142
__________________________________________________________________________________________________2021-04-26 13:52:37.291878: I tensorflow/compiler/mlir/mlir_graph_optimization_pass.cc:116] None of the MLIR optimization passes are enabled (registered 2)
…
