…
Learning Rate Parameters: {'factor': 0.5, 'patience': 3, 'min_lr': 1e-10}
Early Stopping Patience and Delta: 20, 1.0%
Six: True and Concat: True
-----------------------
Original number of folders: 453
Initializing weights...
weights = {0: 0.7018518518518518, 1: 1.738532110091743}
Model: "conv2d"
_________________________________________________________________
Layer (type)                 Output Shape              Param #   
=================================================================
input_1 (InputLayer)         [(None, 6, 128, 1250)]    0         
_________________________________________________________________
conv2d (Conv2D)              (None, 8, 128, 1250)      440       
_________________________________________________________________
mix_depth_group_convolution2 (None, 8, 128, 1250)      1080      
_________________________________________________________________
average_pooling2d (AveragePo (None, 8, 64, 625)        0         
_________________________________________________________________
batch_normalization (BatchNo (None, 8, 64, 625)        2500      
_________________________________________________________________
conv2d_1 (Conv2D)            (None, 16, 64, 625)       1168      
_________________________________________________________________
mix_depth_group_convolution2 (None, 16, 64, 625)       2160      
_________________________________________________________________
average_pooling2d_1 (Average (None, 16, 32, 313)       0         
_________________________________________________________________
batch_normalization_1 (Batch (None, 16, 32, 313)       1252      
_________________________________________________________________
conv2d_2 (Conv2D)            (None, 32, 32, 313)       4640      
_________________________________________________________________
mix_depth_group_convolution2 (None, 32, 32, 313)       4320      
_________________________________________________________________
average_pooling2d_2 (Average (None, 32, 16, 157)       0         
_________________________________________________________________
batch_normalization_2 (Batch (None, 32, 16, 157)       628       
_________________________________________________________________
conv2d_3 (Conv2D)            (None, 64, 16, 157)       18496     
_________________________________________________________________
mix_depth_group_convolution2 (None, 64, 16, 157)       8640      
_________________________________________________________________
average_pooling2d_3 (Average (None, 64, 8, 79)         0         
_________________________________________________________________
batch_normalization_3 (Batch (None, 64, 8, 79)         316       
_________________________________________________________________
conv2d_4 (Conv2D)            (None, 128, 8, 79)        73856     
_________________________________________________________________
mix_depth_group_convolution2 (None, 128, 8, 79)        17280     
_________________________________________________________________
average_pooling2d_4 (Average (None, 128, 4, 40)        0         
_________________________________________________________________
batch_normalization_4 (Batch (None, 128, 4, 40)        160       
_________________________________________________________________
global_average_pooling2d (Gl (None, 128)               0         
_________________________________________________________________
dense (Dense)                (None, 1)                 129       
=================================================================
Total params: 137,065
Trainable params: 134,637
Non-trainable params: 2,428
_________________________________________________________________
Epoch 1/40
76/76 - 39s - loss: 0.7392 - accuracy: 0.4836 - val_loss: 0.6838 - val_accuracy: 0.8000
Confusion matrix: 
 [[60  0]
 [15  0]]
Validation f1: 0.00
Validation accuracy: 80.00
…
