…
2021-05-12 14:53:55.194154: I tensorflow/stream_executor/platform/default/dso_loader.cc:49] Successfully opened dynamic library libcudnn.so.8

Original number of folders: 453
here
With concat = False and six = False, size of training set: 4196...
...and size of validation set: 1088
Model: "conv2d"
_________________________________________________________________
Layer (type)                 Output Shape              Param #   
=================================================================
input_1 (InputLayer)         [(None, 128, 1250, 3)]    0         
_________________________________________________________________
batch_normalization (BatchNo (None, 128, 1250, 3)      12        
_________________________________________________________________
conv2d (Conv2D)              (None, 128, 1250, 4)      16        
_________________________________________________________________
conv2d_1 (Conv2D)            (None, 128, 1250, 8)      1160      
_________________________________________________________________
conv2d_2 (Conv2D)            (None, 128, 1250, 16)     144       
_________________________________________________________________
average_pooling2d (AveragePo (None, 64, 625, 16)       0         
_________________________________________________________________
dropout (Dropout)            (None, 64, 625, 16)       0         
_________________________________________________________________
batch_normalization_1 (Batch (None, 64, 625, 16)       64        
_________________________________________________________________
conv2d_3 (Conv2D)            (None, 64, 625, 16)       9232      
_________________________________________________________________
conv2d_4 (Conv2D)            (None, 64, 625, 32)       544       
_________________________________________________________________
average_pooling2d_1 (Average (None, 32, 313, 32)       0         
_________________________________________________________________
dropout_1 (Dropout)          (None, 32, 313, 32)       0         
_________________________________________________________________
batch_normalization_2 (Batch (None, 32, 313, 32)       128       
_________________________________________________________________
conv2d_5 (Conv2D)            (None, 32, 313, 32)       36896     
_________________________________________________________________
conv2d_6 (Conv2D)            (None, 32, 313, 64)       2112      
_________________________________________________________________
average_pooling2d_2 (Average (None, 16, 157, 64)       0         
_________________________________________________________________
dropout_2 (Dropout)          (None, 16, 157, 64)       0         
_________________________________________________________________
batch_normalization_3 (Batch (None, 16, 157, 64)       256       
_________________________________________________________________
conv2d_7 (Conv2D)            (None, 16, 157, 64)       147520    
_________________________________________________________________
conv2d_8 (Conv2D)            (None, 16, 157, 128)      8320      
_________________________________________________________________
average_pooling2d_3 (Average (None, 8, 79, 128)        0         
_________________________________________________________________
dropout_3 (Dropout)          (None, 8, 79, 128)        0         
_________________________________________________________________
batch_normalization_4 (Batch (None, 8, 79, 128)        512       
_________________________________________________________________
conv2d_9 (Conv2D)            (None, 8, 79, 128)        589952    
_________________________________________________________________
conv2d_10 (Conv2D)           (None, 8, 79, 256)        33024     
_________________________________________________________________
average_pooling2d_4 (Average (None, 4, 40, 256)        0         
_________________________________________________________________
dropout_4 (Dropout)          (None, 4, 40, 256)        0         
_________________________________________________________________
batch_normalization_5 (Batch (None, 4, 40, 256)        1024      
_________________________________________________________________
conv2d_11 (Conv2D)           (None, 4, 40, 256)        65792     
_________________________________________________________________
conv2d_12 (Conv2D)           (None, 4, 40, 512)        1180160   
_________________________________________________________________
conv2d_13 (Conv2D)           (None, 4, 40, 512)        2359808   
_________________________________________________________________
global_average_pooling2d (Gl (None, 512)               0         
_________________________________________________________________
dense (Dense)                (None, 1)                 513       
=================================================================
Total params: 4,437,189
Trainable params: 4,436,191
Non-trainable params: 998
_________________________________________________________________
Epoch 1/50
263/263 - 105s - loss: 0.6229 - accuracy: 0.7221 - val_loss: 0.5065 - val_accuracy: 0.7996
Confusion matrix: 
 [[870   0]
 [218   0]]
Validation f1: 0.00
/home/alirachidi/anaconda3/envs/LungSoundClass/lib/python3.7/site-packages/sklearn/metrics/_classification.py:1272: UndefinedMetricWarning: Precision and F-score are ill-defined and being set to 0.0 due to no predicted samples. Use `zero_division` parameter to control this behavior.
…
