…
With concat = False and six = False, size of training set: 4196...
...and size of validation set: 1088
Model: "conv2d"
__________________________________________________________________________________________________
Layer (type)                    Output Shape         Param #     Connected to                     
==================================================================================================
input_1 (InputLayer)            [(None, 128, 1250, 3 0                                            
__________________________________________________________________________________________________
conv2d (Conv2D)                 (None, 128, 1250, 8) 224         input_1[0][0]                    
__________________________________________________________________________________________________
mix_depth_group_convolution2d ( (None, 128, 1250, 8) 162         conv2d[0][0]                     
__________________________________________________________________________________________________
average_pooling2d (AveragePooli (None, 64, 625, 8)   0           mix_depth_group_convolution2d[0][
__________________________________________________________________________________________________
batch_normalization (BatchNorma (None, 64, 625, 8)   32          average_pooling2d[0][0]          
__________________________________________________________________________________________________
conv2d_1 (Conv2D)               (None, 64, 625, 16)  144         batch_normalization[0][0]        
__________________________________________________________________________________________________
conv2d_3 (Conv2D)               (None, 64, 625, 16)  144         batch_normalization[0][0]        
__________________________________________________________________________________________________
max_pooling2d (MaxPooling2D)    (None, 64, 625, 8)   0           batch_normalization[0][0]        
__________________________________________________________________________________________________
conv2d_2 (Conv2D)               (None, 64, 625, 16)  2320        conv2d_1[0][0]                   
__________________________________________________________________________________________________
conv2d_4 (Conv2D)               (None, 64, 625, 16)  6416        conv2d_3[0][0]                   
__________________________________________________________________________________________________
conv2d_5 (Conv2D)               (None, 64, 625, 16)  144         max_pooling2d[0][0]              
__________________________________________________________________________________________________
concatenate (Concatenate)       (None, 64, 625, 48)  0           conv2d_2[0][0]                   
                                                                 conv2d_4[0][0]                   
                                                                 conv2d_5[0][0]                   
__________________________________________________________________________________________________
average_pooling2d_1 (AveragePoo (None, 32, 313, 48)  0           concatenate[0][0]                
__________________________________________________________________________________________________
batch_normalization_1 (BatchNor (None, 32, 313, 48)  192         average_pooling2d_1[0][0]        
__________________________________________________________________________________________________
dropout (Dropout)               (None, 32, 313, 48)  0           batch_normalization_1[0][0]      
__________________________________________________________________________________________________
inverted_residual (InvertedResi (None, 32, 313, 32)  35840       dropout[0][0]                    
__________________________________________________________________________________________________
inverted_residual_1 (InvertedRe (None, 32, 313, 32)  20864       inverted_residual[0][0]          
__________________________________________________________________________________________________
average_pooling2d_2 (AveragePoo (None, 16, 156, 32)  0           inverted_residual_1[0][0]        
__________________________________________________________________________________________________
batch_normalization_2 (BatchNor (None, 16, 156, 32)  128         average_pooling2d_2[0][0]        
__________________________________________________________________________________________________
dropout_1 (Dropout)             (None, 16, 156, 32)  0           batch_normalization_2[0][0]      
__________________________________________________________________________________________________
inverted_residual_2 (InvertedRe (None, 16, 156, 64)  27136       dropout_1[0][0]                  
__________________________________________________________________________________________________
inverted_residual_3 (InvertedRe (None, 16, 156, 64)  66304       inverted_residual_2[0][0]        
__________________________________________________________________________________________________
average_pooling2d_3 (AveragePoo (None, 8, 78, 64)    0           inverted_residual_3[0][0]        
__________________________________________________________________________________________________
batch_normalization_3 (BatchNor (None, 8, 78, 64)    256         average_pooling2d_3[0][0]        
__________________________________________________________________________________________________
dropout_2 (Dropout)             (None, 8, 78, 64)    0           batch_normalization_3[0][0]      
__________________________________________________________________________________________________
inverted_residual_4 (InvertedRe (None, 8, 78, 128)   91136       dropout_2[0][0]                  
__________________________________________________________________________________________________
inverted_residual_5 (InvertedRe (None, 8, 78, 128)   230912      inverted_residual_4[0][0]        
__________________________________________________________________________________________________
average_pooling2d_4 (AveragePoo (None, 4, 39, 128)   0           inverted_residual_5[0][0]        
__________________________________________________________________________________________________
batch_normalization_4 (BatchNor (None, 4, 39, 128)   512         average_pooling2d_4[0][0]        
__________________________________________________________________________________________________
dropout_3 (Dropout)             (None, 4, 39, 128)   0           batch_normalization_4[0][0]      
__________________________________________________________________________________________________
inverted_residual_6 (InvertedRe (None, 4, 39, 256)   329728      dropout_3[0][0]                  
__________________________________________________________________________________________________
inverted_residual_7 (InvertedRe (None, 4, 39, 256)   855040      inverted_residual_6[0][0]        
__________________________________________________________________________________________________
average_pooling2d_5 (AveragePoo (None, 2, 19, 256)   0           inverted_residual_7[0][0]        
__________________________________________________________________________________________________
batch_normalization_5 (BatchNor (None, 2, 19, 256)   1024        average_pooling2d_5[0][0]        
__________________________________________________________________________________________________
dropout_4 (Dropout)             (None, 2, 19, 256)   0           batch_normalization_5[0][0]      
__________________________________________________________________________________________________
inverted_residual_8 (InvertedRe (None, 2, 19, 512)   1249280     dropout_4[0][0]                  
__________________________________________________________________________________________________
inverted_residual_9 (InvertedRe (None, 2, 19, 512)   3282944     inverted_residual_8[0][0]        
__________________________________________________________________________________________________
global_average_pooling2d (Globa (None, 512)          0           inverted_residual_9[0][0]        
__________________________________________________________________________________________________
dense (Dense)                   (None, 1)            513         global_average_pooling2d[0][0]   
==================================================================================================
Total params: 6,201,395
Trainable params: 6,159,875
Non-trainable params: 41,520
__________________________________________________________________________________________________
2021-05-23 20:00:51.571247: I tensorflow/compiler/mlir/mlir_graph_optimization_pass.cc:116] None of the MLIR optimization passes are enabled (registered 2)
…
