…
With concat = False and six = False, size of training set: 4196...
...and size of validation set: 1088
Model: "conv2d"
__________________________________________________________________________________________________
Layer (type)                    Output Shape         Param #     Connected to                     
==================================================================================================
input_1 (InputLayer)            [(None, 1250, 128)]  0                                            
__________________________________________________________________________________________________
gru_2 (GRU)                     (None, 1250, 64)     37248       input_1[0][0]                    
__________________________________________________________________________________________________
gru (GRU)                       (None, 1250, 32)     15552       input_1[0][0]                    
__________________________________________________________________________________________________
leaky_re_lu_2 (LeakyReLU)       (None, 1250, 64)     0           gru_2[0][0]                      
__________________________________________________________________________________________________
leaky_re_lu (LeakyReLU)         (None, 1250, 32)     0           gru[0][0]                        
__________________________________________________________________________________________________
gru_3 (GRU)                     (None, 1250, 128)    74496       leaky_re_lu_2[0][0]              
__________________________________________________________________________________________________
gru_1 (GRU)                     (None, 1250, 128)    62208       leaky_re_lu[0][0]                
__________________________________________________________________________________________________
leaky_re_lu_3 (LeakyReLU)       (None, 1250, 128)    0           gru_3[0][0]                      
__________________________________________________________________________________________________
leaky_re_lu_1 (LeakyReLU)       (None, 1250, 128)    0           gru_1[0][0]                      
__________________________________________________________________________________________________
add (Add)                       (None, 1250, 128)    0           leaky_re_lu_3[0][0]              
                                                                 leaky_re_lu_1[0][0]              
__________________________________________________________________________________________________
gru_4 (GRU)                     (None, 1250, 128)    99072       add[0][0]                        
__________________________________________________________________________________________________
gru_6 (GRU)                     (None, 1250, 64)     37248       add[0][0]                        
__________________________________________________________________________________________________
leaky_re_lu_4 (LeakyReLU)       (None, 1250, 128)    0           gru_4[0][0]                      
__________________________________________________________________________________________________
leaky_re_lu_6 (LeakyReLU)       (None, 1250, 64)     0           gru_6[0][0]                      
__________________________________________________________________________________________________
gru_5 (GRU)                     (None, 1250, 32)     15552       leaky_re_lu_4[0][0]              
__________________________________________________________________________________________________
gru_7 (GRU)                     (None, 1250, 32)     9408        leaky_re_lu_6[0][0]              
__________________________________________________________________________________________________
leaky_re_lu_5 (LeakyReLU)       (None, 1250, 32)     0           gru_5[0][0]                      
__________________________________________________________________________________________________
leaky_re_lu_7 (LeakyReLU)       (None, 1250, 32)     0           gru_7[0][0]                      
__________________________________________________________________________________________________
add_1 (Add)                     (None, 1250, 32)     0           leaky_re_lu_5[0][0]              
                                                                 leaky_re_lu_7[0][0]              
                                                                 gru[0][0]                        
__________________________________________________________________________________________________
dense (Dense)                   (None, 1250, 64)     2112        add_1[0][0]                      
__________________________________________________________________________________________________
dense_2 (Dense)                 (None, 1250, 32)     1056        add_1[0][0]                      
__________________________________________________________________________________________________
leaky_re_lu_8 (LeakyReLU)       (None, 1250, 64)     0           dense[0][0]                      
__________________________________________________________________________________________________
leaky_re_lu_10 (LeakyReLU)      (None, 1250, 32)     0           dense_2[0][0]                    
__________________________________________________________________________________________________
dropout (Dropout)               (None, 1250, 64)     0           leaky_re_lu_8[0][0]              
__________________________________________________________________________________________________
dropout_1 (Dropout)             (None, 1250, 32)     0           leaky_re_lu_10[0][0]             
__________________________________________________________________________________________________
dense_1 (Dense)                 (None, 1250, 16)     1040        dropout[0][0]                    
__________________________________________________________________________________________________
dense_3 (Dense)                 (None, 1250, 16)     528         dropout_1[0][0]                  
__________________________________________________________________________________________________
leaky_re_lu_9 (LeakyReLU)       (None, 1250, 16)     0           dense_1[0][0]                    
__________________________________________________________________________________________________
leaky_re_lu_11 (LeakyReLU)      (None, 1250, 16)     0           dense_3[0][0]                    
__________________________________________________________________________________________________
add_2 (Add)                     (None, 1250, 16)     0           leaky_re_lu_9[0][0]              
                                                                 leaky_re_lu_11[0][0]             
__________________________________________________________________________________________________
dense_4 (Dense)                 (None, 1250, 16)     272         add_2[0][0]                      
__________________________________________________________________________________________________
leaky_re_lu_12 (LeakyReLU)      (None, 1250, 16)     0           dense_4[0][0]                    
__________________________________________________________________________________________________
dropout_2 (Dropout)             (None, 1250, 16)     0           leaky_re_lu_12[0][0]             
__________________________________________________________________________________________________
flatten (Flatten)               (None, 20000)        0           dropout_2[0][0]                  
__________________________________________________________________________________________________
dense_5 (Dense)                 (None, 1)            20001       flatten[0][0]                    
==================================================================================================
Total params: 375,793
Trainable params: 375,793
Non-trainable params: 0
__________________________________________________________________________________________________
Epoch 1/80
263/263 - 4020s - loss: 0.6034 - accuracy: 0.2741 - val_loss: 0.5212 - val_accuracy: 0.2004
…
