…
Number of val recordings: 1072 with pneumonia: 288 and non-pneumonia: 784
-----------------------
The initial learning rate for this job is: 0.001
Initializing weights...
weights = {0: 0.6724137931034483, 1: 1.95}
Model: "conv2d"
______________________________________________________________________________________________________________
Layer (type)                        Output Shape            Param #      Connected to                         
==============================================================================================================
input_1 (InputLayer)                [(None, 5, 250, 128, 1) 0                                                 
______________________________________________________________________________________________________________
batch_normalization (BatchNormaliza (None, 5, 250, 128, 1)  4            input_1[0][0]                        
______________________________________________________________________________________________________________
time_distributed (TimeDistributed)  (None, 5, 250, 128, 16) 32           batch_normalization[0][0]            
______________________________________________________________________________________________________________
time_distributed_2 (TimeDistributed (None, 5, 250, 128, 16) 32           batch_normalization[0][0]            
______________________________________________________________________________________________________________
time_distributed_4 (TimeDistributed (None, 5, 250, 128, 1)  0            batch_normalization[0][0]            
______________________________________________________________________________________________________________
time_distributed_1 (TimeDistributed (None, 5, 250, 128, 16) 2320         time_distributed[0][0]               
______________________________________________________________________________________________________________
time_distributed_3 (TimeDistributed (None, 5, 250, 128, 16) 6416         time_distributed_2[0][0]             
______________________________________________________________________________________________________________
time_distributed_5 (TimeDistributed (None, 5, 250, 128, 16) 32           time_distributed_4[0][0]             
______________________________________________________________________________________________________________
concatenate (Concatenate)           (None, 5, 250, 128, 48) 0            time_distributed_1[0][0]             
                                                                         time_distributed_3[0][0]             
                                                                         time_distributed_5[0][0]             
______________________________________________________________________________________________________________
time_distributed_6 (TimeDistributed (None, 5, 125, 64, 48)  0            concatenate[0][0]                    
______________________________________________________________________________________________________________
batch_normalization_1 (BatchNormali (None, 5, 125, 64, 48)  192          time_distributed_6[0][0]             
______________________________________________________________________________________________________________
dropout (Dropout)                   (None, 5, 125, 64, 48)  0            batch_normalization_1[0][0]          
______________________________________________________________________________________________________________
time_distributed_7 (TimeDistributed (None, 5, 125, 64, 48)  2352         dropout[0][0]                        
______________________________________________________________________________________________________________
time_distributed_9 (TimeDistributed (None, 5, 125, 64, 48)  2352         dropout[0][0]                        
______________________________________________________________________________________________________________
time_distributed_11 (TimeDistribute (None, 5, 125, 64, 48)  0            dropout[0][0]                        
______________________________________________________________________________________________________________
time_distributed_8 (TimeDistributed (None, 5, 125, 64, 48)  20784        time_distributed_7[0][0]             
______________________________________________________________________________________________________________
time_distributed_10 (TimeDistribute (None, 5, 125, 64, 48)  57648        time_distributed_9[0][0]             
______________________________________________________________________________________________________________
time_distributed_12 (TimeDistribute (None, 5, 125, 64, 48)  2352         time_distributed_11[0][0]            
______________________________________________________________________________________________________________
concatenate_1 (Concatenate)         (None, 5, 125, 64, 144) 0            time_distributed_8[0][0]             
                                                                         time_distributed_10[0][0]            
                                                                         time_distributed_12[0][0]            
______________________________________________________________________________________________________________
time_distributed_13 (TimeDistribute (None, 5, 63, 32, 144)  0            concatenate_1[0][0]                  
______________________________________________________________________________________________________________
batch_normalization_2 (BatchNormali (None, 5, 63, 32, 144)  576          time_distributed_13[0][0]            
______________________________________________________________________________________________________________
dropout_1 (Dropout)                 (None, 5, 63, 32, 144)  0            batch_normalization_2[0][0]          
______________________________________________________________________________________________________________
time_distributed_14 (TimeDistribute (None, 5, 144)          0            dropout_1[0][0]                      
______________________________________________________________________________________________________________
bidirectional (Bidirectional)       (None, 5, 256)          279552       time_distributed_14[0][0]            
______________________________________________________________________________________________________________
bidirectional_1 (Bidirectional)     (None, 256)             394240       bidirectional[0][0]                  
______________________________________________________________________________________________________________
dense (Dense)                       (None, 1)               257          bidirectional_1[0][0]                
==============================================================================================================
Total params: 769,141
Trainable params: 768,755
Non-trainable params: 386
______________________________________________________________________________________________________________
Epoch 1/80
264/264 - 88s - loss: 0.6905 - accuracy: 0.5347 - val_loss: 0.6741 - val_accuracy: 0.6623
…
