…
Number of val recordings: 1072 with pneumonia: 288 and non-pneumonia: 784
-----------------------
The initial learning rate for this job is: 0.001
Initializing weights...
weights = {0: 0.6724137931034483, 1: 1.95}
Model: "conv2d"
______________________________________________________________________________________________________________
Layer (type)                        Output Shape            Param #      Connected to                         
==============================================================================================================
input_1 (InputLayer)                [(None, 5, 250, 128, 1) 0                                                 
______________________________________________________________________________________________________________
batch_normalization (BatchNormaliza (None, 5, 250, 128, 1)  4            input_1[0][0]                        
______________________________________________________________________________________________________________
time_distributed (TimeDistributed)  (None, 5, 250, 128, 16) 32           batch_normalization[0][0]            
______________________________________________________________________________________________________________
time_distributed_2 (TimeDistributed (None, 5, 250, 128, 16) 32           batch_normalization[0][0]            
______________________________________________________________________________________________________________
time_distributed_4 (TimeDistributed (None, 5, 250, 128, 1)  0            batch_normalization[0][0]            
______________________________________________________________________________________________________________
time_distributed_1 (TimeDistributed (None, 5, 250, 128, 16) 2320         time_distributed[0][0]               
______________________________________________________________________________________________________________
time_distributed_3 (TimeDistributed (None, 5, 250, 128, 16) 6416         time_distributed_2[0][0]             
______________________________________________________________________________________________________________
time_distributed_5 (TimeDistributed (None, 5, 250, 128, 16) 32           time_distributed_4[0][0]             
______________________________________________________________________________________________________________
concatenate (Concatenate)           (None, 5, 250, 128, 48) 0            time_distributed_1[0][0]             
                                                                         time_distributed_3[0][0]             
                                                                         time_distributed_5[0][0]             
______________________________________________________________________________________________________________
time_distributed_6 (TimeDistributed (None, 5, 125, 64, 48)  0            concatenate[0][0]                    
______________________________________________________________________________________________________________
time_distributed_7 (TimeDistributed (None, 5, 125, 64, 48)  192          time_distributed_6[0][0]             
______________________________________________________________________________________________________________
time_distributed_8 (TimeDistributed (None, 5, 125, 64, 32)  13856        time_distributed_7[0][0]             
______________________________________________________________________________________________________________
time_distributed_9 (TimeDistributed (None, 5, 125, 64, 32)  828          time_distributed_8[0][0]             
______________________________________________________________________________________________________________
time_distributed_10 (TimeDistribute (None, 5, 125, 64, 32)  128          time_distributed_9[0][0]             
______________________________________________________________________________________________________________
time_distributed_inverted_residual  (None, 5, 125, 64, 64)  11104        time_distributed_10[0][0]            
______________________________________________________________________________________________________________
time_distributed_inverted_residual_ (None, 5, 125, 64, 64)  28096        time_distributed_inverted_residual[0]
______________________________________________________________________________________________________________
time_distributed_11 (TimeDistribute (None, 5, 63, 32, 64)   0            time_distributed_inverted_residual_1[
______________________________________________________________________________________________________________
time_distributed_12 (TimeDistribute (None, 5, 63, 32, 64)   256          time_distributed_11[0][0]            
______________________________________________________________________________________________________________
time_distributed_inverted_residual_ (None, 5, 63, 32, 128)  40640        time_distributed_12[0][0]            
______________________________________________________________________________________________________________
time_distributed_inverted_residual_ (None, 5, 63, 32, 128)  105344       time_distributed_inverted_residual_2[
______________________________________________________________________________________________________________
time_distributed_13 (TimeDistribute (None, 5, 32, 16, 128)  0            time_distributed_inverted_residual_3[
______________________________________________________________________________________________________________
time_distributed_14 (TimeDistribute (None, 5, 32, 16, 128)  512          time_distributed_13[0][0]            
______________________________________________________________________________________________________________
time_distributed_inverted_residual_ (None, 5, 32, 16, 256)  155008       time_distributed_14[0][0]            
______________________________________________________________________________________________________________
time_distributed_inverted_residual_ (None, 5, 32, 16, 256)  407296       time_distributed_inverted_residual_4[
______________________________________________________________________________________________________________
time_distributed_15 (TimeDistribute (None, 5, 16, 8, 256)   0            time_distributed_inverted_residual_5[
______________________________________________________________________________________________________________
time_distributed_16 (TimeDistribute (None, 5, 16, 8, 256)   1024         time_distributed_15[0][0]            
______________________________________________________________________________________________________________
time_distributed_17 (TimeDistribute (None, 5, 256)          0            time_distributed_16[0][0]            
______________________________________________________________________________________________________________
bidirectional (Bidirectional)       (None, 5, 32)           34944        time_distributed_17[0][0]            
______________________________________________________________________________________________________________
bidirectional_1 (Bidirectional)     (None, 5, 64)           16640        bidirectional[0][0]                  
______________________________________________________________________________________________________________
bidirectional_2 (Bidirectional)     (None, 5, 128)          66048        bidirectional_1[0][0]                
______________________________________________________________________________________________________________
bidirectional_3 (Bidirectional)     (None, 5, 256)          263168       bidirectional_2[0][0]                
______________________________________________________________________________________________________________
bidirectional_4 (Bidirectional)     (None, 5, 512)          1050624      bidirectional_3[0][0]                
______________________________________________________________________________________________________________
time_distributed_18 (TimeDistribute2021-06-11 04:07:55.128569: I tensorflow/compiler/mlir/mlir_graph_optimization_pass.cc:116] None of the MLIR optimization passes are enabled (registered 2)
/home/alirachidi/anaconda3/envs/LungSoundClass/lib/python3.7/site-packages/tensorflow/python/data/ops/dataset_ops.py:3504: UserWarning: Even though the tf.config.experimental_run_functions_eagerly option is set, this option does not apply to tf.data functions. tf.data functions are still traced and executed as graphs.
  "Even though the tf.config.experimental_run_functions_eagerly "
2021-06-11 04:07:55.131831: I tensorflow/core/platform/profile_utils/cpu_utils.cc:112] CPU Frequency: 2299995000 Hz
 (None, 5, 16)           8208         bidirectional_4[0][0]                
______________________________________________________________________________________________________________
dense_1 (Dense)                     (None, 5, 1)            17           time_distributed_18[0][0]            
______________________________________________________________________________________________________________
flatten (Flatten)                   (None, 5)               0            dense_1[0][0]                        
______________________________________________________________________________________________________________
dense_2 (Dense)                     (None, 1)               6            flatten[0][0]                        
==============================================================================================================
Total params: 2,212,775
Trainable params: 2,201,861
Non-trainable params: 10,914
______________________________________________________________________________________________________________
2021-06-11 04:07:55.514649: I tensorflow/stream_executor/platform/default/dso_loader.cc:49] Successfully opened dynamic library libcudnn.so.8
…
