…
Model: "conv2d"
______________________________________________________________________________________________________________
Layer (type)                        Output Shape            Param #      Connected to                         
==============================================================================================================
input_1 (InputLayer)                [(None, 1250, 128, 1)]  0                                                 
______________________________________________________________________________________________________________
batch_normalization (BatchNormaliza (None, 1250, 128, 1)    4            input_1[0][0]                        
______________________________________________________________________________________________________________
conv2d (Conv2D)                     (None, 1250, 128, 16)   32           batch_normalization[0][0]            
______________________________________________________________________________________________________________
conv2d_2 (Conv2D)                   (None, 1250, 128, 16)   32           batch_normalization[0][0]            
______________________________________________________________________________________________________________
max_pooling2d (MaxPooling2D)        (None, 1250, 128, 1)    0            batch_normalization[0][0]            
______________________________________________________________________________________________________________
conv2d_1 (Conv2D)                   (None, 1250, 128, 16)   2320         conv2d[0][0]                         
______________________________________________________________________________________________________________
conv2d_3 (Conv2D)                   (None, 1250, 128, 16)   6416         conv2d_2[0][0]                       
______________________________________________________________________________________________________________
conv2d_4 (Conv2D)                   (None, 1250, 128, 16)   32           max_pooling2d[0][0]                  
______________________________________________________________________________________________________________
concatenate (Concatenate)           (None, 1250, 128, 48)   0            conv2d_1[0][0]                       
                                                                         conv2d_3[0][0]                       
                                                                         conv2d_4[0][0]                       
______________________________________________________________________________________________________________
average_pooling2d (AveragePooling2D (None, 625, 64, 48)     0            concatenate[0][0]                    
______________________________________________________________________________________________________________
batch_normalization_1 (BatchNormali (None, 625, 64, 48)     192          average_pooling2d[0][0]              
______________________________________________________________________________________________________________
dropout (Dropout)                   (None, 625, 64, 48)     0            batch_normalization_1[0][0]          
______________________________________________________________________________________________________________
inverted_residual (InvertedResidual (None, 625, 64, 48)     40512        dropout[0][0]                        
______________________________________________________________________________________________________________
inverted_residual_1 (InvertedResidu (None, 625, 64, 48)     40512        inverted_residual[0][0]              
______________________________________________________________________________________________________________
average_pooling2d_1 (AveragePooling (None, 313, 32, 48)     0            inverted_residual_1[0][0]            
______________________________________________________________________________________________________________
batch_normalization_2 (BatchNormali (None, 313, 32, 48)     192          average_pooling2d_1[0][0]            
______________________________________________________________________________________________________________
dropout_1 (Dropout)                 (None, 313, 32, 48)     0            batch_normalization_2[0][0]          
______________________________________________________________________________________________________________
time_distributed (TimeDistributed)  (None, 313, 48)         0            dropout_1[0][0]                      
______________________________________________________________________________________________________________
bidirectional (Bidirectional)       (None, 313, 256)        181248       time_distributed[0][0]               
______________________________________________________________________________________________________________
bidirectional_1 (Bidirectional)     (None, 313, 256)        394240       bidirectional[0][0]                  
______________________________________________________________________________________________________________
dense (Dense)                       (None, 313, 128)        32896        bidirectional_1[0][0]                
______________________________________________________________________________________________________________
dense_1 (Dense)                     (None, 313, 1)          129          dense[0][0]                          
______________________________________________________________________________________________________________
flatten (Flatten)                   (None, 313)             0            dense_1[0][0]                        
______________________________________________________________________________________________________________
dense_2 (Dense)                     (None, 1)               314          flatten[0][0]                        
==============================================================================================================
Total params: 699,071
Trainable params: 696,381
Non-trainable params: 2,690
______________________________________________________________________________________________________________
Epoch 1/65
154/154 - 190s - loss: 0.8055 - accuracy: 0.2356 - val_loss: 0.5147 - val_accuracy: 0.9332
…
