…
Size of training set: 13917
Size of validation set: 3479
Model: "conv2d"
__________________________________________________________________________________________________
Layer (type)                    Output Shape         Param #     Connected to                     
==================================================================================================
input_1 (InputLayer)            [(None, 128, 1250, 3 0                                            
__________________________________________________________________________________________________
batch_normalization (BatchNorma (None, 128, 1250, 3) 12          input_1[0][0]                    
__________________________________________________________________________________________________
conv2d (Conv2D)                 (None, 128, 1250, 8) 32          batch_normalization[0][0]        
__________________________________________________________________________________________________
conv2d_2 (Conv2D)               (None, 128, 1250, 8) 32          batch_normalization[0][0]        
__________________________________________________________________________________________________
max_pooling2d (MaxPooling2D)    (None, 128, 1250, 3) 0           batch_normalization[0][0]        
__________________________________________________________________________________________________
conv2d_1 (Conv2D)               (None, 128, 1250, 8) 584         conv2d[0][0]                     
__________________________________________________________________________________________________
conv2d_3 (Conv2D)               (None, 128, 1250, 8) 1608        conv2d_2[0][0]                   
__________________________________________________________________________________________________
conv2d_4 (Conv2D)               (None, 128, 1250, 8) 32          max_pooling2d[0][0]              
__________________________________________________________________________________________________
concatenate (Concatenate)       (None, 128, 1250, 24 0           conv2d_1[0][0]                   
                                                                 conv2d_3[0][0]                   
                                                                 conv2d_4[0][0]                   
__________________________________________________________________________________________________
average_pooling2d (AveragePooli (None, 64, 625, 24)  0           concatenate[0][0]                
__________________________________________________________________________________________________
batch_normalization_1 (BatchNor (None, 64, 625, 24)  96          average_pooling2d[0][0]          
__________________________________________________________________________________________________
conv2d_5 (Conv2D)               (None, 64, 625, 16)  400         batch_normalization_1[0][0]      
__________________________________________________________________________________________________
conv2d_7 (Conv2D)               (None, 64, 625, 16)  400         batch_normalization_1[0][0]      
__________________________________________________________________________________________________
max_pooling2d_1 (MaxPooling2D)  (None, 64, 625, 24)  0           batch_normalization_1[0][0]      
__________________________________________________________________________________________________
conv2d_6 (Conv2D)               (None, 64, 625, 16)  2320        conv2d_5[0][0]                   
__________________________________________________________________________________________________
conv2d_8 (Conv2D)               (None, 64, 625, 16)  6416        conv2d_7[0][0]                   
__________________________________________________________________________________________________
conv2d_9 (Conv2D)               (None, 64, 625, 16)  400         max_pooling2d_1[0][0]            
__________________________________________________________________________________________________
concatenate_1 (Concatenate)     (None, 64, 625, 48)  0           conv2d_6[0][0]                   
                                                                 conv2d_8[0][0]                   
                                                                 conv2d_9[0][0]                   
__________________________________________________________________________________________________
average_pooling2d_1 (AveragePoo (None, 32, 313, 48)  0           concatenate_1[0][0]              
__________________________________________________________________________________________________
batch_normalization_2 (BatchNor (None, 32, 313, 48)  192         average_pooling2d_1[0][0]        
__________________________________________________________________________________________________
conv2d_10 (Conv2D)              (None, 32, 313, 32)  1568        batch_normalization_2[0][0]      
__________________________________________________________________________________________________
conv2d_12 (Conv2D)              (None, 32, 313, 32)  1568        batch_normalization_2[0][0]      
__________________________________________________________________________________________________
max_pooling2d_2 (MaxPooling2D)  (None, 32, 313, 48)  0           batch_normalization_2[0][0]      
__________________________________________________________________________________________________
conv2d_11 (Conv2D)              (None, 32, 313, 32)  9248        conv2d_10[0][0]                  
__________________________________________________________________________________________________
conv2d_13 (Conv2D)              (None, 32, 313, 32)  25632       conv2d_12[0][0]                  
__________________________________________________________________________________________________
conv2d_14 (Conv2D)              (None, 32, 313, 32)  1568        max_pooling2d_2[0][0]            
__________________________________________________________________________________________________
concatenate_2 (Concatenate)     (None, 32, 313, 96)  0           conv2d_11[0][0]                  
                                                                 conv2d_13[0][0]                  
                                                                 conv2d_14[0][0]                  
__________________________________________________________________________________________________
average_pooling2d_2 (AveragePoo (None, 16, 157, 96)  0           concatenate_2[0][0]              
__________________________________________________________________________________________________
batch_normalization_3 (BatchNor (None, 16, 157, 96)  384         average_pooling2d_2[0][0]        
__________________________________________________________________________________________________
conv2d_15 (Conv2D)              (None, 16, 157, 64)  6208        batch_normalization_3[0][0]      
__________________________________________________________________________________________________
conv2d_17 (Conv2D)              (None, 16, 157, 64)  6208        batch_normalization_3[0][0]      
__________________________________________________________________________________________________
max_pooling2d_3 (MaxPooling2D)  (None, 16, 157, 96)  0           batch_normalization_3[0][0]      
__________________________________________________________________________________________________
conv2d_16 (Conv2D)              (None, 16, 157, 64)  36928       conv2d_15[0][0]                  
__________________________________________________________________________________________________2021-03-08 11:33:30.451275: I tensorflow/core/profiler/lib/profiler_session.cc:136] Profiler session initializing.
2021-03-08 11:33:30.451314: I tensorflow/core/profiler/lib/profiler_session.cc:155] Profiler session started.
2021-03-08 11:33:30.451349: I tensorflow/core/profiler/internal/gpu/cupti_tracer.cc:1365] Profiler found 1 GPUs
…
2021-03-08 11:33:30.969568: I tensorflow/compiler/mlir/mlir_graph_optimization_pass.cc:116] None of the MLIR optimization passes are enabled (registered 2)
2021-03-08 11:33:30.971172: I tensorflow/core/platform/profile_utils/cpu_utils.cc:112] CPU Frequency: 2299995000 Hz
2021-03-08 11:33:33.094261: I tensorflow/stream_executor/platform/default/dso_loader.cc:49] Successfully opened dynamic library libcublas.so.11
2021-03-08 11:33:33.436716: I tensorflow/stream_executor/platform/default/dso_loader.cc:49] Successfully opened dynamic library libcublasLt.so.11
2021-03-08 11:33:33.913940: I tensorflow/stream_executor/platform/default/dso_loader.cc:49] Successfully opened dynamic library libcudnn.so.8

conv2d_18 (Conv2D)              (None, 16, 157, 64)  102464      conv2d_17[0][0]                  
__________________________________________________________________________________________________
conv2d_19 (Conv2D)              (None, 16, 157, 64)  6208        max_pooling2d_3[0][0]            
__________________________________________________________________________________________________
concatenate_3 (Concatenate)     (None, 16, 157, 192) 0           conv2d_16[0][0]                  
                                                                 conv2d_18[0][0]                  
                                                                 conv2d_19[0][0]                  
__________________________________________________________________________________________________
average_pooling2d_3 (AveragePoo (None, 8, 79, 192)   0           concatenate_3[0][0]              
__________________________________________________________________________________________________
batch_normalization_4 (BatchNor (None, 8, 79, 192)   768         average_pooling2d_3[0][0]        
__________________________________________________________________________________________________
conv2d_20 (Conv2D)              (None, 8, 79, 128)   24704       batch_normalization_4[0][0]      
__________________________________________________________________________________________________
conv2d_22 (Conv2D)              (None, 8, 79, 128)   24704       batch_normalization_4[0][0]      
__________________________________________________________________________________________________
max_pooling2d_4 (MaxPooling2D)  (None, 8, 79, 192)   0           batch_normalization_4[0][0]      
__________________________________________________________________________________________________
conv2d_21 (Conv2D)              (None, 8, 79, 128)   147584      conv2d_20[0][0]                  
__________________________________________________________________________________________________
conv2d_23 (Conv2D)              (None, 8, 79, 128)   409728      conv2d_22[0][0]                  
__________________________________________________________________________________________________
conv2d_24 (Conv2D)              (None, 8, 79, 128)   24704       max_pooling2d_4[0][0]            
__________________________________________________________________________________________________
concatenate_4 (Concatenate)     (None, 8, 79, 384)   0           conv2d_21[0][0]                  
                                                                 conv2d_23[0][0]                  
                                                                 conv2d_24[0][0]                  
__________________________________________________________________________________________________
average_pooling2d_4 (AveragePoo (None, 4, 40, 384)   0           concatenate_4[0][0]              
__________________________________________________________________________________________________
batch_normalization_5 (BatchNor (None, 4, 40, 384)   1536        average_pooling2d_4[0][0]        
__________________________________________________________________________________________________
conv2d_25 (Conv2D)              (None, 4, 40, 256)   98560       batch_normalization_5[0][0]      
__________________________________________________________________________________________________
conv2d_27 (Conv2D)              (None, 4, 40, 256)   98560       batch_normalization_5[0][0]      
__________________________________________________________________________________________________
max_pooling2d_5 (MaxPooling2D)  (None, 4, 40, 384)   0           batch_normalization_5[0][0]      
__________________________________________________________________________________________________
conv2d_26 (Conv2D)              (None, 4, 40, 256)   590080      conv2d_25[0][0]                  
__________________________________________________________________________________________________
conv2d_28 (Conv2D)              (None, 4, 40, 256)   1638656     conv2d_27[0][0]                  
__________________________________________________________________________________________________
conv2d_29 (Conv2D)              (None, 4, 40, 256)   98560       max_pooling2d_5[0][0]            
__________________________________________________________________________________________________
concatenate_5 (Concatenate)     (None, 4, 40, 768)   0           conv2d_26[0][0]                  
                                                                 conv2d_28[0][0]                  
                                                                 conv2d_29[0][0]                  
__________________________________________________________________________________________________
average_pooling2d_5 (AveragePoo (None, 2, 20, 768)   0           concatenate_5[0][0]              
__________________________________________________________________________________________________
batch_normalization_6 (BatchNor (None, 2, 20, 768)   3072        average_pooling2d_5[0][0]        
__________________________________________________________________________________________________
global_average_pooling2d (Globa (None, 768)          0           batch_normalization_6[0][0]      
__________________________________________________________________________________________________
dense (Dense)                   (None, 2)            1538        global_average_pooling2d[0][0]   
==================================================================================================
Total params: 3,373,262
Trainable params: 3,370,232
Non-trainable params: 3,030
__________________________________________________________________________________________________
Epoch 1/35
  1/580 [..............................] - ETA: 1:05:21 - loss: 0.6943 - calc_accuracy: 0.37502021-03-08 11:33:37.852510: I tensorflow/core/profiler/lib/profiler_session.cc:136] Profiler session initializing.
…
