…
Model Parameters: {'N_CLASSES': 2, 'SR': 8000, 'BATCH_SIZE': 32, 'LR': 0.001, 'SHAPE': (64, 1250, 3), 'WEIGHT_DECAY': 0.0001, 'LL2_REG': 0, 'EPSILON': 1e-07}
Learning Rate Parameters: {'factor': 0.5, 'patience': 5, 'min_lr': 1e-05}
Early Stopping Patience: 7
-----------------------
Size of training set: 13917
Size of validation set: 3479
Model: "conv2d"
__________________________________________________________________________________________________
Layer (type)                    Output Shape         Param #     Connected to                     
==================================================================================================
input_1 (InputLayer)            [(None, 64, 1250, 3) 0                                            
__________________________________________________________________________________________________
batch_normalization (BatchNorma (None, 64, 1250, 3)  12          input_1[0][0]                    
__________________________________________________________________________________________________
conv2d (Conv2D)                 (None, 64, 1250, 8)  32          batch_normalization[0][0]        
__________________________________________________________________________________________________
conv2d_2 (Conv2D)               (None, 64, 1250, 8)  32          batch_normalization[0][0]        
__________________________________________________________________________________________________
max_pooling2d (MaxPooling2D)    (None, 64, 1250, 3)  0           batch_normalization[0][0]        
__________________________________________________________________________________________________
conv2d_1 (Conv2D)               (None, 64, 1250, 8)  584         conv2d[0][0]                     
__________________________________________________________________________________________________
conv2d_3 (Conv2D)               (None, 64, 1250, 8)  1608        conv2d_2[0][0]                   
__________________________________________________________________________________________________
conv2d_4 (Conv2D)               (None, 64, 1250, 8)  32          max_pooling2d[0][0]              
__________________________________________________________________________________________________
concatenate (Concatenate)       (None, 64, 1250, 24) 0           conv2d_1[0][0]                   
                                                                 conv2d_3[0][0]                   
                                                                 conv2d_4[0][0]                   
__________________________________________________________________________________________________
average_pooling2d (AveragePooli (None, 32, 625, 24)  0           concatenate[0][0]                
__________________________________________________________________________________________________
batch_normalization_1 (BatchNor (None, 32, 625, 24)  96          average_pooling2d[0][0]          
__________________________________________________________________________________________________
conv2d_5 (Conv2D)               (None, 32, 625, 16)  400         batch_normalization_1[0][0]      
__________________________________________________________________________________________________
conv2d_7 (Conv2D)               (None, 32, 625, 16)  400         batch_normalization_1[0][0]      
__________________________________________________________________________________________________
max_pooling2d_1 (MaxPooling2D)  (None, 32, 625, 24)  0           batch_normalization_1[0][0]      
__________________________________________________________________________________________________
conv2d_6 (Conv2D)               (None, 32, 625, 16)  2320        conv2d_5[0][0]                   
__________________________________________________________________________________________________
conv2d_8 (Conv2D)               (None, 32, 625, 16)  6416        conv2d_7[0][0]                   
__________________________________________________________________________________________________
conv2d_9 (Conv2D)               (None, 32, 625, 16)  400         max_pooling2d_1[0][0]            
__________________________________________________________________________________________________
concatenate_1 (Concatenate)     (None, 32, 625, 48)  0           conv2d_6[0][0]                   
                                                                 conv2d_8[0][0]                   
                                                                 conv2d_9[0][0]                   
__________________________________________________________________________________________________
average_pooling2d_1 (AveragePoo (None, 16, 313, 48)  0           concatenate_1[0][0]              
__________________________________________________________________________________________________
batch_normalization_2 (BatchNor (None, 16, 313, 48)  192         average_pooling2d_1[0][0]        
__________________________________________________________________________________________________
conv2d_10 (Conv2D)              (None, 16, 313, 32)  1568        batch_normalization_2[0][0]      
__________________________________________________________________________________________________
conv2d_12 (Conv2D)              (None, 16, 313, 32)  1568        batch_normalization_2[0][0]      
__________________________________________________________________________________________________
max_pooling2d_2 (MaxPooling2D)  (None, 16, 313, 48)  0           batch_normalization_2[0][0]      
__________________________________________________________________________________________________
conv2d_11 (Conv2D)              (None, 16, 313, 32)  9248        conv2d_10[0][0]                  
__________________________________________________________________________________________________
conv2d_13 (Conv2D)              (None, 16, 313, 32)  25632       conv2d_12[0][0]                  
__________________________________________________________________________________________________
conv2d_14 (Conv2D)              (None, 16, 313, 32)  1568        max_pooling2d_2[0][0]            
__________________________________________________________________________________________________
concatenate_2 (Concatenate)     (None, 16, 313, 96)  0           conv2d_11[0][0]                  
                                                                 conv2d_13[0][0]                  
                                                                 conv2d_14[0][0]                  
__________________________________________________________________________________________________
average_pooling2d_2 (AveragePoo (None, 8, 157, 96)   0           concatenate_2[0][0]              
__________________________________________________________________________________________________
batch_normalization_3 (BatchNor (None, 8, 157, 96)   384         average_pooling2d_2[0][0]        
__________________________________________________________________________________________________
conv2d_15 (Conv2D)              (None, 8, 157, 64)   6208        batch_normalization_3[0][0]      
__________________________________________________________________________________________________
conv2d_17 (Conv2D)              (None, 8, 157, 64)   6208        batch_normalization_3[0][0]      
__________________________________________________________________________________________________
max_pooling2d_3 (MaxPooling2D)  (None, 8, 157, 96)   0           batch_normalization_3[0][0]      
__________________________________________________________________________________________________
conv2d_16 (Conv2D)              (None, 8, 157, 64)   36928       conv2d_15[0][0]                  
__________________________________________________________________________________________________2021-03-11 10:10:19.371385: I tensorflow/core/profiler/lib/profiler_session.cc:136] Profiler session initializing.
2021-03-11 10:10:19.371422: I tensorflow/core/profiler/lib/profiler_session.cc:155] Profiler session started.
2021-03-11 10:10:19.371460: I tensorflow/core/profiler/internal/gpu/cupti_tracer.cc:1365] Profiler found 1 GPUs
…
2021-03-11 10:10:31.184176: I tensorflow/core/profiler/lib/profiler_session.cc:155] Profiler session started.
2021-03-11 10:10:31.847907: I tensorflow/core/profiler/lib/profiler_session.cc:71] Profiler session collecting data.
2021-03-11 10:10:31.850895: I tensorflow/core/profiler/internal/gpu/cupti_tracer.cc:1487] CUPTI activity buffer flushed
2021-03-11 10:10:31.909823: I tensorflow/core/profiler/internal/gpu/cupti_collector.cc:228]  GpuTracer has collected 1641 callback api events and 1637 activity events. 
2021-03-11 10:10:31.969478: I tensorflow/core/profiler/lib/profiler_session.cc:172] Profiler session tear down.

conv2d_18 (Conv2D)              (None, 8, 157, 64)   102464      conv2d_17[0][0]                  
__________________________________________________________________________________________________
conv2d_19 (Conv2D)              (None, 8, 157, 64)   6208        max_pooling2d_3[0][0]            
__________________________________________________________________________________________________
concatenate_3 (Concatenate)     (None, 8, 157, 192)  0           conv2d_16[0][0]                  
                                                                 conv2d_18[0][0]                  
                                                                 conv2d_19[0][0]                  
__________________________________________________________________________________________________
average_pooling2d_3 (AveragePoo (None, 4, 79, 192)   0           concatenate_3[0][0]              
__________________________________________________________________________________________________
batch_normalization_4 (BatchNor (None, 4, 79, 192)   768         average_pooling2d_3[0][0]        
__________________________________________________________________________________________________
conv2d_20 (Conv2D)              (None, 4, 79, 128)   24704       batch_normalization_4[0][0]      
__________________________________________________________________________________________________
conv2d_22 (Conv2D)              (None, 4, 79, 128)   24704       batch_normalization_4[0][0]      
__________________________________________________________________________________________________
max_pooling2d_4 (MaxPooling2D)  (None, 4, 79, 192)   0           batch_normalization_4[0][0]      
__________________________________________________________________________________________________
conv2d_21 (Conv2D)              (None, 4, 79, 128)   147584      conv2d_20[0][0]                  
__________________________________________________________________________________________________
conv2d_23 (Conv2D)              (None, 4, 79, 128)   409728      conv2d_22[0][0]                  
__________________________________________________________________________________________________
conv2d_24 (Conv2D)              (None, 4, 79, 128)   24704       max_pooling2d_4[0][0]            
__________________________________________________________________________________________________
concatenate_4 (Concatenate)     (None, 4, 79, 384)   0           conv2d_21[0][0]                  
                                                                 conv2d_23[0][0]                  
                                                                 conv2d_24[0][0]                  
__________________________________________________________________________________________________
average_pooling2d_4 (AveragePoo (None, 2, 40, 384)   0           concatenate_4[0][0]              
__________________________________________________________________________________________________
batch_normalization_5 (BatchNor (None, 2, 40, 384)   1536        average_pooling2d_4[0][0]        
__________________________________________________________________________________________________
conv2d_25 (Conv2D)              (None, 2, 40, 256)   98560       batch_normalization_5[0][0]      
__________________________________________________________________________________________________
conv2d_27 (Conv2D)              (None, 2, 40, 256)   98560       batch_normalization_5[0][0]      
__________________________________________________________________________________________________
max_pooling2d_5 (MaxPooling2D)  (None, 2, 40, 384)   0           batch_normalization_5[0][0]      
__________________________________________________________________________________________________
conv2d_26 (Conv2D)              (None, 2, 40, 256)   590080      conv2d_25[0][0]                  
__________________________________________________________________________________________________
conv2d_28 (Conv2D)              (None, 2, 40, 256)   1638656     conv2d_27[0][0]                  
__________________________________________________________________________________________________
conv2d_29 (Conv2D)              (None, 2, 40, 256)   98560       max_pooling2d_5[0][0]            
__________________________________________________________________________________________________
concatenate_5 (Concatenate)     (None, 2, 40, 768)   0           conv2d_26[0][0]                  
                                                                 conv2d_28[0][0]                  
                                                                 conv2d_29[0][0]                  
__________________________________________________________________________________________________
average_pooling2d_5 (AveragePoo (None, 1, 20, 768)   0           concatenate_5[0][0]              
__________________________________________________________________________________________________
batch_normalization_6 (BatchNor (None, 1, 20, 768)   3072        average_pooling2d_5[0][0]        
__________________________________________________________________________________________________
global_average_pooling2d (Globa (None, 768)          0           batch_normalization_6[0][0]      
__________________________________________________________________________________________________
dense (Dense)                   (None, 2)            1538        global_average_pooling2d[0][0]   
==================================================================================================
Total params: 3,373,262
Trainable params: 3,370,232
Non-trainable params: 3,030
__________________________________________________________________________________________________
Epoch 1/35
435/435 - 393s - loss: 0.4105 - calc_accuracy: 0.6764 - val_loss: 0.4662 - val_calc_accuracy: 0.6520
…
