…
conv2d_4 (Conv2D)               (None, 128, 1250, 16 64          max_pooling2d[0][0]              
__________________________________________________________________________________________________
concatenate (Concatenate)       (None, 128, 1250, 48 0           conv2d_1[0][0]                   
                                                                 conv2d_3[0][0]                   
                                                                 conv2d_4[0][0]                   
__________________________________________________________________________________________________
average_pooling2d (AveragePooli (None, 64, 625, 48)  0           concatenate[0][0]                
__________________________________________________________________________________________________
batch_normalization_1 (BatchNor (None, 64, 625, 48)  192         average_pooling2d[0][0]          
__________________________________________________________________________________________________
dropout (Dropout)               (None, 64, 625, 48)  0           batch_normalization_1[0][0]      
__________________________________________________________________________________________________
inverted_residual (InvertedResi (None, 64, 625, 32)  35840       dropout[0][0]                    
__________________________________________________________________________________________________
inverted_residual_1 (InvertedRe (None, 64, 625, 32)  20864       inverted_residual[0][0]          
__________________________________________________________________________________________________
average_pooling2d_1 (AveragePoo (None, 32, 312, 32)  0           inverted_residual_1[0][0]        
__________________________________________________________________________________________________
batch_normalization_2 (BatchNor (None, 32, 312, 32)  128         average_pooling2d_1[0][0]        
__________________________________________________________________________________________________
dropout_1 (Dropout)             (None, 32, 312, 32)  0           batch_normalization_2[0][0]      
__________________________________________________________________________________________________
inverted_residual_2 (InvertedRe (None, 32, 312, 64)  27136       dropout_1[0][0]                  
__________________________________________________________________________________________________
inverted_residual_3 (InvertedRe (None, 32, 312, 64)  66304       inverted_residual_2[0][0]        
__________________________________________________________________________________________________
average_pooling2d_2 (AveragePoo (None, 16, 156, 64)  0           inverted_residual_3[0][0]        
__________________________________________________________________________________________________
batch_normalization_3 (BatchNor (None, 16, 156, 64)  256         average_pooling2d_2[0][0]        
__________________________________________________________________________________________________
dropout_2 (Dropout)             (None, 16, 156, 64)  0           batch_normalization_3[0][0]      
__________________________________________________________________________________________________
inverted_residual_4 (InvertedRe (None, 16, 156, 128) 91136       dropout_2[0][0]                  
__________________________________________________________________________________________________
inverted_residual_5 (InvertedRe (None, 16, 156, 128) 230912      inverted_residual_4[0][0]        
__________________________________________________________________________________________________
average_pooling2d_3 (AveragePoo (None, 8, 78, 128)   0           inverted_residual_5[0][0]        
__________________________________________________________________________________________________
batch_normalization_4 (BatchNor (None, 8, 78, 128)   512         average_pooling2d_3[0][0]        
__________________________________________________________________________________________________
dropout_3 (Dropout)             (None, 8, 78, 128)   0           batch_normalization_4[0][0]      
__________________________________________________________________________________________________
inverted_residual_6 (InvertedRe (None, 8, 78, 256)   329728      dropout_3[0][0]                  
__________________________________________________________________________________________________
inverted_residual_7 (InvertedRe (None, 8, 78, 256)   855040      inverted_residual_6[0][0]        
__________________________________________________________________________________________________
average_pooling2d_4 (AveragePoo (None, 4, 39, 256)   0           inverted_residual_7[0][0]        
__________________________________________________________________________________________________
batch_normalization_5 (BatchNor (None, 4, 39, 256)   1024        average_pooling2d_4[0][0]        
__________________________________________________________________________________________________
dropout_4 (Dropout)             (None, 4, 39, 256)   0           batch_normalization_5[0][0]      
__________________________________________________________________________________________________
inverted_residual_8 (InvertedRe (None, 4, 39, 512)   1249280     dropout_4[0][0]                  
__________________________________________________________________________________________________
inverted_residual_9 (InvertedRe (None, 4, 39, 512)   3282944     inverted_residual_8[0][0]        
__________________________________________________________________________________________________
global_average_pooling2d (Globa (None, 512)          0           inverted_residual_9[0][0]        
__________________________________________________________________________________________________
dense (Dense)                   (None, 2)            1026        global_average_pooling2d[0][0]   
==================================================================================================
Total params: 6,201,262
Trainable params: 6,159,752
Non-trainable params: 41,510
__________________________________________________________________________________________________
Model: "conv2d"
__________________________________________________________________________________________________
Layer (type)                    Output Shape         Param #     Connected to                     
==================================================================================================
input_2 (InputLayer)            [(None, 128, 1250, 3 0                                            
__________________________________________________________________________________________________
batch_normalization_6 (BatchNor (None, 128, 1250, 3) 12          input_2[0][0]                    
__________________________________________________________________________________________________
conv2d_5 (Conv2D)               (None, 128, 1250, 16 64          batch_normalization_6[0][0]      
__________________________________________________________________________________________________
conv2d_7 (Conv2D)               (None, 128, 1250, 16 64          batch_normalization_6[0][0]      
__________________________________________________________________________________________________
max_pooling2d_1 (MaxPooling2D)  (None, 128, 1250, 3) 0           batch_normalization_6[0][0]      
__________________________________________________________________________________________________
conv2d_6 (Conv2D)               (None, 128, 1250, 16 2320        conv2d_5[0][0]                   
__________________________________________________________________________________________________
conv2d_8 (Conv2D)               (None, 128, 1250, 16 6416        conv2d_7[0][0]                   
…
conv2d_9 (Conv2D)               (None, 128, 1250, 16 64          max_pooling2d_1[0][0]            
__________________________________________________________________________________________________
concatenate_1 (Concatenate)     (None, 128, 1250, 48 0           conv2d_6[0][0]                   
                                                                 conv2d_8[0][0]                   
                                                                 conv2d_9[0][0]                   
__________________________________________________________________________________________________
average_pooling2d_5 (AveragePoo (None, 64, 625, 48)  0           concatenate_1[0][0]              
__________________________________________________________________________________________________
batch_normalization_7 (BatchNor (None, 64, 625, 48)  192         average_pooling2d_5[0][0]        
__________________________________________________________________________________________________
dropout_5 (Dropout)             (None, 64, 625, 48)  0           batch_normalization_7[0][0]      
__________________________________________________________________________________________________
inverted_residual_10 (InvertedR (None, 64, 625, 32)  35840       dropout_5[0][0]                  
__________________________________________________________________________________________________
inverted_residual_11 (InvertedR (None, 64, 625, 32)  20864       inverted_residual_10[0][0]       
__________________________________________________________________________________________________
average_pooling2d_6 (AveragePoo (None, 32, 312, 32)  0           inverted_residual_11[0][0]       
__________________________________________________________________________________________________
batch_normalization_8 (BatchNor (None, 32, 312, 32)  128         average_pooling2d_6[0][0]        
__________________________________________________________________________________________________
dropout_6 (Dropout)             (None, 32, 312, 32)  0           batch_normalization_8[0][0]      
__________________________________________________________________________________________________
inverted_residual_12 (InvertedR (None, 32, 312, 64)  27136       dropout_6[0][0]                  
__________________________________________________________________________________________________
inverted_residual_13 (InvertedR (None, 32, 312, 64)  66304       inverted_residual_12[0][0]       
__________________________________________________________________________________________________
average_pooling2d_7 (AveragePoo (None, 16, 156, 64)  0           inverted_residual_13[0][0]       
__________________________________________________________________________________________________
batch_normalization_9 (BatchNor (None, 16, 156, 64)  256         average_pooling2d_7[0][0]        
__________________________________________________________________________________________________
dropout_7 (Dropout)             (None, 16, 156, 64)  0           batch_normalization_9[0][0]      
__________________________________________________________________________________________________
inverted_residual_14 (InvertedR (None, 16, 156, 128) 91136       dropout_7[0][0]                  
__________________________________________________________________________________________________
inverted_residual_15 (InvertedR (None, 16, 156, 128) 230912      inverted_residual_14[0][0]       
__________________________________________________________________________________________________
average_pooling2d_8 (AveragePoo (None, 8, 78, 128)   0           inverted_residual_15[0][0]       
__________________________________________________________________________________________________
batch_normalization_10 (BatchNo (None, 8, 78, 128)   512         average_pooling2d_8[0][0]        
__________________________________________________________________________________________________
dropout_8 (Dropout)             (None, 8, 78, 128)   0           batch_normalization_10[0][0]     
__________________________________________________________________________________________________
inverted_residual_16 (InvertedR (None, 8, 78, 256)   329728      dropout_8[0][0]                  
__________________________________________________________________________________________________
inverted_residual_17 (InvertedR (None, 8, 78, 256)   855040      inverted_residual_16[0][0]       
__________________________________________________________________________________________________
average_pooling2d_9 (AveragePoo (None, 4, 39, 256)   0           inverted_residual_17[0][0]       
__________________________________________________________________________________________________
batch_normalization_11 (BatchNo (None, 4, 39, 256)   1024        average_pooling2d_9[0][0]        
__________________________________________________________________________________________________
dropout_9 (Dropout)             (None, 4, 39, 256)   0           batch_normalization_11[0][0]     
__________________________________________________________________________________________________
inverted_residual_18 (InvertedR (None, 4, 39, 512)   1249280     dropout_9[0][0]                  
__________________________________________________________________________________________________
inverted_residual_19 (InvertedR (None, 4, 39, 512)   3282944     inverted_residual_18[0][0]       
__________________________________________________________________________________________________
global_average_pooling2d_1 (Glo (None, 512)          0           inverted_residual_19[0][0]       
__________________________________________________________________________________________________
dense_1 (Dense)                 (None, 2)            1026        global_average_pooling2d_1[0][0] 
==================================================================================================2021-03-18 18:42:54.326472: W tensorflow/core/grappler/optimizers/data/auto_shard.cc:656] In AUTO-mode, and switching to DATA-based sharding, instead of FILE-based sharding as we cannot find appropriate reader dataset op(s) to shard. Error: Found an unshardable source dataset: name: "TensorSliceDataset/_2"
…
