…
weights = {0: 0.6399045521292217, 1: 1.2145345596432553, 2: 1.1234209847898944, 3: 1.3816582117945466}
Model: "conv2d"
__________________________________________________________________________________________________
Layer (type)                    Output Shape         Param #     Connected to                     
==================================================================================================
input_1 (InputLayer)            [(None, 128, 1250, 3 0                                            
__________________________________________________________________________________________________
conv2d (Conv2D)                 (None, 128, 1250, 4) 16          input_1[0][0]                    
__________________________________________________________________________________________________
conv2d_2 (Conv2D)               (None, 128, 1250, 4) 16          input_1[0][0]                    
__________________________________________________________________________________________________
max_pooling2d (MaxPooling2D)    (None, 128, 1250, 3) 0           input_1[0][0]                    
__________________________________________________________________________________________________
conv2d_1 (Conv2D)               (None, 128, 1250, 4) 148         conv2d[0][0]                     
__________________________________________________________________________________________________
conv2d_3 (Conv2D)               (None, 128, 1250, 4) 404         conv2d_2[0][0]                   
__________________________________________________________________________________________________
conv2d_4 (Conv2D)               (None, 128, 1250, 4) 16          max_pooling2d[0][0]              
__________________________________________________________________________________________________
concatenate (Concatenate)       (None, 128, 1250, 12 0           conv2d_1[0][0]                   
                                                                 conv2d_3[0][0]                   
                                                                 conv2d_4[0][0]                   
__________________________________________________________________________________________________
conv2d_5 (Conv2D)               (None, 128, 1250, 12 156         concatenate[0][0]                
__________________________________________________________________________________________________
average_pooling2d (AveragePooli (None, 64, 625, 12)  0           conv2d_5[0][0]                   
__________________________________________________________________________________________________
batch_normalization (BatchNorma (None, 64, 625, 12)  48          average_pooling2d[0][0]          
__________________________________________________________________________________________________
conv2d_6 (Conv2D)               (None, 64, 625, 12)  1308        batch_normalization[0][0]        
__________________________________________________________________________________________________
conv2d_7 (Conv2D)               (None, 64, 625, 12)  156         conv2d_6[0][0]                   
__________________________________________________________________________________________________
mix_depth_group_convolution2d ( (None, 64, 625, 12)  288         conv2d_7[0][0]                   
__________________________________________________________________________________________________
conv2d_8 (Conv2D)               (None, 64, 625, 12)  1308        mix_depth_group_convolution2d[0][
__________________________________________________________________________________________________
conv2d_9 (Conv2D)               (None, 64, 625, 12)  156         conv2d_8[0][0]                   
__________________________________________________________________________________________________
average_pooling2d_1 (AveragePoo (None, 32, 313, 12)  0           conv2d_9[0][0]                   
__________________________________________________________________________________________________
batch_normalization_1 (BatchNor (None, 32, 313, 12)  48          average_pooling2d_1[0][0]        
__________________________________________________________________________________________________
conv2d_10 (Conv2D)              (None, 32, 313, 16)  1744        batch_normalization_1[0][0]      
__________________________________________________________________________________________________
conv2d_11 (Conv2D)              (None, 32, 313, 16)  272         conv2d_10[0][0]                  
__________________________________________________________________________________________________
mix_depth_group_convolution2d_1 (None, 32, 313, 16)  414         conv2d_11[0][0]                  
__________________________________________________________________________________________________
conv2d_12 (Conv2D)              (None, 32, 313, 16)  2320        mix_depth_group_convolution2d_1[0
__________________________________________________________________________________________________
conv2d_13 (Conv2D)              (None, 32, 313, 16)  272         conv2d_12[0][0]                  
__________________________________________________________________________________________________
average_pooling2d_2 (AveragePoo (None, 16, 157, 16)  0           conv2d_13[0][0]                  
__________________________________________________________________________________________________
batch_normalization_2 (BatchNor (None, 16, 157, 16)  64          average_pooling2d_2[0][0]        
__________________________________________________________________________________________________
conv2d_14 (Conv2D)              (None, 16, 157, 32)  4640        batch_normalization_2[0][0]      
__________________________________________________________________________________________________
conv2d_15 (Conv2D)              (None, 16, 157, 32)  1056        conv2d_14[0][0]                  
__________________________________________________________________________________________________
mix_depth_group_convolution2d_2 (None, 16, 157, 32)  828         conv2d_15[0][0]                  
__________________________________________________________________________________________________
conv2d_16 (Conv2D)              (None, 16, 157, 32)  9248        mix_depth_group_convolution2d_2[0
__________________________________________________________________________________________________
conv2d_17 (Conv2D)              (None, 16, 157, 32)  1056        conv2d_16[0][0]                  
__________________________________________________________________________________________________
average_pooling2d_3 (AveragePoo (None, 8, 79, 32)    0           conv2d_17[0][0]                  
__________________________________________________________________________________________________
batch_normalization_3 (BatchNor (None, 8, 79, 32)    128         average_pooling2d_3[0][0]        
__________________________________________________________________________________________________
conv2d_18 (Conv2D)              (None, 8, 79, 64)    18496       batch_normalization_3[0][0]      
__________________________________________________________________________________________________
conv2d_19 (Conv2D)              (None, 8, 79, 64)    4160        conv2d_18[0][0]                  
__________________________________________________________________________________________________
mix_depth_group_convolution2d_3 (None, 8, 79, 64)    1656        conv2d_19[0][0]                  2021-04-07 10:20:04.147938: I tensorflow/compiler/mlir/mlir_graph_optimization_pass.cc:116] None of the MLIR optimization passes are enabled (registered 2)
2021-04-07 10:20:04.150088: I tensorflow/core/platform/profile_utils/cpu_utils.cc:112] CPU Frequency: 2299995000 Hz
2021-04-07 10:20:06.670616: I tensorflow/stream_executor/platform/default/dso_loader.cc:49] Successfully opened dynamic library libcublas.so.11
…
2021-04-07 10:20:10.684119: I tensorflow/core/profiler/lib/profiler_session.cc:71] Profiler session collecting data.
2021-04-07 10:20:10.688798: I tensorflow/core/profiler/internal/gpu/cupti_tracer.cc:1487] CUPTI activity buffer flushed
2021-04-07 10:20:10.725742: I tensorflow/core/profiler/internal/gpu/cupti_collector.cc:228]  GpuTracer has collected 904 callback api events and 900 activity events. 
2021-04-07 10:20:10.749806: I tensorflow/core/profiler/lib/profiler_session.cc:172] Profiler session tear down.

__________________________________________________________________________________________________
conv2d_20 (Conv2D)              (None, 8, 79, 64)    36928       mix_depth_group_convolution2d_3[0
__________________________________________________________________________________________________
conv2d_21 (Conv2D)              (None, 8, 79, 64)    4160        conv2d_20[0][0]                  
__________________________________________________________________________________________________
average_pooling2d_4 (AveragePoo (None, 4, 40, 64)    0           conv2d_21[0][0]                  
__________________________________________________________________________________________________
batch_normalization_4 (BatchNor (None, 4, 40, 64)    256         average_pooling2d_4[0][0]        
__________________________________________________________________________________________________
conv2d_22 (Conv2D)              (None, 4, 40, 128)   73856       batch_normalization_4[0][0]      
__________________________________________________________________________________________________
conv2d_23 (Conv2D)              (None, 4, 40, 128)   16512       conv2d_22[0][0]                  
__________________________________________________________________________________________________
mix_depth_group_convolution2d_4 (None, 4, 40, 128)   3402        conv2d_23[0][0]                  
__________________________________________________________________________________________________
conv2d_24 (Conv2D)              (None, 4, 40, 128)   147584      mix_depth_group_convolution2d_4[0
__________________________________________________________________________________________________
conv2d_25 (Conv2D)              (None, 4, 40, 128)   16512       conv2d_24[0][0]                  
__________________________________________________________________________________________________
average_pooling2d_5 (AveragePoo (None, 2, 20, 128)   0           conv2d_25[0][0]                  
__________________________________________________________________________________________________
batch_normalization_5 (BatchNor (None, 2, 20, 128)   512         average_pooling2d_5[0][0]        
__________________________________________________________________________________________________
global_average_pooling2d (Globa (None, 128)          0           batch_normalization_5[0][0]      
__________________________________________________________________________________________________
dense (Dense)                   (None, 2)            258         global_average_pooling2d[0][0]   
==================================================================================================
Total params: 350,402
Trainable params: 349,874
Non-trainable params: 528
__________________________________________________________________________________________________
Epoch 1/40
872/872 - 324s - loss: 0.3390 - calc_accuracy: 0.6227 - val_loss: 0.6123 - val_calc_accuracy: 0.5614
…
