…
conv2d_4 (Conv2D)               (None, 128, 1250, 16 64          max_pooling2d[0][0]              
__________________________________________________________________________________________________
concatenate (Concatenate)       (None, 128, 1250, 48 0           conv2d_1[0][0]                   
                                                                 conv2d_3[0][0]                   
                                                                 conv2d_4[0][0]                   
__________________________________________________________________________________________________
average_pooling2d (AveragePooli (None, 64, 625, 48)  0           concatenate[0][0]                
__________________________________________________________________________________________________
batch_normalization_1 (BatchNor (None, 64, 625, 48)  192         average_pooling2d[0][0]          
__________________________________________________________________________________________________
dropout (Dropout)               (None, 64, 625, 48)  0           batch_normalization_1[0][0]      
__________________________________________________________________________________________________
inverted_residual (InvertedResi (None, 64, 625, 32)  35840       dropout[0][0]                    
__________________________________________________________________________________________________
inverted_residual_1 (InvertedRe (None, 64, 625, 32)  20864       inverted_residual[0][0]          
__________________________________________________________________________________________________
average_pooling2d_1 (AveragePoo (None, 32, 312, 32)  0           inverted_residual_1[0][0]        
__________________________________________________________________________________________________
batch_normalization_2 (BatchNor (None, 32, 312, 32)  128         average_pooling2d_1[0][0]        
__________________________________________________________________________________________________
dropout_1 (Dropout)             (None, 32, 312, 32)  0           batch_normalization_2[0][0]      
__________________________________________________________________________________________________
inverted_residual_2 (InvertedRe (None, 32, 312, 64)  27136       dropout_1[0][0]                  
__________________________________________________________________________________________________
inverted_residual_3 (InvertedRe (None, 32, 312, 64)  66304       inverted_residual_2[0][0]        
__________________________________________________________________________________________________
average_pooling2d_2 (AveragePoo (None, 16, 156, 64)  0           inverted_residual_3[0][0]        
__________________________________________________________________________________________________
batch_normalization_3 (BatchNor (None, 16, 156, 64)  256         average_pooling2d_2[0][0]        
__________________________________________________________________________________________________
dropout_2 (Dropout)             (None, 16, 156, 64)  0           batch_normalization_3[0][0]      
__________________________________________________________________________________________________
inverted_residual_4 (InvertedRe (None, 16, 156, 128) 91136       dropout_2[0][0]                  
__________________________________________________________________________________________________
inverted_residual_5 (InvertedRe (None, 16, 156, 128) 230912      inverted_residual_4[0][0]        
__________________________________________________________________________________________________
average_pooling2d_3 (AveragePoo (None, 8, 78, 128)   0           inverted_residual_5[0][0]        
__________________________________________________________________________________________________
batch_normalization_4 (BatchNor (None, 8, 78, 128)   512         average_pooling2d_3[0][0]        
__________________________________________________________________________________________________
dropout_3 (Dropout)             (None, 8, 78, 128)   0           batch_normalization_4[0][0]      
__________________________________________________________________________________________________
inverted_residual_6 (InvertedRe (None, 8, 78, 256)   329728      dropout_3[0][0]                  
__________________________________________________________________________________________________
inverted_residual_7 (InvertedRe (None, 8, 78, 256)   855040      inverted_residual_6[0][0]        
__________________________________________________________________________________________________
average_pooling2d_4 (AveragePoo (None, 4, 39, 256)   0           inverted_residual_7[0][0]        
__________________________________________________________________________________________________
batch_normalization_5 (BatchNor (None, 4, 39, 256)   1024        average_pooling2d_4[0][0]        
__________________________________________________________________________________________________
dropout_4 (Dropout)             (None, 4, 39, 256)   0           batch_normalization_5[0][0]      
__________________________________________________________________________________________________
inverted_residual_8 (InvertedRe (None, 4, 39, 512)   1249280     dropout_4[0][0]                  
__________________________________________________________________________________________________
inverted_residual_9 (InvertedRe (None, 4, 39, 512)   3282944     inverted_residual_8[0][0]        
__________________________________________________________________________________________________
global_average_pooling2d (Globa (None, 512)          0           inverted_residual_9[0][0]        2021-04-13 01:27:27.493498: I tensorflow/compiler/mlir/mlir_graph_optimization_pass.cc:116] None of the MLIR optimization passes are enabled (registered 2)
2021-04-13 01:27:27.495701: I tensorflow/core/platform/profile_utils/cpu_utils.cc:112] CPU Frequency: 2299995000 Hz
2021-04-13 01:27:31.477590: I tensorflow/stream_executor/platform/default/dso_loader.cc:49] Successfully opened dynamic library libcublas.so.11
…
conv2d_9 (Conv2D)               (None, 128, 1250, 16 64          max_pooling2d_1[0][0]            
__________________________________________________________________________________________________
concatenate_1 (Concatenate)     (None, 128, 1250, 48 0           conv2d_6[0][0]                   
                                                                 conv2d_8[0][0]                   
                                                                 conv2d_9[0][0]                   
__________________________________________________________________________________________________
average_pooling2d_5 (AveragePoo (None, 64, 625, 48)  0           concatenate_1[0][0]              
__________________________________________________________________________________________________
batch_normalization_7 (BatchNor (None, 64, 625, 48)  192         average_pooling2d_5[0][0]        
__________________________________________________________________________________________________
dropout_5 (Dropout)             (None, 64, 625, 48)  0           batch_normalization_7[0][0]      
__________________________________________________________________________________________________
inverted_residual_10 (InvertedR (None, 64, 625, 32)  35840       dropout_5[0][0]                  
__________________________________________________________________________________________________
inverted_residual_11 (InvertedR (None, 64, 625, 32)  20864       inverted_residual_10[0][0]       
__________________________________________________________________________________________________
average_pooling2d_6 (AveragePoo (None, 32, 312, 32)  0           inverted_residual_11[0][0]       
__________________________________________________________________________________________________
batch_normalization_8 (BatchNor (None, 32, 312, 32)  128         average_pooling2d_6[0][0]        
__________________________________________________________________________________________________
dropout_6 (Dropout)             (None, 32, 312, 32)  0           batch_normalization_8[0][0]      
__________________________________________________________________________________________________
inverted_residual_12 (InvertedR (None, 32, 312, 64)  27136       dropout_6[0][0]                  
__________________________________________________________________________________________________
inverted_residual_13 (InvertedR (None, 32, 312, 64)  66304       inverted_residual_12[0][0]       
__________________________________________________________________________________________________
average_pooling2d_7 (AveragePoo (None, 16, 156, 64)  0           inverted_residual_13[0][0]       
__________________________________________________________________________________________________
batch_normalization_9 (BatchNor (None, 16, 156, 64)  256         average_pooling2d_7[0][0]        
__________________________________________________________________________________________________
dropout_7 (Dropout)             (None, 16, 156, 64)  0           batch_normalization_9[0][0]      
__________________________________________________________________________________________________
inverted_residual_14 (InvertedR (None, 16, 156, 128) 91136       dropout_7[0][0]                  
__________________________________________________________________________________________________
inverted_residual_15 (InvertedR (None, 16, 156, 128) 230912      inverted_residual_14[0][0]       
__________________________________________________________________________________________________
average_pooling2d_8 (AveragePoo (None, 8, 78, 128)   0           inverted_residual_15[0][0]       
__________________________________________________________________________________________________
batch_normalization_10 (BatchNo (None, 8, 78, 128)   512         average_pooling2d_8[0][0]        
__________________________________________________________________________________________________
dropout_8 (Dropout)             (None, 8, 78, 128)   0           batch_normalization_10[0][0]     
__________________________________________________________________________________________________
inverted_residual_16 (InvertedR (None, 8, 78, 256)   329728      dropout_8[0][0]                  
__________________________________________________________________________________________________
inverted_residual_17 (InvertedR (None, 8, 78, 256)   855040      inverted_residual_16[0][0]       
__________________________________________________________________________________________________
average_pooling2d_9 (AveragePoo (None, 4, 39, 256)   0           inverted_residual_17[0][0]       
__________________________________________________________________________________________________
batch_normalization_11 (BatchNo (None, 4, 39, 256)   1024        average_pooling2d_9[0][0]        
__________________________________________________________________________________________________
dropout_9 (Dropout)             (None, 4, 39, 256)   0           batch_normalization_11[0][0]     
__________________________________________________________________________________________________
inverted_residual_18 (InvertedR (None, 4, 39, 512)   1249280     dropout_9[0][0]                  
__________________________________________________________________________________________________
inverted_residual_19 (InvertedR (None, 4, 39, 512)   3282944     inverted_residual_18[0][0]       
__________________________________________________________________________________________________
global_average_pooling2d_1 (Glo (None, 512)          0           inverted_residual_19[0][0]       
__________________________________________________________________________________________________
dense_1 (Dense)                 (None, 1)            513         global_average_pooling2d_1[0][0] 
==================================================================================================
Total params: 6,200,749
Trainable params: 6,159,239
Non-trainable params: 41,510
__________________________________________________________________________________________________
Epoch 1/40
270/270 - 222s - loss: 0.7525 - accuracy: 0.5350 - val_loss: 1.8400 - val_accuracy: 0.2746
…
