…
Learning Rate Parameters: {'factor': 0.75, 'patience': 4, 'min_lr': 1e-05}
Early Stopping Patience and Delta: 15, 1.0%
-----------------------
Size of training set: 4316
Size of validation set: 1078
Initializing weights...
weights = {0: 0.6776381909547738, 1: 1.9073550212164074}
Model: "conv2d"
_________________________________________________________________
Layer (type)                 Output Shape              Param #   
=================================================================
input_1 (InputLayer)         [(None, 128, 1250, 3)]    0         
_________________________________________________________________
batch_normalization (BatchNo (None, 128, 1250, 3)      12        
_________________________________________________________________
conv2d (Conv2D)              (None, 128, 1250, 4)      16        
_________________________________________________________________
conv2d_1 (Conv2D)            (None, 128, 1250, 8)      1160      
_________________________________________________________________
conv2d_2 (Conv2D)            (None, 128, 1250, 16)     144       
_________________________________________________________________
average_pooling2d (AveragePo (None, 64, 625, 16)       0         
_________________________________________________________________
dropout (Dropout)            (None, 64, 625, 16)       0         
_________________________________________________________________
batch_normalization_1 (Batch (None, 64, 625, 16)       64        
_________________________________________________________________
conv2d_3 (Conv2D)            (None, 64, 625, 16)       9232      
_________________________________________________________________
conv2d_4 (Conv2D)            (None, 64, 625, 32)       544       
_________________________________________________________________
average_pooling2d_1 (Average (None, 32, 313, 32)       0         
_________________________________________________________________
dropout_1 (Dropout)          (None, 32, 313, 32)       0         
_________________________________________________________________
batch_normalization_2 (Batch (None, 32, 313, 32)       128       
_________________________________________________________________
conv2d_5 (Conv2D)            (None, 32, 313, 32)       36896     
_________________________________________________________________
conv2d_6 (Conv2D)            (None, 32, 313, 64)       2112      
_________________________________________________________________
average_pooling2d_2 (Average (None, 16, 157, 64)       0         
_________________________________________________________________
dropout_2 (Dropout)          (None, 16, 157, 64)       0         
_________________________________________________________________
batch_normalization_3 (Batch (None, 16, 157, 64)       256       
_________________________________________________________________
conv2d_7 (Conv2D)            (None, 16, 157, 64)       147520    
_________________________________________________________________
conv2d_8 (Conv2D)            (None, 16, 157, 128)      8320      
_________________________________________________________________
average_pooling2d_3 (Average (None, 8, 79, 128)        0         
_________________________________________________________________
dropout_3 (Dropout)          (None, 8, 79, 128)        0         
_________________________________________________________________
batch_normalization_4 (Batch (None, 8, 79, 128)        512       
_________________________________________________________________
conv2d_9 (Conv2D)            (None, 8, 79, 128)        589952    
_________________________________________________________________
conv2d_10 (Conv2D)           (None, 8, 79, 256)        33024     
_________________________________________________________________
average_pooling2d_4 (Average (None, 4, 40, 256)        0         
_________________________________________________________________
dropout_4 (Dropout)          (None, 4, 40, 256)        0         
_________________________________________________________________
batch_normalization_5 (Batch (None, 4, 40, 256)        1024      
_________________________________________________________________
conv2d_11 (Conv2D)           (None, 4, 40, 256)        65792     
_________________________________________________________________
conv2d_12 (Conv2D)           (None, 4, 40, 512)        1180160   
_________________________________________________________________
conv2d_13 (Conv2D)           (None, 4, 40, 512)        2359808   
_________________________________________________________________
global_average_pooling2d (Gl (None, 512)               0         
_________________________________________________________________
dense (Dense)                (None, 1)                 513       
=================================================================
Total params: 4,437,189
Trainable params: 4,436,191
Non-trainable params: 998
_________________________________________________________________
Epoch 1/40
270/270 - 88s - loss: 0.7043 - accuracy: 0.4750 - val_loss: 0.6903 - val_accuracy: 0.7282
Epoch 2/40
270/270 - 83s - loss: 0.6887 - accuracy: 0.6515 - val_loss: 0.6922 - val_accuracy: 0.5668
…
conv2d_18 (Conv2D)              (None, 128, 1250, 16 64          max_pooling2d[0][0]              
__________________________________________________________________________________________________
concatenate (Concatenate)       (None, 128, 1250, 48 0           conv2d_15[0][0]                  
                                                                 conv2d_17[0][0]                  
                                                                 conv2d_18[0][0]                  
__________________________________________________________________________________________________
average_pooling2d_5 (AveragePoo (None, 64, 625, 48)  0           concatenate[0][0]                
__________________________________________________________________________________________________
batch_normalization_7 (BatchNor (None, 64, 625, 48)  192         average_pooling2d_5[0][0]        
__________________________________________________________________________________________________
dropout_5 (Dropout)             (None, 64, 625, 48)  0           batch_normalization_7[0][0]      
__________________________________________________________________________________________________
inverted_residual (InvertedResi (None, 64, 625, 32)  35840       dropout_5[0][0]                  
__________________________________________________________________________________________________
inverted_residual_1 (InvertedRe (None, 64, 625, 32)  20864       inverted_residual[0][0]          
__________________________________________________________________________________________________
average_pooling2d_6 (AveragePoo (None, 32, 312, 32)  0           inverted_residual_1[0][0]        
__________________________________________________________________________________________________
batch_normalization_8 (BatchNor (None, 32, 312, 32)  128         average_pooling2d_6[0][0]        
__________________________________________________________________________________________________
dropout_6 (Dropout)             (None, 32, 312, 32)  0           batch_normalization_8[0][0]      
__________________________________________________________________________________________________
inverted_residual_2 (InvertedRe (None, 32, 312, 64)  27136       dropout_6[0][0]                  
__________________________________________________________________________________________________
inverted_residual_3 (InvertedRe (None, 32, 312, 64)  66304       inverted_residual_2[0][0]        
__________________________________________________________________________________________________
average_pooling2d_7 (AveragePoo (None, 16, 156, 64)  0           inverted_residual_3[0][0]        
__________________________________________________________________________________________________
batch_normalization_9 (BatchNor (None, 16, 156, 64)  256         average_pooling2d_7[0][0]        
__________________________________________________________________________________________________
dropout_7 (Dropout)             (None, 16, 156, 64)  0           batch_normalization_9[0][0]      
__________________________________________________________________________________________________
inverted_residual_4 (InvertedRe (None, 16, 156, 128) 91136       dropout_7[0][0]                  
__________________________________________________________________________________________________
inverted_residual_5 (InvertedRe (None, 16, 156, 128) 230912      inverted_residual_4[0][0]        
__________________________________________________________________________________________________
average_pooling2d_8 (AveragePoo (None, 8, 78, 128)   0           inverted_residual_5[0][0]        
__________________________________________________________________________________________________
batch_normalization_10 (BatchNo (None, 8, 78, 128)   512         average_pooling2d_8[0][0]        
__________________________________________________________________________________________________
dropout_8 (Dropout)             (None, 8, 78, 128)   0           batch_normalization_10[0][0]     
__________________________________________________________________________________________________
inverted_residual_6 (InvertedRe (None, 8, 78, 256)   329728      dropout_8[0][0]                  
__________________________________________________________________________________________________
inverted_residual_7 (InvertedRe (None, 8, 78, 256)   855040      inverted_residual_6[0][0]        
__________________________________________________________________________________________________
average_pooling2d_9 (AveragePoo (None, 4, 39, 256)   0           inverted_residual_7[0][0]        
__________________________________________________________________________________________________
batch_normalization_11 (BatchNo (None, 4, 39, 256)   1024        average_pooling2d_9[0][0]        
__________________________________________________________________________________________________
dropout_9 (Dropout)             (None, 4, 39, 256)   0           batch_normalization_11[0][0]     
__________________________________________________________________________________________________
inverted_residual_8 (InvertedRe (None, 4, 39, 512)   1249280     dropout_9[0][0]                  
__________________________________________________________________________________________________
inverted_residual_9 (InvertedRe (None, 4, 39, 512)   3282944     inverted_residual_8[0][0]        
__________________________________________________________________________________________________
global_average_pooling2d_1 (Glo (None, 512)          0           inverted_residual_9[0][0]        
__________________________________________________________________________________________________
dense_1 (Dense)                 (None, 1)            513         global_average_pooling2d_1[0][0] 
==================================================================================================
Total params: 6,200,749
Trainable params: 6,159,239
Non-trainable params: 41,510
__________________________________________________________________________________________________
Epoch 1/40
270/270 - 217s - loss: 0.7300 - accuracy: 0.5422 - val_loss: 0.6764 - val_accuracy: 0.7254
…
