…
conv2d_23 (Conv2D)              (None, 128, 1250, 16 64          max_pooling2d_1[0][0]            
__________________________________________________________________________________________________
concatenate_1 (Concatenate)     (None, 128, 1250, 48 0           conv2d_20[0][0]                  
                                                                 conv2d_22[0][0]                  
                                                                 conv2d_23[0][0]                  
__________________________________________________________________________________________________
average_pooling2d_10 (AveragePo (None, 64, 625, 48)  0           concatenate_1[0][0]              
__________________________________________________________________________________________________
batch_normalization_13 (BatchNo (None, 64, 625, 48)  192         average_pooling2d_10[0][0]       
__________________________________________________________________________________________________
dropout_10 (Dropout)            (None, 64, 625, 48)  0           batch_normalization_13[0][0]     
__________________________________________________________________________________________________
inverted_residual_10 (InvertedR (None, 64, 625, 32)  35840       dropout_10[0][0]                 
__________________________________________________________________________________________________
inverted_residual_11 (InvertedR (None, 64, 625, 32)  20864       inverted_residual_10[0][0]       
__________________________________________________________________________________________________
average_pooling2d_11 (AveragePo (None, 32, 312, 32)  0           inverted_residual_11[0][0]       
__________________________________________________________________________________________________
batch_normalization_14 (BatchNo (None, 32, 312, 32)  128         average_pooling2d_11[0][0]       
__________________________________________________________________________________________________
dropout_11 (Dropout)            (None, 32, 312, 32)  0           batch_normalization_14[0][0]     
__________________________________________________________________________________________________
inverted_residual_12 (InvertedR (None, 32, 312, 64)  27136       dropout_11[0][0]                 
__________________________________________________________________________________________________
inverted_residual_13 (InvertedR (None, 32, 312, 64)  66304       inverted_residual_12[0][0]       
__________________________________________________________________________________________________
average_pooling2d_12 (AveragePo (None, 16, 156, 64)  0           inverted_residual_13[0][0]       
__________________________________________________________________________________________________
batch_normalization_15 (BatchNo (None, 16, 156, 64)  256         average_pooling2d_12[0][0]       
__________________________________________________________________________________________________
dropout_12 (Dropout)            (None, 16, 156, 64)  0           batch_normalization_15[0][0]     
__________________________________________________________________________________________________
inverted_residual_14 (InvertedR (None, 16, 156, 128) 91136       dropout_12[0][0]                 
__________________________________________________________________________________________________
inverted_residual_15 (InvertedR (None, 16, 156, 128) 230912      inverted_residual_14[0][0]       
__________________________________________________________________________________________________
average_pooling2d_13 (AveragePo (None, 8, 78, 128)   0           inverted_residual_15[0][0]       
__________________________________________________________________________________________________
batch_normalization_16 (BatchNo (None, 8, 78, 128)   512         average_pooling2d_13[0][0]       
__________________________________________________________________________________________________
dropout_13 (Dropout)            (None, 8, 78, 128)   0           batch_normalization_16[0][0]     
__________________________________________________________________________________________________
inverted_residual_16 (InvertedR (None, 8, 78, 256)   329728      dropout_13[0][0]                 
__________________________________________________________________________________________________
inverted_residual_17 (InvertedR (None, 8, 78, 256)   855040      inverted_residual_16[0][0]       
__________________________________________________________________________________________________
average_pooling2d_14 (AveragePo (None, 4, 39, 256)   0           inverted_residual_17[0][0]       
__________________________________________________________________________________________________
batch_normalization_17 (BatchNo (None, 4, 39, 256)   1024        average_pooling2d_14[0][0]       
__________________________________________________________________________________________________
dropout_14 (Dropout)            (None, 4, 39, 256)   0           batch_normalization_17[0][0]     
__________________________________________________________________________________________________
inverted_residual_18 (InvertedR (None, 4, 39, 512)   1249280     dropout_14[0][0]                 
__________________________________________________________________________________________________
inverted_residual_19 (InvertedR (None, 4, 39, 512)   3282944     inverted_residual_18[0][0]       
__________________________________________________________________________________________________
global_average_pooling2d_2 (Glo (None, 512)          0           inverted_residual_19[0][0]       
__________________________________________________________________________________________________
dense_2 (Dense)                 (None, 1)            513         global_average_pooling2d_2[0][0] 
==================================================================================================
Total params: 6,200,749
Trainable params: 6,159,239
Non-trainable params: 41,510
__________________________________________________________________________________________________
Epoch 1/40
270/270 - 216s - loss: 0.7295 - accuracy: 0.5317 - val_loss: 0.6997 - val_accuracy: 0.2746
…
