…
here
here
Number of 1-indexed chunks: 1737
Actual number of folders: 379
Size of training set: 304
Size of validation set: 75
[[ 0 51]
 [ 1 24]]
Initializing weights...
weights = {0: 0.7018518518518518, 1: 1.738532110091743}
Model: "conv2d"
_________________________________________________________________
Layer (type)                 Output Shape              Param #   
=================================================================
input_1 (InputLayer)         [(None, 6, 128, 313)]     0         
_________________________________________________________________
conv2d (Conv2D)              (None, 8, 128, 313)       440       
_________________________________________________________________
mix_depth_group_convolution2 (None, 8, 128, 313)       1080      
_________________________________________________________________
average_pooling2d (AveragePo (None, 8, 64, 157)        0         
_________________________________________________________________
batch_normalization (BatchNo (None, 8, 64, 157)        628       
_________________________________________________________________
conv2d_1 (Conv2D)            (None, 16, 64, 157)       1168      
_________________________________________________________________
mix_depth_group_convolution2 (None, 16, 64, 157)       2160      
_________________________________________________________________
average_pooling2d_1 (Average (None, 16, 32, 79)        0         
_________________________________________________________________
batch_normalization_1 (Batch (None, 16, 32, 79)        316       
_________________________________________________________________
conv2d_2 (Conv2D)            (None, 32, 32, 79)        4640      
_________________________________________________________________
mix_depth_group_convolution2 (None, 32, 32, 79)        4320      
_________________________________________________________________
average_pooling2d_2 (Average (None, 32, 16, 40)        0         
_________________________________________________________________
batch_normalization_2 (Batch (None, 32, 16, 40)        160       
_________________________________________________________________
conv2d_3 (Conv2D)            (None, 64, 16, 40)        18496     
_________________________________________________________________
mix_depth_group_convolution2 (None, 64, 16, 40)        8640      
_________________________________________________________________
average_pooling2d_3 (Average (None, 64, 8, 20)         0         
_________________________________________________________________
batch_normalization_3 (Batch (None, 64, 8, 20)         80        
_________________________________________________________________
conv2d_4 (Conv2D)            (None, 128, 8, 20)        73856     
_________________________________________________________________
mix_depth_group_convolution2 (None, 128, 8, 20)        17280     
_________________________________________________________________
average_pooling2d_4 (Average (None, 128, 4, 10)        0         
_________________________________________________________________
batch_normalization_4 (Batch (None, 128, 4, 10)        40        
_________________________________________________________________
global_average_pooling2d (Gl (None, 128)               0         
_________________________________________________________________
dense (Dense)                (None, 1)                 129       
=================================================================
Total params: 133,433
Trainable params: 132,821
Non-trainable params: 612
_________________________________________________________________
Epoch 1/40
76/76 - 16s - loss: 0.6981 - accuracy: 0.6908 - precision: 0.2353 - recall: 0.0471 - gen_confusion_matrix: 1.2160 - val_loss: 0.6872 - val_accuracy: 0.6800 - val_precision: 0.0000e+00 - val_recall: 0.0000e+00 - val_gen_confusion_matrix: 18.7500
…
