…
Original number of folders: 453
here
here
here
Number of 1-indexed chunks: 1737
Actual number of folders: 379
Size of training set: 304
Size of validation set: 75
[[ 0 51]
 [ 1 24]]
Initializing weights...
weights = {0: 0.7018518518518518, 1: 1.738532110091743}
Model: "model"
__________________________________________________________________________________________________
Layer (type)                    Output Shape         Param #     Connected to                     
==================================================================================================
input_1 (InputLayer)            [(None, 1, 128, 313) 0                                            
__________________________________________________________________________________________________
input_2 (InputLayer)            [(None, 1, 128, 313) 0                                            
__________________________________________________________________________________________________
input_3 (InputLayer)            [(None, 1, 128, 313) 0                                            
__________________________________________________________________________________________________
input_4 (InputLayer)            [(None, 1, 128, 313) 0                                            
__________________________________________________________________________________________________
input_5 (InputLayer)            [(None, 1, 128, 313) 0                                            
__________________________________________________________________________________________________
input_6 (InputLayer)            [(None, 1, 128, 313) 0                                            
__________________________________________________________________________________________________
conv2d (Conv2D)                 (None, 8, 128, 313)  80          input_1[0][0]                    
__________________________________________________________________________________________________
conv2d_5 (Conv2D)               (None, 8, 128, 313)  80          input_2[0][0]                    
__________________________________________________________________________________________________
conv2d_10 (Conv2D)              (None, 8, 128, 313)  80          input_3[0][0]                    
__________________________________________________________________________________________________
conv2d_15 (Conv2D)              (None, 8, 128, 313)  80          input_4[0][0]                    
__________________________________________________________________________________________________
conv2d_20 (Conv2D)              (None, 8, 128, 313)  80          input_5[0][0]                    
__________________________________________________________________________________________________
conv2d_25 (Conv2D)              (None, 8, 128, 313)  80          input_6[0][0]                    
__________________________________________________________________________________________________
mix_depth_group_convolution2d ( (None, 8, 128, 313)  1080        conv2d[0][0]                     
__________________________________________________________________________________________________
mix_depth_group_convolution2d_5 (None, 8, 128, 313)  1080        conv2d_5[0][0]                   
__________________________________________________________________________________________________
mix_depth_group_convolution2d_1 (None, 8, 128, 313)  1080        conv2d_10[0][0]                  
__________________________________________________________________________________________________
mix_depth_group_convolution2d_1 (None, 8, 128, 313)  1080        conv2d_15[0][0]                  
__________________________________________________________________________________________________
mix_depth_group_convolution2d_2 (None, 8, 128, 313)  1080        conv2d_20[0][0]                  
__________________________________________________________________________________________________
mix_depth_group_convolution2d_2 (None, 8, 128, 313)  1080        conv2d_25[0][0]                  
__________________________________________________________________________________________________
average_pooling2d (AveragePooli (None, 8, 64, 157)   0           mix_depth_group_convolution2d[0][
__________________________________________________________________________________________________
average_pooling2d_5 (AveragePoo (None, 8, 64, 157)   0           mix_depth_group_convolution2d_5[0
__________________________________________________________________________________________________
average_pooling2d_10 (AveragePo (None, 8, 64, 157)   0           mix_depth_group_convolution2d_10[
__________________________________________________________________________________________________
average_pooling2d_15 (AveragePo (None, 8, 64, 157)   0           mix_depth_group_convolution2d_15[
__________________________________________________________________________________________________
average_pooling2d_20 (AveragePo (None, 8, 64, 157)   0           mix_depth_group_convolution2d_20[
__________________________________________________________________________________________________
average_pooling2d_25 (AveragePo (None, 8, 64, 157)   0           mix_depth_group_convolution2d_25[
__________________________________________________________________________________________________
batch_normalization (BatchNorma (None, 8, 64, 157)   628         average_pooling2d[0][0]          
__________________________________________________________________________________________________
batch_normalization_5 (BatchNor (None, 8, 64, 157)   628         average_pooling2d_5[0][0]        
__________________________________________________________________________________________________
batch_normalization_10 (BatchNo (None, 8, 64, 157)   628         average_pooling2d_10[0][0]       
__________________________________________________________________________________________________
batch_normalization_15 (BatchNo (None, 8, 64, 157)   628         average_pooling2d_15[0][0]       
__________________________________________________________________________________________________
batch_normalization_20 (BatchNo (None, 8, 64, 157)   628         average_pooling2d_20[0][0]       
__________________________________________________________________________________________________
batch_normalization_25 (BatchNo (None, 8, 64, 157)   628         average_pooling2d_25[0][0]       
__________________________________________________________________________________________________
conv2d_1 (Conv2D)               (None, 16, 64, 157)  1168        batch_normalization[0][0]        
__________________________________________________________________________________________________
conv2d_6 (Conv2D)               (None, 16, 64, 157)  1168        batch_normalization_5[0][0]      
__________________________________________________________________________________________________
conv2d_11 (Conv2D)              (None, 16, 64, 157)  1168        batch_normalization_10[0][0]     
__________________________________________________________________________________________________
conv2d_16 (Conv2D)              (None, 16, 64, 157)  1168        batch_normalization_15[0][0]     
__________________________________________________________________________________________________
conv2d_21 (Conv2D)              (None, 16, 64, 157)  1168        batch_normalization_20[0][0]     
__________________________________________________________________________________________________
conv2d_26 (Conv2D)              (None, 16, 64, 157)  1168        batch_normalization_25[0][0]     
__________________________________________________________________________________________________
mix_depth_group_convolution2d_1 (None, 16, 64, 157)  2160        conv2d_1[0][0]                   
__________________________________________________________________________________________________
mix_depth_group_convolution2d_6 (None, 16, 64, 157)  2160        conv2d_6[0][0]                   
__________________________________________________________________________________________________
mix_depth_group_convolution2d_1 (None, 16, 64, 157)  2160        conv2d_11[0][0]                  
__________________________________________________________________________________________________
mix_depth_group_convolution2d_1 (None, 16, 64, 157)  2160        conv2d_16[0][0]                  
__________________________________________________________________________________________________
mix_depth_group_convolution2d_2 (None, 16, 64, 157)  2160        conv2d_21[0][0]                  
__________________________________________________________________________________________________
mix_depth_group_convolution2d_2 (None, 16, 64, 157)  2160        conv2d_26[0][0]                  
__________________________________________________________________________________________________
average_pooling2d_1 (AveragePoo (None, 16, 32, 79)   0           mix_depth_group_convolution2d_1[0
__________________________________________________________________________________________________
average_pooling2d_6 (AveragePoo (None, 16, 32, 79)   0           mix_depth_group_convolution2d_6[0
__________________________________________________________________________________________________
average_pooling2d_11 (AveragePo (None, 16, 32, 79)   0           mix_depth_group_convolution2d_11[
__________________________________________________________________________________________________
average_pooling2d_16 (AveragePo (None, 16, 32, 79)   0           mix_depth_group_convolution2d_16[
__________________________________________________________________________________________________
average_pooling2d_21 (AveragePo (None, 16, 32, 79)   0           mix_depth_group_convolution2d_21[
__________________________________________________________________________________________________
average_pooling2d_26 (AveragePo (None, 16, 32, 79)   0           mix_depth_group_convolution2d_26[
__________________________________________________________________________________________________
batch_normalization_1 (BatchNor (None, 16, 32, 79)   316         average_pooling2d_1[0][0]        
__________________________________________________________________________________________________
batch_normalization_6 (BatchNor (None, 16, 32, 79)   316         average_pooling2d_6[0][0]        
__________________________________________________________________________________________________
batch_normalization_11 (BatchNo (None, 16, 32, 79)   316         average_pooling2d_11[0][0]       
__________________________________________________________________________________________________
batch_normalization_16 (BatchNo (None, 16, 32, 79)   316         average_pooling2d_16[0][0]       
__________________________________________________________________________________________________
batch_normalization_21 (BatchNo (None, 16, 32, 79)   316         average_pooling2d_21[0][0]       
__________________________________________________________________________________________________
batch_normalization_26 (BatchNo (None, 16, 32, 79)   316         average_pooling2d_26[0][0]       
__________________________________________________________________________________________________
conv2d_2 (Conv2D)               (None, 32, 32, 79)   4640        batch_normalization_1[0][0]      
__________________________________________________________________________________________________
conv2d_7 (Conv2D)               (None, 32, 32, 79)   4640        batch_normalization_6[0][0]      
__________________________________________________________________________________________________
conv2d_12 (Conv2D)              (None, 32, 32, 79)   4640        batch_normalization_11[0][0]     
__________________________________________________________________________________________________
conv2d_17 (Conv2D)              (None, 32, 32, 79)   4640        batch_normalization_16[0][0]     
__________________________________________________________________________________________________
conv2d_22 (Conv2D)              (None, 32, 32, 79)   4640        batch_normalization_21[0][0]     
__________________________________________________________________________________________________
conv2d_27 (Conv2D)              (None, 32, 32, 79)   4640        batch_normalization_26[0][0]     
__________________________________________________________________________________________________
mix_depth_group_convolution2d_2 (None, 32, 32, 79)   4320        conv2d_2[0][0]                   
__________________________________________________________________________________________________
mix_depth_group_convolution2d_7 (None, 32, 32, 79)   4320        conv2d_7[0][0]                   
__________________________________________________________________________________________________
mix_depth_group_convolution2d_1 (None, 32, 32, 79)   4320        conv2d_12[0][0]                  
__________________________________________________________________________________________________
mix_depth_group_convolution2d_1 (None, 32, 32, 79)   4320        conv2d_17[0][0]                  
__________________________________________________________________________________________________
mix_depth_group_convolution2d_2 (None, 32, 32, 79)   4320        conv2d_22[0][0]                  
__________________________________________________________________________________________________
mix_depth_group_convolution2d_2 (None, 32, 32, 79)   4320        conv2d_27[0][0]                  
__________________________________________________________________________________________________
average_pooling2d_2 (AveragePoo (None, 32, 16, 40)   0           mix_depth_group_convolution2d_2[0
__________________________________________________________________________________________________
average_pooling2d_7 (AveragePoo (None, 32, 16, 40)   0           mix_depth_group_convolution2d_7[0
__________________________________________________________________________________________________
average_pooling2d_12 (AveragePo (None, 32, 16, 40)   0           mix_depth_group_convolution2d_12[
__________________________________________________________________________________________________
average_pooling2d_17 (AveragePo (None, 32, 16, 40)   0           mix_depth_group_convolution2d_17[
__________________________________________________________________________________________________
average_pooling2d_22 (AveragePo (None, 32, 16, 40)   0           mix_depth_group_convolution2d_22[
__________________________________________________________________________________________________
average_pooling2d_27 (AveragePo (None, 32, 16, 40)   0           mix_depth_group_convolution2d_27[
__________________________________________________________________________________________________
batch_normalization_2 (BatchNor (None, 32, 16, 40)   160         average_pooling2d_2[0][0]        
__________________________________________________________________________________________________
batch_normalization_7 (BatchNor (None, 32, 16, 40)   160         average_pooling2d_7[0][0]        
__________________________________________________________________________________________________
batch_normalization_12 (BatchNo (None, 32, 16, 40)   160         average_pooling2d_12[0][0]       
__________________________________________________________________________________________________
batch_normalization_17 (BatchNo (None, 32, 16, 40)   160         average_pooling2d_17[0][0]       
__________________________________________________________________________________________________
batch_normalization_22 (BatchNo (None, 32, 16, 40)   160         average_pooling2d_22[0][0]       
__________________________________________________________________________________________________
batch_normalization_27 (BatchNo (None, 32, 16, 40)   160         average_pooling2d_27[0][0]       
__________________________________________________________________________________________________
conv2d_3 (Conv2D)               (None, 64, 16, 40)   18496       batch_normalization_2[0][0]      
__________________________________________________________________________________________________
conv2d_8 (Conv2D)               (None, 64, 16, 40)   18496       batch_normalization_7[0][0]      
__________________________________________________________________________________________________
conv2d_13 (Conv2D)              (None, 64, 16, 40)   18496       batch_normalization_12[0][0]     
__________________________________________________________________________________________________
conv2d_18 (Conv2D)              (None, 64, 16, 40)   18496       batch_normalization_17[0][0]     
__________________________________________________________________________________________________
conv2d_23 (Conv2D)              (None, 64, 16, 40)   18496       batch_normalization_22[0][0]     
__________________________________________________________________________________________________
conv2d_28 (Conv2D)              (None, 64, 16, 40)   18496       batch_normalization_27[0][0]     
__________________________________________________________________________________________________
mix_depth_group_convolution2d_3 (None, 64, 16, 40)   8640        conv2d_3[0][0]                   
__________________________________________________________________________________________________
mix_depth_group_convolution2d_8 (None, 64, 16, 40)   8640        conv2d_8[0][0]                   
__________________________________________________________________________________________________
mix_depth_group_convolution2d_1 (None, 64, 16, 40)   8640        conv2d_13[0][0]                  
__________________________________________________________________________________________________
mix_depth_group_convolution2d_1 (None, 64, 16, 40)   8640        conv2d_18[0][0]                  
__________________________________________________________________________________________________
mix_depth_group_convolution2d_2 (None, 64, 16, 40)   8640        conv2d_23[0][0]                  
__________________________________________________________________________________________________
mix_depth_group_convolution2d_2 (None, 64, 16, 40)   8640        conv2d_28[0][0]                  
__________________________________________________________________________________________________
average_pooling2d_3 (AveragePoo (None, 64, 8, 20)    0           mix_depth_group_convolution2d_3[0
__________________________________________________________________________________________________
average_pooling2d_8 (AveragePoo (None, 64, 8, 20)    0           mix_depth_group_convolution2d_8[0
__________________________________________________________________________________________________
average_pooling2d_13 (AveragePo (None, 64, 8, 20)    0           mix_depth_group_convolution2d_13[
__________________________________________________________________________________________________
average_pooling2d_18 (AveragePo (None, 64, 8, 20)    0           mix_depth_group_convolution2d_18[
__________________________________________________________________________________________________
average_pooling2d_23 (AveragePo (None, 64, 8, 20)    0           mix_depth_group_convolution2d_23[
__________________________________________________________________________________________________
average_pooling2d_28 (AveragePo (None, 64, 8, 20)    0           mix_depth_group_convolution2d_28[
__________________________________________________________________________________________________
batch_normalization_3 (BatchNor (None, 64, 8, 20)    80          average_pooling2d_3[0][0]        
__________________________________________________________________________________________________
batch_normalization_8 (BatchNor (None, 64, 8, 20)    80          average_pooling2d_8[0][0]        
__________________________________________________________________________________________________
batch_normalization_13 (BatchNo (None, 64, 8, 20)    80          average_pooling2d_13[0][0]       
__________________________________________________________________________________________________
batch_normalization_18 (BatchNo (None, 64, 8, 20)    80          average_pooling2d_18[0][0]       
__________________________________________________________________________________________________
batch_normalization_23 (BatchNo (None, 64, 8, 20)    80          average_pooling2d_23[0][0]       
__________________________________________________________________________________________________
batch_normalization_28 (BatchNo (None, 64, 8, 20)    80          average_pooling2d_28[0][0]       
__________________________________________________________________________________________________
conv2d_4 (Conv2D)               (None, 128, 8, 20)   73856       batch_normalization_3[0][0]      
__________________________________________________________________________________________________
conv2d_9 (Conv2D)               (None, 128, 8, 20)   73856       batch_normalization_8[0][0]      
__________________________________________________________________________________________________
conv2d_14 (Conv2D)              (None, 128, 8, 20)   73856       batch_normalization_13[0][0]     
__________________________________________________________________________________________________
conv2d_19 (Conv2D)              (None, 128, 8, 20)   73856       batch_normalization_18[0][0]     
__________________________________________________________________________________________________
conv2d_24 (Conv2D)              (None, 128, 8, 20)   73856       batch_normalization_23[0][0]     
__________________________________________________________________________________________________
conv2d_29 (Conv2D)              (None, 128, 8, 20)   73856       batch_normalization_28[0][0]     
__________________________________________________________________________________________________
mix_depth_group_convolution2d_4 (None, 128, 8, 20)   17280       conv2d_4[0][0]                   
__________________________________________________________________________________________________
mix_depth_group_convolution2d_9 (None, 128, 8, 20)   17280       conv2d_9[0][0]                   
__________________________________________________________________________________________________
mix_depth_group_convolution2d_1 (None, 128, 8, 20)   17280       conv2d_14[0][0]                  
__________________________________________________________________________________________________
mix_depth_group_convolution2d_1 (None, 128, 8, 20)   17280       conv2d_19[0][0]                  
__________________________________________________________________________________________________
mix_depth_group_convolution2d_2 (None, 128, 8, 20)   17280       conv2d_24[0][0]                  
__________________________________________________________________________________________________
mix_depth_group_convolution2d_2 (None, 128, 8, 20)   17280       conv2d_29[0][0]                  
__________________________________________________________________________________________________
average_pooling2d_4 (AveragePoo (None, 128, 4, 10)   0           mix_depth_group_convolution2d_4[0
__________________________________________________________________________________________________
average_pooling2d_9 (AveragePoo (None, 128, 4, 10)   0           mix_depth_group_convolution2d_9[0
__________________________________________________________________________________________________
average_pooling2d_14 (AveragePo (None, 128, 4, 10)   0           mix_depth_group_convolution2d_14[
__________________________________________________________________________________________________
average_pooling2d_19 (AveragePo (None, 128, 4, 10)   0           mix_depth_group_convolution2d_19[
__________________________________________________________________________________________________2021-04-19 13:08:01.879071: I tensorflow/compiler/mlir/mlir_graph_optimization_pass.cc:116] None of the MLIR optimization passes are enabled (registered 2)
2021-04-19 13:08:01.879947: I tensorflow/core/platform/profile_utils/cpu_utils.cc:112] CPU Frequency: 2299995000 Hz
…
2021-04-19 13:08:13.612564: I tensorflow/core/profiler/internal/gpu/cupti_tracer.cc:1487] CUPTI activity buffer flushed
2021-04-19 13:08:13.659280: I tensorflow/core/profiler/internal/gpu/cupti_collector.cc:228]  GpuTracer has collected 2453 callback api events and 2449 activity events. 
2021-04-19 13:08:13.731916: I tensorflow/core/profiler/lib/profiler_session.cc:172] Profiler session tear down.
WARNING:tensorflow:Callback method `on_train_batch_end` is slow compared to the batch time (batch time: 0.1335s vs `on_train_batch_end` time: 0.1423s). Check your callbacks.
[[51 0]
 [24 0]]

average_pooling2d_24 (AveragePo (None, 128, 4, 10)   0           mix_depth_group_convolution2d_24[
__________________________________________________________________________________________________
average_pooling2d_29 (AveragePo (None, 128, 4, 10)   0           mix_depth_group_convolution2d_29[
__________________________________________________________________________________________________
batch_normalization_4 (BatchNor (None, 128, 4, 10)   40          average_pooling2d_4[0][0]        
__________________________________________________________________________________________________
batch_normalization_9 (BatchNor (None, 128, 4, 10)   40          average_pooling2d_9[0][0]        
__________________________________________________________________________________________________
batch_normalization_14 (BatchNo (None, 128, 4, 10)   40          average_pooling2d_14[0][0]       
__________________________________________________________________________________________________
batch_normalization_19 (BatchNo (None, 128, 4, 10)   40          average_pooling2d_19[0][0]       
__________________________________________________________________________________________________
batch_normalization_24 (BatchNo (None, 128, 4, 10)   40          average_pooling2d_24[0][0]       
__________________________________________________________________________________________________
batch_normalization_29 (BatchNo (None, 128, 4, 10)   40          average_pooling2d_29[0][0]       
__________________________________________________________________________________________________
global_average_pooling2d (Globa (None, 128)          0           batch_normalization_4[0][0]      
__________________________________________________________________________________________________
global_average_pooling2d_1 (Glo (None, 128)          0           batch_normalization_9[0][0]      
__________________________________________________________________________________________________
global_average_pooling2d_2 (Glo (None, 128)          0           batch_normalization_14[0][0]     
__________________________________________________________________________________________________
global_average_pooling2d_3 (Glo (None, 128)          0           batch_normalization_19[0][0]     
__________________________________________________________________________________________________
global_average_pooling2d_4 (Glo (None, 128)          0           batch_normalization_24[0][0]     
__________________________________________________________________________________________________
global_average_pooling2d_5 (Glo (None, 128)          0           batch_normalization_29[0][0]     
__________________________________________________________________________________________________
concatenate (Concatenate)       (None, 768)          0           global_average_pooling2d[0][0]   
                                                                 global_average_pooling2d_1[0][0] 
                                                                 global_average_pooling2d_2[0][0] 
                                                                 global_average_pooling2d_3[0][0] 
                                                                 global_average_pooling2d_4[0][0] 
                                                                 global_average_pooling2d_5[0][0] 
__________________________________________________________________________________________________
dense (Dense)                   (None, 32)           24608       concatenate[0][0]                
__________________________________________________________________________________________________
dense_1 (Dense)                 (None, 1)            33          dense[0][0]                      
==================================================================================================
Total params: 822,305
Trainable params: 818,633
Non-trainable params: 3,672
__________________________________________________________________________________________________
Epoch 1/40
76/76 - 30s - loss: 0.6989 - accuracy: 0.5757 - precision: 0.2556 - recall: 0.2706 - gen_confusion_matrix: 1.1218 - val_loss: 0.6912 - val_accuracy: 0.6800 - val_precision: 0.0000e+00 - val_recall: 0.0000e+00 - val_gen_confusion_matrix: 18.7500
…
