…
input_4 (InputLayer)            [(None, 1, 128, 1250 0                                            
__________________________________________________________________________________________________
input_5 (InputLayer)            [(None, 1, 128, 1250 0                                            
__________________________________________________________________________________________________
input_6 (InputLayer)            [(None, 1, 128, 1250 0                                            
__________________________________________________________________________________________________
batch_normalization (BatchNorma (None, 1, 128, 1250) 5000        input_1[0][0]                    
__________________________________________________________________________________________________
batch_normalization_6 (BatchNor (None, 1, 128, 1250) 5000        input_2[0][0]                    
__________________________________________________________________________________________________
batch_normalization_12 (BatchNo (None, 1, 128, 1250) 5000        input_3[0][0]                    
__________________________________________________________________________________________________
batch_normalization_18 (BatchNo (None, 1, 128, 1250) 5000        input_4[0][0]                    
__________________________________________________________________________________________________
batch_normalization_24 (BatchNo (None, 1, 128, 1250) 5000        input_5[0][0]                    
__________________________________________________________________________________________________
batch_normalization_30 (BatchNo (None, 1, 128, 1250) 5000        input_6[0][0]                    
__________________________________________________________________________________________________
conv2d (Conv2D)                 (None, 16, 128, 1250 32          batch_normalization[0][0]        
__________________________________________________________________________________________________
conv2d_2 (Conv2D)               (None, 16, 128, 1250 32          batch_normalization[0][0]        
__________________________________________________________________________________________________
max_pooling2d (MaxPooling2D)    (None, 1, 128, 1250) 0           batch_normalization[0][0]        
__________________________________________________________________________________________________
conv2d_5 (Conv2D)               (None, 16, 128, 1250 32          batch_normalization_6[0][0]      
__________________________________________________________________________________________________
conv2d_7 (Conv2D)               (None, 16, 128, 1250 32          batch_normalization_6[0][0]      
__________________________________________________________________________________________________
max_pooling2d_1 (MaxPooling2D)  (None, 1, 128, 1250) 0           batch_normalization_6[0][0]      
__________________________________________________________________________________________________
conv2d_10 (Conv2D)              (None, 16, 128, 1250 32          batch_normalization_12[0][0]     
__________________________________________________________________________________________________
conv2d_12 (Conv2D)              (None, 16, 128, 1250 32          batch_normalization_12[0][0]     
__________________________________________________________________________________________________
max_pooling2d_2 (MaxPooling2D)  (None, 1, 128, 1250) 0           batch_normalization_12[0][0]     
__________________________________________________________________________________________________
conv2d_15 (Conv2D)              (None, 16, 128, 1250 32          batch_normalization_18[0][0]     
__________________________________________________________________________________________________
conv2d_17 (Conv2D)              (None, 16, 128, 1250 32          batch_normalization_18[0][0]     
__________________________________________________________________________________________________
max_pooling2d_3 (MaxPooling2D)  (None, 1, 128, 1250) 0           batch_normalization_18[0][0]     
__________________________________________________________________________________________________
conv2d_20 (Conv2D)              (None, 16, 128, 1250 32          batch_normalization_24[0][0]     
__________________________________________________________________________________________________
conv2d_22 (Conv2D)              (None, 16, 128, 1250 32          batch_normalization_24[0][0]     
__________________________________________________________________________________________________
max_pooling2d_4 (MaxPooling2D)  (None, 1, 128, 1250) 0           batch_normalization_24[0][0]     
__________________________________________________________________________________________________
conv2d_25 (Conv2D)              (None, 16, 128, 1250 32          batch_normalization_30[0][0]     
__________________________________________________________________________________________________
conv2d_27 (Conv2D)              (None, 16, 128, 1250 32          batch_normalization_30[0][0]     
__________________________________________________________________________________________________
max_pooling2d_5 (MaxPooling2D)  (None, 1, 128, 1250) 0           batch_normalization_30[0][0]     
__________________________________________________________________________________________________
conv2d_1 (Conv2D)               (None, 16, 128, 1250 2320        conv2d[0][0]                     
__________________________________________________________________________________________________
conv2d_3 (Conv2D)               (None, 16, 128, 1250 6416        conv2d_2[0][0]                   
…
                                                                 conv2d_24[0][0]                  
__________________________________________________________________________________________________
concatenate_5 (Concatenate)     (None, 48, 128, 1250 0           conv2d_26[0][0]                  
                                                                 conv2d_28[0][0]                  
                                                                 conv2d_29[0][0]                  
__________________________________________________________________________________________________
average_pooling2d (AveragePooli (None, 48, 64, 625)  0           concatenate[0][0]                
__________________________________________________________________________________________________
average_pooling2d_5 (AveragePoo (None, 48, 64, 625)  0           concatenate_1[0][0]              
__________________________________________________________________________________________________
average_pooling2d_10 (AveragePo (None, 48, 64, 625)  0           concatenate_2[0][0]              
__________________________________________________________________________________________________
average_pooling2d_15 (AveragePo (None, 48, 64, 625)  0           concatenate_3[0][0]              
__________________________________________________________________________________________________
average_pooling2d_20 (AveragePo (None, 48, 64, 625)  0           concatenate_4[0][0]              
__________________________________________________________________________________________________
average_pooling2d_25 (AveragePo (None, 48, 64, 625)  0           concatenate_5[0][0]              
__________________________________________________________________________________________________
batch_normalization_1 (BatchNor (None, 48, 64, 625)  2500        average_pooling2d[0][0]          
__________________________________________________________________________________________________
batch_normalization_7 (BatchNor (None, 48, 64, 625)  2500        average_pooling2d_5[0][0]        
__________________________________________________________________________________________________
batch_normalization_13 (BatchNo (None, 48, 64, 625)  2500        average_pooling2d_10[0][0]       
__________________________________________________________________________________________________
batch_normalization_19 (BatchNo (None, 48, 64, 625)  2500        average_pooling2d_15[0][0]       
__________________________________________________________________________________________________
batch_normalization_25 (BatchNo (None, 48, 64, 625)  2500        average_pooling2d_20[0][0]       
__________________________________________________________________________________________________
batch_normalization_31 (BatchNo (None, 48, 64, 625)  2500        average_pooling2d_25[0][0]       
__________________________________________________________________________________________________
dropout (Dropout)               (None, 48, 64, 625)  0           batch_normalization_1[0][0]      
__________________________________________________________________________________________________
dropout_5 (Dropout)             (None, 48, 64, 625)  0           batch_normalization_7[0][0]      
__________________________________________________________________________________________________
dropout_10 (Dropout)            (None, 48, 64, 625)  0           batch_normalization_13[0][0]     
__________________________________________________________________________________________________
dropout_15 (Dropout)            (None, 48, 64, 625)  0           batch_normalization_19[0][0]     
__________________________________________________________________________________________________
dropout_20 (Dropout)            (None, 48, 64, 625)  0           batch_normalization_25[0][0]     
__________________________________________________________________________________________________
dropout_25 (Dropout)            (None, 48, 64, 625)  0           batch_normalization_31[0][0]     
__________________________________________________________________________________________________
inverted_residual (InvertedResi (None, 32, 64, 625)  40908       dropout[0][0]                    
__________________________________________________________________________________________________
inverted_residual_10 (InvertedR (None, 32, 64, 625)  40908       dropout_5[0][0]                  
__________________________________________________________________________________________________
inverted_residual_20 (InvertedR (None, 32, 64, 625)  40908       dropout_10[0][0]                 
__________________________________________________________________________________________________
inverted_residual_30 (InvertedR (None, 32, 64, 625)  40908       dropout_15[0][0]                 
__________________________________________________________________________________________________
inverted_residual_40 (InvertedR (None, 32, 64, 625)  40908       dropout_20[0][0]                 
__________________________________________________________________________________________________
inverted_residual_50 (InvertedR (None, 32, 64, 625)  40908       dropout_25[0][0]                 
__________________________________________________________________________________________________
inverted_residual_1 (InvertedRe (None, 32, 64, 625)  26700       inverted_residual[0][0]          
__________________________________________________________________________________________________
inverted_residual_11 (InvertedR (None, 32, 64, 625)  26700       inverted_residual_10[0][0]       
__________________________________________________________________________________________________
inverted_residual_21 (InvertedR (None, 32, 64, 625)  26700       inverted_residual_20[0][0]       
__________________________________________________________________________________________________
inverted_residual_31 (InvertedR (None, 32, 64, 625)  26700       inverted_residual_30[0][0]       
__________________________________________________________________________________________________
inverted_residual_41 (InvertedR (None, 32, 64, 625)  26700       inverted_residual_40[0][0]       
__________________________________________________________________________________________________
inverted_residual_51 (InvertedR (None, 32, 64, 625)  26700       inverted_residual_50[0][0]       
__________________________________________________________________________________________________
average_pooling2d_1 (AveragePoo (None, 32, 32, 312)  0           inverted_residual_1[0][0]        
__________________________________________________________________________________________________
average_pooling2d_6 (AveragePoo (None, 32, 32, 312)  0           inverted_residual_11[0][0]       
__________________________________________________________________________________________________
average_pooling2d_11 (AveragePo (None, 32, 32, 312)  0           inverted_residual_21[0][0]       
__________________________________________________________________________________________________
average_pooling2d_16 (AveragePo (None, 32, 32, 312)  0           inverted_residual_31[0][0]       
__________________________________________________________________________________________________
average_pooling2d_21 (AveragePo (None, 32, 32, 312)  0           inverted_residual_41[0][0]       
__________________________________________________________________________________________________
average_pooling2d_26 (AveragePo (None, 32, 32, 312)  0           inverted_residual_51[0][0]       
__________________________________________________________________________________________________
batch_normalization_2 (BatchNor (None, 32, 32, 312)  1248        average_pooling2d_1[0][0]        
__________________________________________________________________________________________________
batch_normalization_8 (BatchNor (None, 32, 32, 312)  1248        average_pooling2d_6[0][0]        
__________________________________________________________________________________________________
batch_normalization_14 (BatchNo (None, 32, 32, 312)  1248        average_pooling2d_11[0][0]       
__________________________________________________________________________________________________
batch_normalization_20 (BatchNo (None, 32, 32, 312)  1248        average_pooling2d_16[0][0]       
__________________________________________________________________________________________________
batch_normalization_26 (BatchNo (None, 32, 32, 312)  1248        average_pooling2d_21[0][0]       
__________________________________________________________________________________________________
batch_normalization_32 (BatchNo (None, 32, 32, 312)  1248        average_pooling2d_26[0][0]       
__________________________________________________________________________________________________
dropout_1 (Dropout)             (None, 32, 32, 312)  0           batch_normalization_2[0][0]      
__________________________________________________________________________________________________
dropout_6 (Dropout)             (None, 32, 32, 312)  0           batch_normalization_8[0][0]      
__________________________________________________________________________________________________
dropout_11 (Dropout)            (None, 32, 32, 312)  0           batch_normalization_14[0][0]     
__________________________________________________________________________________________________
dropout_16 (Dropout)            (None, 32, 32, 312)  0           batch_normalization_20[0][0]     
__________________________________________________________________________________________________
dropout_21 (Dropout)            (None, 32, 32, 312)  0           batch_normalization_26[0][0]     
__________________________________________________________________________________________________
dropout_26 (Dropout)            (None, 32, 32, 312)  0           batch_normalization_32[0][0]     
__________________________________________________________________________________________________
inverted_residual_2 (InvertedRe (None, 64, 32, 312)  29088       dropout_1[0][0]                  
__________________________________________________________________________________________________
inverted_residual_12 (InvertedR (None, 64, 32, 312)  29088       dropout_6[0][0]                  
__________________________________________________________________________________________________
inverted_residual_22 (InvertedR (None, 64, 32, 312)  29088       dropout_11[0][0]                 
__________________________________________________________________________________________________
inverted_residual_32 (InvertedR (None, 64, 32, 312)  29088       dropout_16[0][0]                 
__________________________________________________________________________________________________
inverted_residual_42 (InvertedR (None, 64, 32, 312)  29088       dropout_21[0][0]                 
__________________________________________________________________________________________________
inverted_residual_52 (InvertedR (None, 64, 32, 312)  29088       dropout_26[0][0]                 
__________________________________________________________________________________________________
inverted_residual_3 (InvertedRe (None, 64, 32, 312)  66720       inverted_residual_2[0][0]        
__________________________________________________________________________________________________
inverted_residual_13 (InvertedR (None, 64, 32, 312)  66720       inverted_residual_12[0][0]       
__________________________________________________________________________________________________
inverted_residual_23 (InvertedR (None, 64, 32, 312)  66720       inverted_residual_22[0][0]       
__________________________________________________________________________________________________
inverted_residual_33 (InvertedR (None, 64, 32, 312)  66720       inverted_residual_32[0][0]       
__________________________________________________________________________________________________
inverted_residual_43 (InvertedR (None, 64, 32, 312)  66720       inverted_residual_42[0][0]       
__________________________________________________________________________________________________
inverted_residual_53 (InvertedR (None, 64, 32, 312)  66720       inverted_residual_52[0][0]       
__________________________________________________________________________________________________
average_pooling2d_2 (AveragePoo (None, 64, 16, 156)  0           inverted_residual_3[0][0]        
__________________________________________________________________________________________________
average_pooling2d_7 (AveragePoo (None, 64, 16, 156)  0           inverted_residual_13[0][0]       
__________________________________________________________________________________________________
average_pooling2d_12 (AveragePo (None, 64, 16, 156)  0           inverted_residual_23[0][0]       
__________________________________________________________________________________________________
average_pooling2d_17 (AveragePo (None, 64, 16, 156)  0           inverted_residual_33[0][0]       
__________________________________________________________________________________________________
average_pooling2d_22 (AveragePo (None, 64, 16, 156)  0           inverted_residual_43[0][0]       
__________________________________________________________________________________________________
average_pooling2d_27 (AveragePo (None, 64, 16, 156)  0           inverted_residual_53[0][0]       
__________________________________________________________________________________________________
batch_normalization_3 (BatchNor (None, 64, 16, 156)  624         average_pooling2d_2[0][0]        
__________________________________________________________________________________________________
batch_normalization_9 (BatchNor (None, 64, 16, 156)  624         average_pooling2d_7[0][0]        
__________________________________________________________________________________________________
batch_normalization_15 (BatchNo (None, 64, 16, 156)  624         average_pooling2d_12[0][0]       
__________________________________________________________________________________________________
batch_normalization_21 (BatchNo (None, 64, 16, 156)  624         average_pooling2d_17[0][0]       
__________________________________________________________________________________________________
batch_normalization_27 (BatchNo (None, 64, 16, 156)  624         average_pooling2d_22[0][0]       
__________________________________________________________________________________________________
batch_normalization_33 (BatchNo (None, 64, 16, 156)  624         average_pooling2d_27[0][0]       
__________________________________________________________________________________________________
dropout_2 (Dropout)             (None, 64, 16, 156)  0           batch_normalization_3[0][0]      
__________________________________________________________________________________________________
dropout_7 (Dropout)             (None, 64, 16, 156)  0           batch_normalization_9[0][0]      
__________________________________________________________________________________________________
dropout_12 (Dropout)            (None, 64, 16, 156)  0           batch_normalization_15[0][0]     
__________________________________________________________________________________________________
dropout_17 (Dropout)            (None, 64, 16, 156)  0           batch_normalization_21[0][0]     
__________________________________________________________________________________________________
dropout_22 (Dropout)            (None, 64, 16, 156)  0           batch_normalization_27[0][0]     
__________________________________________________________________________________________________
dropout_27 (Dropout)            (None, 64, 16, 156)  0           batch_normalization_33[0][0]     
__________________________________________________________________________________________________
inverted_residual_4 (InvertedRe (None, 128, 16, 156) 89424       dropout_2[0][0]                  
__________________________________________________________________________________________________
inverted_residual_14 (InvertedR (None, 128, 16, 156) 89424       dropout_7[0][0]                  
__________________________________________________________________________________________________
inverted_residual_24 (InvertedR (None, 128, 16, 156) 89424       dropout_12[0][0]                 
__________________________________________________________________________________________________
inverted_residual_34 (InvertedR (None, 128, 16, 156) 89424       dropout_17[0][0]                 
__________________________________________________________________________________________________
inverted_residual_44 (InvertedR (None, 128, 16, 156) 89424       dropout_22[0][0]                 
__________________________________________________________________________________________________
inverted_residual_54 (InvertedR (None, 128, 16, 156) 89424       dropout_27[0][0]                 
__________________________________________________________________________________________________
inverted_residual_5 (InvertedRe (None, 128, 16, 156) 226128      inverted_residual_4[0][0]        
__________________________________________________________________________________________________
inverted_residual_15 (InvertedR (None, 128, 16, 156) 226128      inverted_residual_14[0][0]       
__________________________________________________________________________________________________
inverted_residual_25 (InvertedR (None, 128, 16, 156) 226128      inverted_residual_24[0][0]       
__________________________________________________________________________________________________
inverted_residual_35 (InvertedR (None, 128, 16, 156) 226128      inverted_residual_34[0][0]       
__________________________________________________________________________________________________
inverted_residual_45 (InvertedR (None, 128, 16, 156) 226128      inverted_residual_44[0][0]       
__________________________________________________________________________________________________
inverted_residual_55 (InvertedR (None, 128, 16, 156) 226128      inverted_residual_54[0][0]       
__________________________________________________________________________________________________
average_pooling2d_3 (AveragePoo (None, 128, 8, 78)   0           inverted_residual_5[0][0]        
__________________________________________________________________________________________________
average_pooling2d_8 (AveragePoo (None, 128, 8, 78)   0           inverted_residual_15[0][0]       
__________________________________________________________________________________________________
average_pooling2d_13 (AveragePo (None, 128, 8, 78)   0           inverted_residual_25[0][0]       
__________________________________________________________________________________________________
average_pooling2d_18 (AveragePo (None, 128, 8, 78)   0           inverted_residual_35[0][0]       
__________________________________________________________________________________________________
average_pooling2d_23 (AveragePo (None, 128, 8, 78)   0           inverted_residual_45[0][0]       
__________________________________________________________________________________________________
average_pooling2d_28 (AveragePo (None, 128, 8, 78)   0           inverted_residual_55[0][0]       
__________________________________________________________________________________________________
batch_normalization_4 (BatchNor (None, 128, 8, 78)   312         average_pooling2d_3[0][0]        
__________________________________________________________________________________________________
batch_normalization_10 (BatchNo (None, 128, 8, 78)   312         average_pooling2d_8[0][0]        
__________________________________________________________________________________________________
batch_normalization_16 (BatchNo (None, 128, 8, 78)   312         average_pooling2d_13[0][0]       
__________________________________________________________________________________________________
batch_normalization_22 (BatchNo (None, 128, 8, 78)   312         average_pooling2d_18[0][0]       
__________________________________________________________________________________________________
batch_normalization_28 (BatchNo (None, 128, 8, 78)   312         average_pooling2d_23[0][0]       
__________________________________________________________________________________________________
batch_normalization_34 (BatchNo (None, 128, 8, 78)   312         average_pooling2d_28[0][0]       
__________________________________________________________________________________________________
dropout_3 (Dropout)             (None, 128, 8, 78)   0           batch_normalization_4[0][0]      
__________________________________________________________________________________________________
dropout_8 (Dropout)             (None, 128, 8, 78)   0           batch_normalization_10[0][0]     
__________________________________________________________________________________________________
dropout_13 (Dropout)            (None, 128, 8, 78)   0           batch_normalization_16[0][0]     
__________________________________________________________________________________________________
dropout_18 (Dropout)            (None, 128, 8, 78)   0           batch_normalization_22[0][0]     
__________________________________________________________________________________________________
dropout_23 (Dropout)            (None, 128, 8, 78)   0           batch_normalization_28[0][0]     
__________________________________________________________________________________________________
dropout_28 (Dropout)            (None, 128, 8, 78)   0           batch_normalization_34[0][0]     
__________________________________________________________________________________________________
inverted_residual_6 (InvertedRe (None, 256, 8, 78)   323496      dropout_3[0][0]                  
__________________________________________________________________________________________________
inverted_residual_16 (InvertedR (None, 256, 8, 78)   323496      dropout_8[0][0]                  
__________________________________________________________________________________________________
inverted_residual_26 (InvertedR (None, 256, 8, 78)   323496      dropout_13[0][0]                 
__________________________________________________________________________________________________
inverted_residual_36 (InvertedR (None, 256, 8, 78)   323496      dropout_18[0][0]                 
__________________________________________________________________________________________________
inverted_residual_46 (InvertedR (None, 256, 8, 78)   323496      dropout_23[0][0]                 
__________________________________________________________________________________________________
inverted_residual_56 (InvertedR (None, 256, 8, 78)   323496      dropout_28[0][0]                 
__________________________________________________________________________________________________
inverted_residual_7 (InvertedRe (None, 256, 8, 78)   842664      inverted_residual_6[0][0]        
__________________________________________________________________________________________________
inverted_residual_17 (InvertedR (None, 256, 8, 78)   842664      inverted_residual_16[0][0]       
__________________________________________________________________________________________________
inverted_residual_27 (InvertedR (None, 256, 8, 78)   842664      inverted_residual_26[0][0]       
__________________________________________________________________________________________________
inverted_residual_37 (InvertedR (None, 256, 8, 78)   842664      inverted_residual_36[0][0]       
__________________________________________________________________________________________________
inverted_residual_47 (InvertedR (None, 256, 8, 78)   842664      inverted_residual_46[0][0]       
__________________________________________________________________________________________________
inverted_residual_57 (InvertedR (None, 256, 8, 78)   842664      inverted_residual_56[0][0]       
__________________________________________________________________________________________________
average_pooling2d_4 (AveragePoo (None, 256, 4, 39)   0           inverted_residual_7[0][0]        
__________________________________________________________________________________________________
average_pooling2d_9 (AveragePoo (None, 256, 4, 39)   0           inverted_residual_17[0][0]       
__________________________________________________________________________________________________
average_pooling2d_14 (AveragePo (None, 256, 4, 39)   0           inverted_residual_27[0][0]       
__________________________________________________________________________________________________
average_pooling2d_19 (AveragePo (None, 256, 4, 39)   0           inverted_residual_37[0][0]       
__________________________________________________________________________________________________
average_pooling2d_24 (AveragePo (None, 256, 4, 39)   0           inverted_residual_47[0][0]       
__________________________________________________________________________________________________
average_pooling2d_29 (AveragePo (None, 256, 4, 39)   0           inverted_residual_57[0][0]       
__________________________________________________________________________________________________
batch_normalization_5 (BatchNor (None, 256, 4, 39)   156         average_pooling2d_4[0][0]        
__________________________________________________________________________________________________
batch_normalization_11 (BatchNo (None, 256, 4, 39)   156         average_pooling2d_9[0][0]        
__________________________________________________________________________________________________
batch_normalization_17 (BatchNo (None, 256, 4, 39)   156         average_pooling2d_14[0][0]       
__________________________________________________________________________________________________
batch_normalization_23 (BatchNo (None, 256, 4, 39)   156         average_pooling2d_19[0][0]       
__________________________________________________________________________________________________
batch_normalization_29 (BatchNo (None, 256, 4, 39)   156         average_pooling2d_24[0][0]       
__________________________________________________________________________________________________
batch_normalization_35 (BatchNo (None, 256, 4, 39)   156         average_pooling2d_29[0][0]       
__________________________________________________________________________________________________
dropout_4 (Dropout)             (None, 256, 4, 39)   0           batch_normalization_5[0][0]      
__________________________________________________________________________________________________
dropout_9 (Dropout)             (None, 256, 4, 39)   0           batch_normalization_11[0][0]     
__________________________________________________________________________________________________
dropout_14 (Dropout)            (None, 256, 4, 39)   0           batch_normalization_17[0][0]     
__________________________________________________________________________________________________
dropout_19 (Dropout)            (None, 256, 4, 39)   0           batch_normalization_23[0][0]     
__________________________________________________________________________________________________
dropout_24 (Dropout)            (None, 256, 4, 39)   0           batch_normalization_29[0][0]     
__________________________________________________________________________________________________
dropout_29 (Dropout)            (None, 256, 4, 39)   0           batch_normalization_35[0][0]     
__________________________________________________________________________________________________
inverted_residual_8 (InvertedRe (None, 512, 4, 39)   1235412     dropout_4[0][0]                  
__________________________________________________________________________________________________
inverted_residual_18 (InvertedR (None, 512, 4, 39)   1235412     dropout_9[0][0]                  
__________________________________________________________________________________________________
inverted_residual_28 (InvertedR (None, 512, 4, 39)   1235412     dropout_14[0][0]                 
__________________________________________________________________________________________________2021-04-26 09:14:12.219383: I tensorflow/compiler/mlir/mlir_graph_optimization_pass.cc:116] None of the MLIR optimization passes are enabled (registered 2)
2021-04-26 09:14:12.220554: I tensorflow/core/platform/profile_utils/cpu_utils.cc:112] CPU Frequency: 2299995000 Hz
…
0 derived errors ignored. [Op:__inference_train_function_41175]

Errors may have originated from an input operation.
Input Source operations connected to node model/inverted_residual_30/depthwise_conv2d/depthwise:
 model/inverted_residual_30/re_lu/Relu (defined at /classification_algorithm/trainers/main/models/conv/core.py:724)

Input Source operations connected to node model/inverted_residual_30/depthwise_conv2d/depthwise:
 model/inverted_residual_30/re_lu/Relu (defined at /classification_algorithm/trainers/main/models/conv/core.py:724)

Function call stack:
train_function -> train_function


inverted_residual_38 (InvertedR (None, 512, 4, 39)   1235412     dropout_19[0][0]                 
__________________________________________________________________________________________________
inverted_residual_48 (InvertedR (None, 512, 4, 39)   1235412     dropout_24[0][0]                 
__________________________________________________________________________________________________
inverted_residual_58 (InvertedR (None, 512, 4, 39)   1235412     dropout_29[0][0]                 
__________________________________________________________________________________________________
inverted_residual_9 (InvertedRe (None, 512, 4, 39)   3256788     inverted_residual_8[0][0]        
__________________________________________________________________________________________________
inverted_residual_19 (InvertedR (None, 512, 4, 39)   3256788     inverted_residual_18[0][0]       
__________________________________________________________________________________________________
inverted_residual_29 (InvertedR (None, 512, 4, 39)   3256788     inverted_residual_28[0][0]       
__________________________________________________________________________________________________
inverted_residual_39 (InvertedR (None, 512, 4, 39)   3256788     inverted_residual_38[0][0]       
__________________________________________________________________________________________________
inverted_residual_49 (InvertedR (None, 512, 4, 39)   3256788     inverted_residual_48[0][0]       
__________________________________________________________________________________________________
inverted_residual_59 (InvertedR (None, 512, 4, 39)   3256788     inverted_residual_58[0][0]       
__________________________________________________________________________________________________
global_average_pooling2d (Globa (None, 512)          0           inverted_residual_9[0][0]        
__________________________________________________________________________________________________
global_average_pooling2d_1 (Glo (None, 512)          0           inverted_residual_19[0][0]       
__________________________________________________________________________________________________
global_average_pooling2d_2 (Glo (None, 512)          0           inverted_residual_29[0][0]       
__________________________________________________________________________________________________
global_average_pooling2d_3 (Glo (None, 512)          0           inverted_residual_39[0][0]       
__________________________________________________________________________________________________
global_average_pooling2d_4 (Glo (None, 512)          0           inverted_residual_49[0][0]       
__________________________________________________________________________________________________
global_average_pooling2d_5 (Glo (None, 512)          0           inverted_residual_59[0][0]       
__________________________________________________________________________________________________
concatenate_6 (Concatenate)     (None, 3072)         0           global_average_pooling2d[0][0]   
                                                                 global_average_pooling2d_1[0][0] 
                                                                 global_average_pooling2d_2[0][0] 
                                                                 global_average_pooling2d_3[0][0] 
                                                                 global_average_pooling2d_4[0][0] 
                                                                 global_average_pooling2d_5[0][0] 
__________________________________________________________________________________________________
dense (Dense)                   (None, 32)           98336       concatenate_6[0][0]              
__________________________________________________________________________________________________
dense_1 (Dense)                 (None, 1)            33          dense[0][0]                      
==================================================================================================
Total params: 37,034,369
Trainable params: 36,917,729
Non-trainable params: 116,640
__________________________________________________________________________________________________
Epoch 1/40

 See logs at ../../cache/conv___04_0900___all_sw_coch_preproce
…
