…
weights = {0: 0.7018518518518518, 1: 1.738532110091743}
Model: "conv2d"
__________________________________________________________________________________________________
Layer (type)                    Output Shape         Param #     Connected to                     
==================================================================================================
input_1 (InputLayer)            [(None, 1250, 128)]  0                                            
__________________________________________________________________________________________________
layer_normalization (LayerNorma (None, 1250, 128)    256         input_1[0][0]                    
__________________________________________________________________________________________________
time_distributed (TimeDistribut (None, 1250, 128)    0           layer_normalization[0][0]        
__________________________________________________________________________________________________
td_dense_tanh (TimeDistributed) (None, 1250, 64)     8256        time_distributed[0][0]           
__________________________________________________________________________________________________
bidirectional (Bidirectional)   (None, 1250, 64)     24832       td_dense_tanh[0][0]              
__________________________________________________________________________________________________
skip_connection (Concatenate)   (None, 1250, 128)    0           td_dense_tanh[0][0]              
                                                                 bidirectional[0][0]              
__________________________________________________________________________________________________
dense_1 (Dense)                 (None, 1250, 64)     8256        skip_connection[0][0]            
__________________________________________________________________________________________________
average_pooling1d (AveragePooli (None, 625, 64)      0           dense_1[0][0]                    
__________________________________________________________________________________________________
dense_2 (Dense)                 (None, 625, 64)      4160        average_pooling1d[0][0]          
__________________________________________________________________________________________________
bidirectional_1 (Bidirectional) (None, 625, 128)     66048       dense_2[0][0]                    
__________________________________________________________________________________________________
average_pooling1d_1 (AveragePoo (None, 312, 128)     0           bidirectional_1[0][0]            
__________________________________________________________________________________________________
dense_3 (Dense)                 (None, 312, 128)     16512       average_pooling1d_1[0][0]        
__________________________________________________________________________________________________
bidirectional_2 (Bidirectional) (None, 312, 256)     263168      dense_3[0][0]                    
__________________________________________________________________________________________________
average_pooling1d_2 (AveragePoo (None, 156, 256)     0           bidirectional_2[0][0]            
__________________________________________________________________________________________________
flatten (Flatten)               (None, 39936)        0           average_pooling1d_2[0][0]        
__________________________________________________________________________________________________
dropout (Dropout)               (None, 39936)        0           flatten[0][0]                    
__________________________________________________________________________________________________
dense_4 (Dense)                 (None, 128)          5111936     dropout[0][0]                    
__________________________________________________________________________________________________
dense_5 (Dense)                 (None, 1)            129         dense_4[0][0]                    
==================================================================================================
Total params: 5,503,553
Trainable params: 5,503,553
Non-trainable params: 0
__________________________________________________________________________________________________
Epoch 1/80
263/263 - 98s - loss: 0.6915 - accuracy: 0.5727 - val_loss: 0.6561 - val_accuracy: 0.8015
…
