…
weights = {0: 0.7018518518518518, 1: 1.738532110091743}
Model: "conv2d"
__________________________________________________________________________________________________
Layer (type)                    Output Shape         Param #     Connected to                     
==================================================================================================
input_1 (InputLayer)            [(None, 1250, 128)]  0                                            
__________________________________________________________________________________________________
layer_normalization (LayerNorma (None, 1250, 128)    256         input_1[0][0]                    
__________________________________________________________________________________________________
time_distributed (TimeDistribut (None, 1250, 128)    0           layer_normalization[0][0]        
__________________________________________________________________________________________________
time_distributed_1 (TimeDistrib (None, 1250, 64)     8256        time_distributed[0][0]           
__________________________________________________________________________________________________
bidirectional (Bidirectional)   (None, 1250, 64)     24832       time_distributed_1[0][0]         
__________________________________________________________________________________________________
concatenate (Concatenate)       (None, 1250, 128)    0           time_distributed_1[0][0]         
                                                                 bidirectional[0][0]              
__________________________________________________________________________________________________
time_distributed_2 (TimeDistrib (None, 1250, 32)     4128        concatenate[0][0]                
__________________________________________________________________________________________________
bidirectional_1 (Bidirectional) (None, 1250, 32)     6272        time_distributed_2[0][0]         
__________________________________________________________________________________________________
concatenate_1 (Concatenate)     (None, 1250, 64)     0           time_distributed_2[0][0]         
                                                                 bidirectional_1[0][0]            
__________________________________________________________________________________________________
dense_2 (Dense)                 (None, 1250, 64)     4160        concatenate_1[0][0]              
__________________________________________________________________________________________________
average_pooling1d (AveragePooli (None, 625, 64)      0           dense_2[0][0]                    
__________________________________________________________________________________________________
flatten (Flatten)               (None, 40000)        0           average_pooling1d[0][0]          
__________________________________________________________________________________________________
dropout (Dropout)               (None, 40000)        0           flatten[0][0]                    
__________________________________________________________________________________________________
dense_3 (Dense)                 (None, 64)           2560064     dropout[0][0]                    
__________________________________________________________________________________________________
dense_4 (Dense)                 (None, 1)            65          dense_3[0][0]                    
==================================================================================================
Total params: 2,608,033
Trainable params: 2,608,033
Non-trainable params: 0
__________________________________________________________________________________________________
Epoch 1/80
263/263 - 145s - loss: 0.7062 - accuracy: 0.5531 - val_loss: 0.6659 - val_accuracy: 0.6039
…
