…
Original number of folders: 453
With concat = False and six = False, size of training set: 4196...
...and size of validation set: 1088
Initializing weights...
weights = {0: 0.7018518518518518, 1: 1.738532110091743}
Model: "conv2d"
_________________________________________________________________
Layer (type)                 Output Shape              Param #   
=================================================================
input_1 (InputLayer)         [(None, 1250, 128, 1)]    0         
_________________________________________________________________
conv2d (Conv2D)              (None, 1250, 128, 8)      80        
_________________________________________________________________
mix_depth_group_convolution2 (None, 1250, 128, 8)      162       
_________________________________________________________________
average_pooling2d (AveragePo (None, 1250, 64, 8)       0         
_________________________________________________________________
batch_normalization (BatchNo (None, 1250, 64, 8)       32        
_________________________________________________________________
conv2d_1 (Conv2D)            (None, 1250, 64, 16)      1168      
_________________________________________________________________
mix_depth_group_convolution2 (None, 1250, 64, 16)      414       
_________________________________________________________________
average_pooling2d_1 (Average (None, 1250, 32, 16)      0         
_________________________________________________________________
batch_normalization_1 (Batch (None, 1250, 32, 16)      64        
_________________________________________________________________
conv2d_2 (Conv2D)            (None, 1250, 32, 32)      4640      
_________________________________________________________________
mix_depth_group_convolution2 (None, 1250, 32, 32)      828       
_________________________________________________________________
average_pooling2d_2 (Average (None, 1250, 16, 32)      0         
_________________________________________________________________
batch_normalization_2 (Batch (None, 1250, 16, 32)      128       
_________________________________________________________________
conv2d_3 (Conv2D)            (None, 1250, 16, 64)      18496     
_________________________________________________________________
mix_depth_group_convolution2 (None, 1250, 16, 64)      1656      
_________________________________________________________________
average_pooling2d_3 (Average (None, 1250, 8, 64)       0         
_________________________________________________________________
batch_normalization_3 (Batch (None, 1250, 8, 64)       256       
_________________________________________________________________
conv2d_4 (Conv2D)            (None, 1250, 8, 128)      73856     
_________________________________________________________________
mix_depth_group_convolution2 (None, 1250, 8, 128)      3402      
_________________________________________________________________
average_pooling2d_4 (Average (None, 1250, 1, 128)      0         
_________________________________________________________________
batch_normalization_4 (Batch (None, 1250, 1, 128)      512       
_________________________________________________________________
reshape (Reshape)            (None, 1250, 128)         0         
_________________________________________________________________
bidirectional (Bidirectional (None, 256)               263168    
_________________________________________________________________
dense (Dense)                (None, 1)                 257       
=================================================================
Total params: 369,119
Trainable params: 368,623
Non-trainable params: 496
_________________________________________________________________
Epoch 1/80
263/263 - 339s - loss: 0.6964 - accuracy: 0.5443 - val_loss: 0.6552 - val_accuracy: 0.7996
Confusion matrix: 
 [[870   0]
 [218   0]]
Validation f1: 0.00
Validation accuracy: 79.96
…
