…
Number of val recordings: 1072 with pneumonia: 288 and non-pneumonia: 784
-----------------------
The initial learning rate for this job is: 0.001
Initializing weights...
weights = {0: 0.6724137931034483, 1: 1.95}
Model: "conv2d"
______________________________________________________________________________________________________________
Layer (type)                        Output Shape            Param #      Connected to                         
==============================================================================================================
input_1 (InputLayer)                [(None, 5, 250, 128, 1) 0                                                 
______________________________________________________________________________________________________________
batch_normalization (BatchNormaliza (None, 5, 250, 128, 1)  4            input_1[0][0]                        
______________________________________________________________________________________________________________
time_distributed (TimeDistributed)  (None, 5, 250, 128, 8)  16           batch_normalization[0][0]            
______________________________________________________________________________________________________________
time_distributed_2 (TimeDistributed (None, 5, 250, 128, 8)  16           batch_normalization[0][0]            
______________________________________________________________________________________________________________
time_distributed_4 (TimeDistributed (None, 5, 250, 128, 1)  0            batch_normalization[0][0]            
______________________________________________________________________________________________________________
time_distributed_1 (TimeDistributed (None, 5, 250, 128, 8)  584          time_distributed[0][0]               
______________________________________________________________________________________________________________
time_distributed_3 (TimeDistributed (None, 5, 250, 128, 8)  1608         time_distributed_2[0][0]             
______________________________________________________________________________________________________________
time_distributed_5 (TimeDistributed (None, 5, 250, 128, 8)  16           time_distributed_4[0][0]             
______________________________________________________________________________________________________________
concatenate (Concatenate)           (None, 5, 250, 128, 24) 0            time_distributed_1[0][0]             
                                                                         time_distributed_3[0][0]             
                                                                         time_distributed_5[0][0]             
______________________________________________________________________________________________________________
time_distributed_6 (TimeDistributed (None, 5, 125, 64, 24)  0            concatenate[0][0]                    
______________________________________________________________________________________________________________
batch_normalization_1 (BatchNormali (None, 5, 125, 64, 24)  96           time_distributed_6[0][0]             
______________________________________________________________________________________________________________
dropout (Dropout)                   (None, 5, 125, 64, 24)  0            batch_normalization_1[0][0]          
______________________________________________________________________________________________________________
time_distributed_inverted_residual  (None, 5, 125, 64, 24)  6720         dropout[0][0]                        
______________________________________________________________________________________________________________
time_distributed_inverted_residual_ (None, 5, 125, 64, 24)  6720         time_distributed_inverted_residual[0]
______________________________________________________________________________________________________________
time_distributed_7 (TimeDistributed (None, 5, 63, 32, 24)   0            time_distributed_inverted_residual_1[
______________________________________________________________________________________________________________
batch_normalization_2 (BatchNormali (None, 5, 63, 32, 24)   96           time_distributed_7[0][0]             
______________________________________________________________________________________________________________
dropout_1 (Dropout)                 (None, 5, 63, 32, 24)   0            batch_normalization_2[0][0]          
______________________________________________________________________________________________________________
time_distributed_8 (TimeDistributed (None, 5, 63, 32, 24)   576          dropout_1[0][0]                      
______________________________________________________________________________________________________________
time_distributed_9 (TimeDistributed (None, 5, 32, 16, 24)   0            time_distributed_8[0][0]             
______________________________________________________________________________________________________________
batch_normalization_3 (BatchNormali (None, 5, 32, 16, 24)   96           time_distributed_9[0][0]             
______________________________________________________________________________________________________________
time_distributed_10 (TimeDistribute (None, 5, 24)           0            batch_normalization_3[0][0]          
______________________________________________________________________________________________________________
bidirectional (Bidirectional)       (None, 5, 64)           14592        time_distributed_10[0][0]            
______________________________________________________________________________________________________________
bidirectional_1 (Bidirectional)     (None, 64)              24832        bidirectional[0][0]                  
______________________________________________________________________________________________________________
dense (Dense)                       (None, 1)               65           bidirectional_1[0][0]                
==============================================================================================================
Total params: 56,037
Trainable params: 55,219
Non-trainable params: 818
______________________________________________________________________________________________________________
Epoch 1/50
132/132 - 90s - loss: 0.6866 - accuracy: 0.5380 - val_loss: 0.6327 - val_accuracy: 0.7313
…
