…
Number of val recordings: 1072 with pneumonia: 288 and non-pneumonia: 784
-----------------------
The initial learning rate for this job is: 0.001
Initializing weights...
weights = {0: 0.6724137931034483, 1: 1.95}
Model: "conv2d"
______________________________________________________________________________________________________________
Layer (type)                        Output Shape            Param #      Connected to                         
==============================================================================================================
input_1 (InputLayer)                [(None, 5, 250, 128, 1) 0                                                 
______________________________________________________________________________________________________________
batch_normalization (BatchNormaliza (None, 5, 250, 128, 1)  4            input_1[0][0]                        
______________________________________________________________________________________________________________
time_distributed (TimeDistributed)  (None, 5, 250, 128, 16) 32           batch_normalization[0][0]            
______________________________________________________________________________________________________________
time_distributed_2 (TimeDistributed (None, 5, 250, 128, 16) 32           batch_normalization[0][0]            
______________________________________________________________________________________________________________
time_distributed_4 (TimeDistributed (None, 5, 250, 128, 1)  0            batch_normalization[0][0]            
______________________________________________________________________________________________________________
time_distributed_1 (TimeDistributed (None, 5, 250, 128, 16) 2320         time_distributed[0][0]               
______________________________________________________________________________________________________________
time_distributed_3 (TimeDistributed (None, 5, 250, 128, 16) 6416         time_distributed_2[0][0]             
______________________________________________________________________________________________________________
time_distributed_5 (TimeDistributed (None, 5, 250, 128, 16) 32           time_distributed_4[0][0]             
______________________________________________________________________________________________________________
concatenate (Concatenate)           (None, 5, 250, 128, 48) 0            time_distributed_1[0][0]             
                                                                         time_distributed_3[0][0]             
                                                                         time_distributed_5[0][0]             
______________________________________________________________________________________________________________
time_distributed_6 (TimeDistributed (None, 5, 125, 64, 48)  0            concatenate[0][0]                    
______________________________________________________________________________________________________________
batch_normalization_1 (BatchNormali (None, 5, 125, 64, 48)  192          time_distributed_6[0][0]             
______________________________________________________________________________________________________________
dropout (Dropout)                   (None, 5, 125, 64, 48)  0            batch_normalization_1[0][0]          
______________________________________________________________________________________________________________
time_distributed_7 (TimeDistributed (None, 5, 125, 64, 48)  1242         dropout[0][0]                        
______________________________________________________________________________________________________________
time_distributed_8 (TimeDistributed (None, 5, 125, 64, 48)  1242         time_distributed_7[0][0]             
______________________________________________________________________________________________________________
time_distributed_9 (TimeDistributed (None, 5, 48)           0            time_distributed_8[0][0]             
______________________________________________________________________________________________________________
bidirectional (Bidirectional)       (None, 5, 128)          57856        time_distributed_9[0][0]             
______________________________________________________________________________________________________________
bidirectional_1 (Bidirectional)     (None, 128)             98816        bidirectional[0][0]                  
______________________________________________________________________________________________________________
dense (Dense)                       (None, 64)              8256         bidirectional_1[0][0]                
______________________________________________________________________________________________________________
dense_1 (Dense)                     (None, 1)               65           dense[0][0]                          
==============================================================================================================
Total params: 176,505
Trainable params: 176,407
Non-trainable params: 98
______________________________________________________________________________________________________________
Epoch 1/50
132/132 - 100s - loss: 0.6932 - accuracy: 0.5342 - val_loss: 0.6838 - val_accuracy: 0.7332
…
