…
Number of val recordings: 1072 with pneumonia: 288 and non-pneumonia: 784
-----------------------
The initial learning rate for this job is: 0.001
Initializing weights...
weights = {0: 0.6724137931034483, 1: 1.95}
Model: "conv2d"
______________________________________________________________________________________________________________
Layer (type)                        Output Shape            Param #      Connected to                         
==============================================================================================================
input_1 (InputLayer)                [(None, 5, 250, 128, 1) 0                                                 
______________________________________________________________________________________________________________
batch_normalization (BatchNormaliza (None, 5, 250, 128, 1)  4            input_1[0][0]                        
______________________________________________________________________________________________________________
time_distributed (TimeDistributed)  (None, 5, 250, 128, 8)  16           batch_normalization[0][0]            
______________________________________________________________________________________________________________
time_distributed_2 (TimeDistributed (None, 5, 250, 128, 8)  16           batch_normalization[0][0]            
______________________________________________________________________________________________________________
time_distributed_4 (TimeDistributed (None, 5, 250, 128, 1)  0            batch_normalization[0][0]            
______________________________________________________________________________________________________________
time_distributed_1 (TimeDistributed (None, 5, 250, 128, 8)  584          time_distributed[0][0]               
______________________________________________________________________________________________________________
time_distributed_3 (TimeDistributed (None, 5, 250, 128, 8)  1608         time_distributed_2[0][0]             
______________________________________________________________________________________________________________
time_distributed_5 (TimeDistributed (None, 5, 250, 128, 8)  16           time_distributed_4[0][0]             
______________________________________________________________________________________________________________
concatenate (Concatenate)           (None, 5, 250, 128, 24) 0            time_distributed_1[0][0]             
                                                                         time_distributed_3[0][0]             
                                                                         time_distributed_5[0][0]             
______________________________________________________________________________________________________________
time_distributed_6 (TimeDistributed (None, 5, 250, 64, 24)  0            concatenate[0][0]                    
______________________________________________________________________________________________________________
batch_normalization_1 (BatchNormali (None, 5, 250, 64, 24)  96           time_distributed_6[0][0]             
______________________________________________________________________________________________________________
time_distributed_7 (TimeDistributed (None, 5, 250, 64, 32)  6944         batch_normalization_1[0][0]          
______________________________________________________________________________________________________________
time_distributed_8 (TimeDistributed (None, 5, 250, 64, 32)  828          time_distributed_7[0][0]             
______________________________________________________________________________________________________________
time_distributed_9 (TimeDistributed (None, 5, 250, 32, 32)  0            time_distributed_8[0][0]             
______________________________________________________________________________________________________________
batch_normalization_2 (BatchNormali (None, 5, 250, 32, 32)  128          time_distributed_9[0][0]             
______________________________________________________________________________________________________________
time_distributed_inverted_residual  (None, 5, 250, 32, 64)  11104        batch_normalization_2[0][0]          
______________________________________________________________________________________________________________
time_distributed_inverted_residual_ (None, 5, 250, 32, 64)  28096        time_distributed_inverted_residual[0]
______________________________________________________________________________________________________________
time_distributed_10 (TimeDistribute (None, 5, 250, 16, 64)  0            time_distributed_inverted_residual_1[
______________________________________________________________________________________________________________
batch_normalization_3 (BatchNormali (None, 5, 250, 16, 64)  256          time_distributed_10[0][0]            
______________________________________________________________________________________________________________
time_distributed_inverted_residual_ (None, 5, 250, 16, 128) 40640        batch_normalization_3[0][0]          
______________________________________________________________________________________________________________
time_distributed_11 (TimeDistribute (None, 5, 250, 8, 128)  0            time_distributed_inverted_residual_2[
______________________________________________________________________________________________________________
batch_normalization_4 (BatchNormali (None, 5, 250, 8, 128)  512          time_distributed_11[0][0]            
______________________________________________________________________________________________________________
time_distributed_inverted_residual_ (None, 5, 250, 8, 256)  155008       batch_normalization_4[0][0]          
______________________________________________________________________________________________________________
time_distributed_12 (TimeDistribute (None, 5, 250, 1, 256)  0            time_distributed_inverted_residual_3[
______________________________________________________________________________________________________________
batch_normalization_5 (BatchNormali (None, 5, 250, 1, 256)  1024         time_distributed_12[0][0]            
______________________________________________________________________________________________________________
time_distributed_13 (TimeDistribute (None, 5, 256)          0            batch_normalization_5[0][0]          
______________________________________________________________________________________________________________
bidirectional (Bidirectional)       (None, 5, 128)          164352       time_distributed_13[0][0]            
______________________________________________________________________________________________________________
bidirectional_1 (Bidirectional)     (None, 5, 256)          263168       bidirectional[0][0]                  
______________________________________________________________________________________________________________
dense (Dense)                       (None, 5, 1)            257          bidirectional_1[0][0]                
______________________________________________________________________________________________________________
flatten (Flatten)                   (None, 5)               0            dense[0][0]                          
______________________________________________________________________________________________________________
dense_1 (Dense)                     (None, 1)               6            flatten[0][0]                        
==============================================================================================================
Total params: 674,663
Trainable params: 669,173
Non-trainable params: 5,490
______________________________________________________________________________________________________________
Epoch 1/50
527/527 - 207s - loss: 0.6950 - accuracy: 0.5133 - val_loss: 0.6540 - val_accuracy: 0.7313
…
