…
2021-06-09 18:51:50.878887: I tensorflow/stream_executor/platform/default/dso_loader.cc:49] Successfully opened dynamic library libcublasLt.so.11
Original number of folders: 453
Pneumonia patients: 109, Non-pneumonia patients: 270
Initializing weights...
weights = {0: 0.7018518518518518, 1: 1.738532110091743}
Model: "conv2d"
______________________________________________________________________________________________________________
Layer (type)                        Output Shape            Param #      Connected to                         
==============================================================================================================
input_1 (InputLayer)                [(None, 5, 250, 128, 6) 0                                                 
______________________________________________________________________________________________________________
batch_normalization (BatchNormaliza (None, 5, 250, 128, 6)  24           input_1[0][0]                        
______________________________________________________________________________________________________________
time_distributed (TimeDistributed)  (None, 5, 250, 128, 16) 112          batch_normalization[0][0]            
______________________________________________________________________________________________________________
time_distributed_2 (TimeDistributed (None, 5, 250, 128, 16) 112          batch_normalization[0][0]            
______________________________________________________________________________________________________________
time_distributed_4 (TimeDistributed (None, 5, 250, 128, 6)  0            batch_normalization[0][0]            
______________________________________________________________________________________________________________
time_distributed_1 (TimeDistributed (None, 5, 250, 128, 16) 2320         time_distributed[0][0]               
______________________________________________________________________________________________________________
time_distributed_3 (TimeDistributed (None, 5, 250, 128, 16) 6416         time_distributed_2[0][0]             
______________________________________________________________________________________________________________
time_distributed_5 (TimeDistributed (None, 5, 250, 128, 16) 112          time_distributed_4[0][0]             
______________________________________________________________________________________________________________
concatenate (Concatenate)           (None, 5, 250, 128, 48) 0            time_distributed_1[0][0]             
                                                                         time_distributed_3[0][0]             
                                                                         time_distributed_5[0][0]             
______________________________________________________________________________________________________________
time_distributed_6 (TimeDistributed (None, 5, 125, 64, 48)  0            concatenate[0][0]                    
______________________________________________________________________________________________________________
batch_normalization_1 (BatchNormali (None, 5, 125, 64, 48)  192          time_distributed_6[0][0]             
______________________________________________________________________________________________________________
dropout (Dropout)                   (None, 5, 125, 64, 48)  0            batch_normalization_1[0][0]          
______________________________________________________________________________________________________________
time_distributed_7 (TimeDistributed (None, 5, 125, 64, 64)  27712        dropout[0][0]                        
______________________________________________________________________________________________________________
time_distributed_8 (TimeDistributed (None, 5, 125, 64, 64)  1656         time_distributed_7[0][0]             
______________________________________________________________________________________________________________
time_distributed_9 (TimeDistributed (None, 5, 63, 32, 64)   0            time_distributed_8[0][0]             
______________________________________________________________________________________________________________
batch_normalization_2 (BatchNormali (None, 5, 63, 32, 64)   256          time_distributed_9[0][0]             
______________________________________________________________________________________________________________
dropout_1 (Dropout)                 (None, 5, 63, 32, 64)   0            batch_normalization_2[0][0]          
______________________________________________________________________________________________________________
time_distributed_inverted_residual  (None, 5, 63, 32, 128)  45824        dropout_1[0][0]                      
______________________________________________________________________________________________________________
time_distributed_inverted_residual_ (None, 5, 63, 32, 128)  115712       time_distributed_inverted_residual[0]
______________________________________________________________________________________________________________
time_distributed_10 (TimeDistribute (None, 5, 32, 16, 128)  0            time_distributed_inverted_residual_1[
______________________________________________________________________________________________________________
batch_normalization_3 (BatchNormali (None, 5, 32, 16, 128)  512          time_distributed_10[0][0]            
______________________________________________________________________________________________________________
dropout_2 (Dropout)                 (None, 5, 32, 16, 128)  0            batch_normalization_3[0][0]          
______________________________________________________________________________________________________________
time_distributed_11 (TimeDistribute (None, 5, 128)          0            dropout_2[0][0]                      
______________________________________________________________________________________________________________
bidirectional (Bidirectional)       (None, 5, 128)          98816        time_distributed_11[0][0]            
______________________________________________________________________________________________________________
bidirectional_1 (Bidirectional)     (None, 5, 128)          98816        bidirectional[0][0]                  
______________________________________________________________________________________________________________
dense (Dense)                       (None, 5, 1)            129          bidirectional_1[0][0]                
______________________________________________________________________________________________________________
flatten (Flatten)                   (None, 5)               0            dense[0][0]                          
______________________________________________________________________________________________________________
dense_1 (Dense)                     (None, 1)               6            flatten[0][0]                        
==============================================================================================================
Total params: 398,727
Trainable params: 395,419
Non-trainable params: 3,308
______________________________________________________________________________________________________________
Epoch 1/50
38/38 - 25s - loss: 0.7891 - accuracy: 0.7138 - val_loss: 0.6055 - val_accuracy: 0.7067
…
