…
Model: "conv2d"
______________________________________________________________________________________________________________
Layer (type)                        Output Shape            Param #      Connected to                         
==============================================================================================================
input_1 (InputLayer)                [(None, 128, 1250, 1)]  0                                                 
______________________________________________________________________________________________________________
batch_normalization (BatchNormaliza (None, 128, 1250, 1)    4            input_1[0][0]                        
______________________________________________________________________________________________________________
conv2d (Conv2D)                     (None, 128, 1250, 8)    16           batch_normalization[0][0]            
______________________________________________________________________________________________________________
conv2d_2 (Conv2D)                   (None, 128, 1250, 8)    16           batch_normalization[0][0]            
______________________________________________________________________________________________________________
max_pooling2d (MaxPooling2D)        (None, 128, 1250, 1)    0            batch_normalization[0][0]            
______________________________________________________________________________________________________________
conv2d_1 (Conv2D)                   (None, 128, 1250, 8)    584          conv2d[0][0]                         
______________________________________________________________________________________________________________
conv2d_3 (Conv2D)                   (None, 128, 1250, 8)    1608         conv2d_2[0][0]                       
______________________________________________________________________________________________________________
conv2d_4 (Conv2D)                   (None, 128, 1250, 8)    16           max_pooling2d[0][0]                  
______________________________________________________________________________________________________________
concatenate (Concatenate)           (None, 128, 1250, 24)   0            conv2d_1[0][0]                       
                                                                         conv2d_3[0][0]                       
                                                                         conv2d_4[0][0]                       
______________________________________________________________________________________________________________
average_pooling2d (AveragePooling2D (None, 64, 625, 24)     0            concatenate[0][0]                    
______________________________________________________________________________________________________________
batch_normalization_1 (BatchNormali (None, 64, 625, 24)     96           average_pooling2d[0][0]              
______________________________________________________________________________________________________________
conv2d_5 (Conv2D)                   (None, 64, 625, 16)     400          batch_normalization_1[0][0]          
______________________________________________________________________________________________________________
conv2d_7 (Conv2D)                   (None, 64, 625, 16)     400          batch_normalization_1[0][0]          
______________________________________________________________________________________________________________
max_pooling2d_1 (MaxPooling2D)      (None, 64, 625, 24)     0            batch_normalization_1[0][0]          
______________________________________________________________________________________________________________
conv2d_6 (Conv2D)                   (None, 64, 625, 16)     2320         conv2d_5[0][0]                       
______________________________________________________________________________________________________________
conv2d_8 (Conv2D)                   (None, 64, 625, 16)     6416         conv2d_7[0][0]                       
______________________________________________________________________________________________________________
conv2d_9 (Conv2D)                   (None, 64, 625, 16)     400          max_pooling2d_1[0][0]                
______________________________________________________________________________________________________________
concatenate_1 (Concatenate)         (None, 64, 625, 48)     0            conv2d_6[0][0]                       
                                                                         conv2d_8[0][0]                       
                                                                         conv2d_9[0][0]                       
______________________________________________________________________________________________________________
average_pooling2d_1 (AveragePooling (None, 32, 313, 48)     0            concatenate_1[0][0]                  
______________________________________________________________________________________________________________
batch_normalization_2 (BatchNormali (None, 32, 313, 48)     192          average_pooling2d_1[0][0]            
______________________________________________________________________________________________________________
conv2d_10 (Conv2D)                  (None, 32, 313, 32)     1568         batch_normalization_2[0][0]          
______________________________________________________________________________________________________________
conv2d_12 (Conv2D)                  (None, 32, 313, 32)     1568         batch_normalization_2[0][0]          
______________________________________________________________________________________________________________
max_pooling2d_2 (MaxPooling2D)      (None, 32, 313, 48)     0            batch_normalization_2[0][0]          
______________________________________________________________________________________________________________
conv2d_11 (Conv2D)                  (None, 32, 313, 32)     9248         conv2d_10[0][0]                      
______________________________________________________________________________________________________________
conv2d_13 (Conv2D)                  (None, 32, 313, 32)     25632        conv2d_12[0][0]                      
______________________________________________________________________________________________________________
conv2d_14 (Conv2D)                  (None, 32, 313, 32)     1568         max_pooling2d_2[0][0]                
______________________________________________________________________________________________________________
concatenate_2 (Concatenate)         (None, 32, 313, 96)     0            conv2d_11[0][0]                      
                                                                         conv2d_13[0][0]                      
                                                                         conv2d_14[0][0]                      
______________________________________________________________________________________________________________
average_pooling2d_2 (AveragePooling (None, 16, 157, 96)     0            concatenate_2[0][0]                  
______________________________________________________________________________________________________________
batch_normalization_3 (BatchNormali (None, 16, 157, 96)     384          average_pooling2d_2[0][0]            
______________________________________________________________________________________________________________
conv2d_15 (Conv2D)                  (None, 16, 157, 64)     6208         batch_normalization_3[0][0]          
______________________________________________________________________________________________________________
conv2d_17 (Conv2D)                  (None, 16, 157, 64)     6208         batch_normalization_3[0][0]          
______________________________________________________________________________________________________________
max_pooling2d_3 (MaxPooling2D)      (None, 16, 157, 96)     0            batch_normalization_3[0][0]          
______________________________________________________________________________________________________________
conv2d_16 (Conv2D)                  (None, 16, 157, 64)     36928        conv2d_15[0][0]                      
______________________________________________________________________________________________________________
conv2d_18 (Conv2D)                  (None, 16, 157, 64)     102464       conv2d_17[0][0]                      
______________________________________________________________________________________________________________
conv2d_19 (Conv2D)                  (None, 16, 157, 64)     6208         max_pooling2d_3[0][0]                
______________________________________________________________________________________________________________
concatenate_3 (Concatenate)         (None, 16, 157, 192)    0            conv2d_16[0][0]                      
                                                                         conv2d_18[0][0]                      
                                                                         conv2d_19[0][0]                      
______________________________________________________________________________________________________________
average_pooling2d_3 (AveragePooling (None, 8, 79, 192)      0            concatenate_3[0][0]                  
______________________________________________________________________________________________________________
batch_normalization_4 (BatchNormali (None, 8, 79, 192)      768          average_pooling2d_3[0][0]            
______________________________________________________________________________________________________________
conv2d_20 (Conv2D)                  (None, 8, 79, 128)      24704        batch_normalization_4[0][0]          
______________________________________________________________________________________________________________
conv2d_22 (Conv2D)                  (None, 8, 79, 128)      24704        batch_normalization_4[0][0]          
______________________________________________________________________________________________________________
max_pooling2d_4 (MaxPooling2D)      (None, 8, 79, 192)      0            batch_normalization_4[0][0]          
______________________________________________________________________________________________________________
conv2d_21 (Conv2D)                  (None, 8, 79, 128)      147584       conv2d_20[0][0]                      
______________________________________________________________________________________________________________
conv2d_23 (Conv2D)                  (None, 8, 79, 128)      409728       conv2d_22[0][0]                      
______________________________________________________________________________________________________________
conv2d_24 (Conv2D)                  (None, 8, 79, 128)      24704        max_pooling2d_4[0][0]                
______________________________________________________________________________________________________________
concatenate_4 (Concatenate)         (None, 8, 79, 384)      0            conv2d_21[0][0]                      
                                                                         conv2d_23[0][0]                      
                                                                         conv2d_24[0][0]                      
______________________________________________________________________________________________________________
average_pooling2d_4 (AveragePooling (None, 4, 40, 384)      0            concatenate_4[0][0]                  
______________________________________________________________________________________________________________
batch_normalization_5 (BatchNormali (None, 4, 40, 384)      1536         average_pooling2d_4[0][0]            
______________________________________________________________________________________________________________
conv2d_25 (Conv2D)                  (None, 4, 40, 256)      98560        batch_normalization_5[0][0]          
______________________________________________________________________________________________________________
conv2d_27 (Conv2D)                  (None, 4, 40, 256)      98560        batch_normalization_5[0][0]          
______________________________________________________________________________________________________________
max_pooling2d_5 (MaxPooling2D)      (None, 4, 40, 384)      0            batch_normalization_5[0][0]          
______________________________________________________________________________________________________________
conv2d_26 (Conv2D)                  (None, 4, 40, 256)      590080       conv2d_25[0][0]                      
______________________________________________________________________________________________________________
conv2d_28 (Conv2D)                  (None, 4, 40, 256)      1638656      conv2d_27[0][0]                      
______________________________________________________________________________________________________________
conv2d_29 (Conv2D)                  (None, 4, 40, 256)      98560        max_pooling2d_5[0][0]                
______________________________________________________________________________________________________________
concatenate_5 (Concatenate)         (None, 4, 40, 768)      0            conv2d_26[0][0]                      
                                                                         conv2d_28[0][0]                      
                                                                         conv2d_29[0][0]                      
______________________________________________________________________________________________________________
average_pooling2d_5 (AveragePooling (None, 2, 20, 768)      0            concatenate_5[0][0]                  
______________________________________________________________________________________________________________
batch_normalization_6 (BatchNormali (None, 2, 20, 768)      3072         average_pooling2d_5[0][0]            
______________________________________________________________________________________________________________
global_average_pooling2d (GlobalAve (None, 768)             0            batch_normalization_6[0][0]          
______________________________________________________________________________________________________________
dense (Dense)                       (None, 1)               769          global_average_pooling2d[0][0]       
==============================================================================================================
Total params: 3,372,437
Trainable params: 3,369,411
Non-trainable params: 3,026
______________________________________________________________________________________________________________
2021-06-15 20:06:24.168812: I tensorflow/compiler/mlir/mlir_graph_optimization_pass.cc:116] None of the MLIR optimization passes are enabled (registered 2)
…
______________________________________________________________________________________________________________
Layer (type)                                     Output Shape                                Param #          
==============================================================================================================
input_2 (InputLayer)                             [(None, 128, 1250, 1)]                      0                
______________________________________________________________________________________________________________
conv2d_30 (Conv2D)                               (None, 128, 1250, 8)                        80               
______________________________________________________________________________________________________________
mix_depth_group_convolution2d (MixDepthGroupConv (None, 128, 1250, 8)                        162              
______________________________________________________________________________________________________________
average_pooling2d_6 (AveragePooling2D)           (None, 64, 625, 8)                          0                
______________________________________________________________________________________________________________
batch_normalization_7 (BatchNormalization)       (None, 64, 625, 8)                          32               
______________________________________________________________________________________________________________
conv2d_31 (Conv2D)                               (None, 64, 625, 16)                         1168             
______________________________________________________________________________________________________________
mix_depth_group_convolution2d_1 (MixDepthGroupCo (None, 64, 625, 16)                         414              
______________________________________________________________________________________________________________
average_pooling2d_7 (AveragePooling2D)           (None, 32, 313, 16)                         0                
______________________________________________________________________________________________________________
batch_normalization_8 (BatchNormalization)       (None, 32, 313, 16)                         64               
______________________________________________________________________________________________________________
conv2d_32 (Conv2D)                               (None, 32, 313, 32)                         4640             
______________________________________________________________________________________________________________
mix_depth_group_convolution2d_2 (MixDepthGroupCo (None, 32, 313, 32)                         828              
______________________________________________________________________________________________________________
average_pooling2d_8 (AveragePooling2D)           (None, 16, 157, 32)                         0                
______________________________________________________________________________________________________________
batch_normalization_9 (BatchNormalization)       (None, 16, 157, 32)                         128              
______________________________________________________________________________________________________________
conv2d_33 (Conv2D)                               (None, 16, 157, 64)                         18496            
______________________________________________________________________________________________________________
mix_depth_group_convolution2d_3 (MixDepthGroupCo (None, 16, 157, 64)                         1656             
______________________________________________________________________________________________________________
average_pooling2d_9 (AveragePooling2D)           (None, 8, 79, 64)                           0                
______________________________________________________________________________________________________________
batch_normalization_10 (BatchNormalization)      (None, 8, 79, 64)                           256              
______________________________________________________________________________________________________________
conv2d_34 (Conv2D)                               (None, 8, 79, 128)                          73856            
______________________________________________________________________________________________________________
mix_depth_group_convolution2d_4 (MixDepthGroupCo (None, 8, 79, 128)                          3402             
______________________________________________________________________________________________________________
average_pooling2d_10 (AveragePooling2D)          (None, 4, 40, 128)                          0                
______________________________________________________________________________________________________________
batch_normalization_11 (BatchNormalization)      (None, 4, 40, 128)                          512              
______________________________________________________________________________________________________________
global_average_pooling2d_1 (GlobalAveragePooling (None, 128)                                 0                
______________________________________________________________________________________________________________
dense_1 (Dense)                                  (None, 1)                                   129              
==============================================================================================================
Total params: 105,823
Trainable params: 105,327
Non-trainable params: 496
______________________________________________________________________________________________________________
Epoch 1/65
151/151 - 64s - loss: 0.4521 - accuracy: 0.6962 - val_loss: 0.4715 - val_accuracy: 0.9471
…
______________________________________________________________________________________________________________
Layer (type)                                     Output Shape                                Param #          
==============================================================================================================
input_3 (InputLayer)                             [(None, 128, 1250, 1)]                      0                
______________________________________________________________________________________________________________
batch_normalization_12 (BatchNormalization)      (None, 128, 1250, 1)                        4                
______________________________________________________________________________________________________________
conv2d_35 (Conv2D)                               (None, 128, 1250, 4)                        8                
______________________________________________________________________________________________________________
conv2d_36 (Conv2D)                               (None, 128, 1250, 8)                        1160             
______________________________________________________________________________________________________________
conv2d_37 (Conv2D)                               (None, 128, 1250, 16)                       144              
______________________________________________________________________________________________________________
average_pooling2d_11 (AveragePooling2D)          (None, 64, 625, 16)                         0                
______________________________________________________________________________________________________________
dropout (Dropout)                                (None, 64, 625, 16)                         0                
______________________________________________________________________________________________________________
batch_normalization_13 (BatchNormalization)      (None, 64, 625, 16)                         64               
______________________________________________________________________________________________________________
conv2d_38 (Conv2D)                               (None, 64, 625, 16)                         9232             
______________________________________________________________________________________________________________
conv2d_39 (Conv2D)                               (None, 64, 625, 32)                         544              
______________________________________________________________________________________________________________
average_pooling2d_12 (AveragePooling2D)          (None, 32, 313, 32)                         0                
______________________________________________________________________________________________________________
dropout_1 (Dropout)                              (None, 32, 313, 32)                         0                
______________________________________________________________________________________________________________
batch_normalization_14 (BatchNormalization)      (None, 32, 313, 32)                         128              
______________________________________________________________________________________________________________
conv2d_40 (Conv2D)                               (None, 32, 313, 32)                         36896            
______________________________________________________________________________________________________________
conv2d_41 (Conv2D)                               (None, 32, 313, 64)                         2112             
______________________________________________________________________________________________________________
average_pooling2d_13 (AveragePooling2D)          (None, 16, 157, 64)                         0                
______________________________________________________________________________________________________________
dropout_2 (Dropout)                              (None, 16, 157, 64)                         0                
______________________________________________________________________________________________________________
batch_normalization_15 (BatchNormalization)      (None, 16, 157, 64)                         256              
______________________________________________________________________________________________________________
conv2d_42 (Conv2D)                               (None, 16, 157, 64)                         147520           
______________________________________________________________________________________________________________
conv2d_43 (Conv2D)                               (None, 16, 157, 128)                        8320             
______________________________________________________________________________________________________________
average_pooling2d_14 (AveragePooling2D)          (None, 8, 79, 128)                          0                
______________________________________________________________________________________________________________
dropout_3 (Dropout)                              (None, 8, 79, 128)                          0                
______________________________________________________________________________________________________________
batch_normalization_16 (BatchNormalization)      (None, 8, 79, 128)                          512              
______________________________________________________________________________________________________________
conv2d_44 (Conv2D)                               (None, 8, 79, 128)                          589952           
______________________________________________________________________________________________________________
conv2d_45 (Conv2D)                               (None, 8, 79, 256)                          33024            
______________________________________________________________________________________________________________
average_pooling2d_15 (AveragePooling2D)          (None, 4, 40, 256)                          0                
______________________________________________________________________________________________________________
dropout_4 (Dropout)                              (None, 4, 40, 256)                          0                
______________________________________________________________________________________________________________
batch_normalization_17 (BatchNormalization)      (None, 4, 40, 256)                          1024             
______________________________________________________________________________________________________________
conv2d_46 (Conv2D)                               (None, 4, 40, 256)                          65792            
______________________________________________________________________________________________________________
conv2d_47 (Conv2D)                               (None, 4, 40, 512)                          1180160          
______________________________________________________________________________________________________________
conv2d_48 (Conv2D)                               (None, 4, 40, 512)                          2359808          
______________________________________________________________________________________________________________
global_average_pooling2d_2 (GlobalAveragePooling (None, 512)                                 0                
______________________________________________________________________________________________________________
dense_2 (Dense)                                  (None, 1)                                   513              
==============================================================================================================
Total params: 4,437,173
Trainable params: 4,436,179
Non-trainable params: 994
______________________________________________________________________________________________________________
Epoch 1/65
151/151 - 55s - loss: 0.9948 - accuracy: 0.1221 - val_loss: 0.6959 - val_accuracy: 0.0529
…
