…
Model: "conv2d"
______________________________________________________________________________________________________________
Layer (type)                        Output Shape            Param #      Connected to                         
==============================================================================================================
input_1 (InputLayer)                [(None, 1250, 128, 1)]  0                                                 
______________________________________________________________________________________________________________
batch_normalization (BatchNormaliza (None, 1250, 128, 1)    4            input_1[0][0]                        
______________________________________________________________________________________________________________
conv2d (Conv2D)                     (None, 1250, 128, 16)   32           batch_normalization[0][0]            
______________________________________________________________________________________________________________
conv2d_2 (Conv2D)                   (None, 1250, 128, 16)   32           batch_normalization[0][0]            
______________________________________________________________________________________________________________
max_pooling2d (MaxPooling2D)        (None, 1250, 128, 1)    0            batch_normalization[0][0]            
______________________________________________________________________________________________________________
conv2d_1 (Conv2D)                   (None, 1250, 128, 16)   2320         conv2d[0][0]                         
______________________________________________________________________________________________________________
conv2d_3 (Conv2D)                   (None, 1250, 128, 16)   6416         conv2d_2[0][0]                       
______________________________________________________________________________________________________________
conv2d_4 (Conv2D)                   (None, 1250, 128, 16)   32           max_pooling2d[0][0]                  
______________________________________________________________________________________________________________
concatenate (Concatenate)           (None, 1250, 128, 48)   0            conv2d_1[0][0]                       
                                                                         conv2d_3[0][0]                       
                                                                         conv2d_4[0][0]                       
______________________________________________________________________________________________________________
average_pooling2d (AveragePooling2D (None, 625, 64, 48)     0            concatenate[0][0]                    
______________________________________________________________________________________________________________
batch_normalization_1 (BatchNormali (None, 625, 64, 48)     192          average_pooling2d[0][0]              
______________________________________________________________________________________________________________
dropout (Dropout)                   (None, 625, 64, 48)     0            batch_normalization_1[0][0]          
______________________________________________________________________________________________________________
inverted_residual (InvertedResidual (None, 625, 64, 48)     40512        dropout[0][0]                        
______________________________________________________________________________________________________________
inverted_residual_1 (InvertedResidu (None, 625, 64, 48)     40512        inverted_residual[0][0]              
______________________________________________________________________________________________________________
batch_normalization_2 (BatchNormali (None, 625, 64, 48)     192          inverted_residual_1[0][0]            
______________________________________________________________________________________________________________
dropout_1 (Dropout)                 (None, 625, 64, 48)     0            batch_normalization_2[0][0]          
______________________________________________________________________________________________________________
time_distributed (TimeDistributed)  (None, 625, 48)         0            dropout_1[0][0]                      
______________________________________________________________________________________________________________
bidirectional (Bidirectional)       (None, 625, 256)        181248       time_distributed[0][0]               
______________________________________________________________________________________________________________
bidirectional_1 (Bidirectional)     (None, 625, 256)        394240       bidirectional[0][0]                  
______________________________________________________________________________________________________________
dense (Dense)                       (None, 625, 1)          257          bidirectional_1[0][0]                
______________________________________________________________________________________________________________
flatten (Flatten)                   (None, 625)             0            dense[0][0]                          
______________________________________________________________________________________________________________
dense_1 (Dense)                     (None, 1)               626          flatten[0][0]                        
==============================================================================================================
Total params: 666,615
Trainable params: 663,925
Non-trainable params: 2,690
______________________________________________________________________________________________________________
Epoch 1/65
151/151 - 209s - loss: 0.6954 - accuracy: 0.5373 - val_loss: 0.6251 - val_accuracy: 0.9471
…
Model: "conv2d"
______________________________________________________________________________________________________________
Layer (type)                        Output Shape            Param #      Connected to                         
==============================================================================================================
input_2 (InputLayer)                [(None, 1250, 128, 1)]  0                                                 
______________________________________________________________________________________________________________
batch_normalization_3 (BatchNormali (None, 1250, 128, 1)    4            input_2[0][0]                        
______________________________________________________________________________________________________________
conv2d_5 (Conv2D)                   (None, 1250, 128, 16)   32           batch_normalization_3[0][0]          
______________________________________________________________________________________________________________
conv2d_7 (Conv2D)                   (None, 1250, 128, 16)   32           batch_normalization_3[0][0]          
______________________________________________________________________________________________________________
max_pooling2d_1 (MaxPooling2D)      (None, 1250, 128, 1)    0            batch_normalization_3[0][0]          
______________________________________________________________________________________________________________
conv2d_6 (Conv2D)                   (None, 1250, 128, 16)   2320         conv2d_5[0][0]                       
______________________________________________________________________________________________________________
conv2d_8 (Conv2D)                   (None, 1250, 128, 16)   6416         conv2d_7[0][0]                       
______________________________________________________________________________________________________________
conv2d_9 (Conv2D)                   (None, 1250, 128, 16)   32           max_pooling2d_1[0][0]                
______________________________________________________________________________________________________________
concatenate_1 (Concatenate)         (None, 1250, 128, 48)   0            conv2d_6[0][0]                       
                                                                         conv2d_8[0][0]                       
                                                                         conv2d_9[0][0]                       
______________________________________________________________________________________________________________
average_pooling2d_1 (AveragePooling (None, 625, 64, 48)     0            concatenate_1[0][0]                  
______________________________________________________________________________________________________________
batch_normalization_4 (BatchNormali (None, 625, 64, 48)     192          average_pooling2d_1[0][0]            
______________________________________________________________________________________________________________
conv2d_10 (Conv2D)                  (None, 625, 64, 32)     13856        batch_normalization_4[0][0]          
______________________________________________________________________________________________________________
mix_depth_group_convolution2d (MixD (None, 625, 64, 32)     828          conv2d_10[0][0]                      
______________________________________________________________________________________________________________
batch_normalization_5 (BatchNormali (None, 625, 64, 32)     128          mix_depth_group_convolution2d[0][0]  
______________________________________________________________________________________________________________
inverted_residual_2 (InvertedResidu (None, 625, 64, 64)     11104        batch_normalization_5[0][0]          
______________________________________________________________________________________________________________
inverted_residual_3 (InvertedResidu (None, 625, 64, 64)     28096        inverted_residual_2[0][0]            
______________________________________________________________________________________________________________
average_pooling2d_2 (AveragePooling (None, 313, 32, 64)     0            inverted_residual_3[0][0]            
______________________________________________________________________________________________________________
batch_normalization_6 (BatchNormali (None, 313, 32, 64)     256          average_pooling2d_2[0][0]            
______________________________________________________________________________________________________________
inverted_residual_4 (InvertedResidu (None, 313, 32, 128)    40640        batch_normalization_6[0][0]          
______________________________________________________________________________________________________________
inverted_residual_5 (InvertedResidu (None, 313, 32, 128)    105344       inverted_residual_4[0][0]            
______________________________________________________________________________________________________________
average_pooling2d_3 (AveragePooling (None, 157, 16, 128)    0            inverted_residual_5[0][0]            
______________________________________________________________________________________________________________
batch_normalization_7 (BatchNormali (None, 157, 16, 128)    512          average_pooling2d_3[0][0]            
______________________________________________________________________________________________________________
inverted_residual_6 (InvertedResidu (None, 157, 16, 256)    155008       batch_normalization_7[0][0]          
______________________________________________________________________________________________________________
inverted_residual_7 (InvertedResidu (None, 157, 16, 256)    407296       inverted_residual_6[0][0]            
______________________________________________________________________________________________________________
average_pooling2d_4 (AveragePooling (None, 79, 8, 256)      0            inverted_residual_7[0][0]            
______________________________________________________________________________________________________________
batch_normalization_8 (BatchNormali (None, 79, 8, 256)      1024         average_pooling2d_4[0][0]            
______________________________________________________________________________________________________________
time_distributed_1 (TimeDistributed (None, 79, 256)         0            batch_normalization_8[0][0]          
______________________________________________________________________________________________________________
bidirectional_2 (Bidirectional)     (None, 79, 32)          34944        time_distributed_1[0][0]             
______________________________________________________________________________________________________________
bidirectional_3 (Bidirectional)     (None, 79, 64)          16640        bidirectional_2[0][0]                
______________________________________________________________________________________________________________
bidirectional_4 (Bidirectional)     (None, 79, 128)         66048        bidirectional_3[0][0]                
______________________________________________________________________________________________________________
bidirectional_5 (Bidirectional)     (None, 79, 256)         263168       bidirectional_4[0][0]                
______________________________________________________________________________________________________________
bidirectional_6 (Bidirectional)     (None, 79, 512)         1050624      bidirectional_5[0][0]                
______________________________________________________________________________________________________________
time_distributed_2 (TimeDistributed (None, 79, 16)          8208         bidirectional_6[0][0]                
______________________________________________________________________________________________________________
dense_3 (Dense)                     (None, 79, 1)           17           time_distributed_2[0][0]             
______________________________________________________________________________________________________________
flatten_1 (Flatten)                 (None, 79)              0            dense_3[0][0]                        
______________________________________________________________________________________________________________
dense_4 (Dense)                     (None, 1)               80           flatten_1[0][0]                      
==============================================================================================================
Total params: 2,212,849
Trainable params: 2,201,935
Non-trainable params: 10,914
______________________________________________________________________________________________________________
Epoch 1/65
151/151 - 169s - loss: 0.6835 - accuracy: 0.2007 - val_loss: 0.6921 - val_accuracy: 0.9471
…
Model: "conv2d"
______________________________________________________________________________________________________________
Layer (type)                        Output Shape            Param #      Connected to                         
==============================================================================================================
input_3 (InputLayer)                [(None, 1250, 128, 1)]  0                                                 
______________________________________________________________________________________________________________
batch_normalization_9 (BatchNormali (None, 1250, 128, 1)    4            input_3[0][0]                        
______________________________________________________________________________________________________________
conv2d_11 (Conv2D)                  (None, 1250, 128, 16)   32           batch_normalization_9[0][0]          
______________________________________________________________________________________________________________
conv2d_13 (Conv2D)                  (None, 1250, 128, 16)   32           batch_normalization_9[0][0]          
______________________________________________________________________________________________________________
max_pooling2d_2 (MaxPooling2D)      (None, 1250, 128, 1)    0            batch_normalization_9[0][0]          
______________________________________________________________________________________________________________
conv2d_12 (Conv2D)                  (None, 1250, 128, 16)   2320         conv2d_11[0][0]                      
______________________________________________________________________________________________________________
conv2d_14 (Conv2D)                  (None, 1250, 128, 16)   6416         conv2d_13[0][0]                      
______________________________________________________________________________________________________________
conv2d_15 (Conv2D)                  (None, 1250, 128, 16)   32           max_pooling2d_2[0][0]                
______________________________________________________________________________________________________________
concatenate_7493 (Concatenate)      (None, 1250, 128, 48)   0            conv2d_12[0][0]                      
                                                                         conv2d_14[0][0]                      
                                                                         conv2d_15[0][0]                      
______________________________________________________________________________________________________________
average_pooling2d_5 (AveragePooling (None, 625, 64, 48)     0            concatenate_7493[0][0]               
______________________________________________________________________________________________________________
batch_normalization_10 (BatchNormal (None, 625, 64, 48)     192          average_pooling2d_5[0][0]            
______________________________________________________________________________________________________________
dropout_2 (Dropout)                 (None, 625, 64, 48)     0            batch_normalization_10[0][0]         
______________________________________________________________________________________________________________
conv2d_16 (Conv2D)                  (None, 625, 64, 48)     2352         dropout_2[0][0]                      
______________________________________________________________________________________________________________
conv2d_18 (Conv2D)                  (None, 625, 64, 48)     2352         dropout_2[0][0]                      
______________________________________________________________________________________________________________
max_pooling2d_3 (MaxPooling2D)      (None, 625, 64, 48)     0            dropout_2[0][0]                      
______________________________________________________________________________________________________________
conv2d_17 (Conv2D)                  (None, 625, 64, 48)     20784        conv2d_16[0][0]                      
______________________________________________________________________________________________________________
conv2d_19 (Conv2D)                  (None, 625, 64, 48)     57648        conv2d_18[0][0]                      
______________________________________________________________________________________________________________
conv2d_20 (Conv2D)                  (None, 625, 64, 48)     2352         max_pooling2d_3[0][0]                
______________________________________________________________________________________________________________
concatenate_7494 (Concatenate)      (None, 625, 64, 144)    0            conv2d_17[0][0]                      
                                                                         conv2d_19[0][0]                      
                                                                         conv2d_20[0][0]                      
______________________________________________________________________________________________________________
average_pooling2d_6 (AveragePooling (None, 313, 32, 144)    0            concatenate_7494[0][0]               
______________________________________________________________________________________________________________
batch_normalization_11 (BatchNormal (None, 313, 32, 144)    576          average_pooling2d_6[0][0]            
______________________________________________________________________________________________________________
dropout_3 (Dropout)                 (None, 313, 32, 144)    0            batch_normalization_11[0][0]         
______________________________________________________________________________________________________________
time_distributed_3 (TimeDistributed (None, 313, 144)        0            dropout_3[0][0]                      
______________________________________________________________________________________________________________
bidirectional_7 (Bidirectional)     (None, 313, 256)        279552       time_distributed_3[0][0]             
______________________________________________________________________________________________________________
bidirectional_8 (Bidirectional)     (None, 256)             394240       bidirectional_7[0][0]                
______________________________________________________________________________________________________________
dense_5 (Dense)                     (None, 1)               257          bidirectional_8[0][0]                
==============================================================================================================
Total params: 769,141
Trainable params: 768,755
Non-trainable params: 386
______________________________________________________________________________________________________________
Epoch 1/65
151/151 - 84s - loss: 0.6660 - accuracy: 0.6341 - val_loss: 0.8979 - val_accuracy: 0.0529
…
