…
______________________________________________________________________________________________________________
Layer (type)                                     Output Shape                                Param #          
==============================================================================================================
input_1 (InputLayer)                             [(None, 128, 313, 1)]                       0                
______________________________________________________________________________________________________________
conv2d (Conv2D)                                  (None, 128, 313, 8)                         80               
______________________________________________________________________________________________________________
mix_depth_group_convolution2d (MixDepthGroupConv (None, 128, 313, 8)                         162              
______________________________________________________________________________________________________________
average_pooling2d (AveragePooling2D)             (None, 64, 157, 8)                          0                
______________________________________________________________________________________________________________
batch_normalization (BatchNormalization)         (None, 64, 157, 8)                          32               
______________________________________________________________________________________________________________
conv2d_1 (Conv2D)                                (None, 64, 157, 16)                         1168             
______________________________________________________________________________________________________________
mix_depth_group_convolution2d_1 (MixDepthGroupCo (None, 64, 157, 16)                         414              
______________________________________________________________________________________________________________
average_pooling2d_1 (AveragePooling2D)           (None, 32, 79, 16)                          0                
______________________________________________________________________________________________________________
batch_normalization_1 (BatchNormalization)       (None, 32, 79, 16)                          64               
______________________________________________________________________________________________________________
conv2d_2 (Conv2D)                                (None, 32, 79, 32)                          4640             
______________________________________________________________________________________________________________
mix_depth_group_convolution2d_2 (MixDepthGroupCo (None, 32, 79, 32)                          828              
______________________________________________________________________________________________________________
average_pooling2d_2 (AveragePooling2D)           (None, 16, 40, 32)                          0                
______________________________________________________________________________________________________________
batch_normalization_2 (BatchNormalization)       (None, 16, 40, 32)                          128              
______________________________________________________________________________________________________________
conv2d_3 (Conv2D)                                (None, 16, 40, 64)                          18496            
______________________________________________________________________________________________________________
mix_depth_group_convolution2d_3 (MixDepthGroupCo (None, 16, 40, 64)                          1656             
______________________________________________________________________________________________________________
average_pooling2d_3 (AveragePooling2D)           (None, 8, 20, 64)                           0                
______________________________________________________________________________________________________________
batch_normalization_3 (BatchNormalization)       (None, 8, 20, 64)                           256              
______________________________________________________________________________________________________________
conv2d_4 (Conv2D)                                (None, 8, 20, 128)                          73856            
______________________________________________________________________________________________________________
mix_depth_group_convolution2d_4 (MixDepthGroupCo (None, 8, 20, 128)                          3402             
______________________________________________________________________________________________________________
average_pooling2d_4 (AveragePooling2D)           (None, 4, 10, 128)                          0                
______________________________________________________________________________________________________________
batch_normalization_4 (BatchNormalization)       (None, 4, 10, 128)                          512              
______________________________________________________________________________________________________________
global_average_pooling2d (GlobalAveragePooling2D (None, 128)                                 0                
______________________________________________________________________________________________________________
dense (Dense)                                    (None, 1)                                   129              
==============================================================================================================
Total params: 105,823
Trainable params: 105,327
Non-trainable params: 496
______________________________________________________________________________________________________________
Epoch 1/65
154/154 - 24s - loss: 0.4944 - accuracy: 0.6953
Confusion matrix: 
 [[858   0]
…
