…
______________________________________________________________________________________________________________
Layer (type)                                     Output Shape                                Param #          
==============================================================================================================
input_1 (InputLayer)                             [(None, 64, 1250, 1)]                       0                
______________________________________________________________________________________________________________
conv2d (Conv2D)                                  (None, 64, 1250, 8)                         80               
______________________________________________________________________________________________________________
mix_depth_group_convolution2d (MixDepthGroupConv (None, 64, 1250, 8)                         162              
______________________________________________________________________________________________________________
average_pooling2d (AveragePooling2D)             (None, 32, 625, 8)                          0                
______________________________________________________________________________________________________________
batch_normalization (BatchNormalization)         (None, 32, 625, 8)                          32               
______________________________________________________________________________________________________________
conv2d_1 (Conv2D)                                (None, 32, 625, 16)                         1168             
______________________________________________________________________________________________________________
mix_depth_group_convolution2d_1 (MixDepthGroupCo (None, 32, 625, 16)                         414              
______________________________________________________________________________________________________________
average_pooling2d_1 (AveragePooling2D)           (None, 16, 313, 16)                         0                
______________________________________________________________________________________________________________
batch_normalization_1 (BatchNormalization)       (None, 16, 313, 16)                         64               
______________________________________________________________________________________________________________
conv2d_2 (Conv2D)                                (None, 16, 313, 32)                         4640             
______________________________________________________________________________________________________________
mix_depth_group_convolution2d_2 (MixDepthGroupCo (None, 16, 313, 32)                         828              
______________________________________________________________________________________________________________
average_pooling2d_2 (AveragePooling2D)           (None, 8, 157, 32)                          0                
______________________________________________________________________________________________________________
batch_normalization_2 (BatchNormalization)       (None, 8, 157, 32)                          128              
______________________________________________________________________________________________________________
conv2d_3 (Conv2D)                                (None, 8, 157, 64)                          18496            
______________________________________________________________________________________________________________
mix_depth_group_convolution2d_3 (MixDepthGroupCo (None, 8, 157, 64)                          1656             
______________________________________________________________________________________________________________
average_pooling2d_3 (AveragePooling2D)           (None, 4, 79, 64)                           0                
______________________________________________________________________________________________________________
batch_normalization_3 (BatchNormalization)       (None, 4, 79, 64)                           256              
______________________________________________________________________________________________________________
conv2d_4 (Conv2D)                                (None, 4, 79, 128)                          73856            
______________________________________________________________________________________________________________
mix_depth_group_convolution2d_4 (MixDepthGroupCo (None, 4, 79, 128)                          3402             
______________________________________________________________________________________________________________
average_pooling2d_4 (AveragePooling2D)           (None, 2, 40, 128)                          0                
______________________________________________________________________________________________________________
batch_normalization_4 (BatchNormalization)       (None, 2, 40, 128)                          512              
______________________________________________________________________________________________________________
global_average_pooling2d (GlobalAveragePooling2D (None, 128)                                 0                
______________________________________________________________________________________________________________
dense (Dense)                                    (None, 1)                                   129              
==============================================================================================================
Total params: 105,823
Trainable params: 105,327
Non-trainable params: 496
______________________________________________________________________________________________________________
Epoch 1/65
167/167 - 58s - loss: 0.5906 - accuracy: 0.6272 - val_loss: 0.8134 - val_accuracy: 0.0668
…
