…
______________________________________________________________________________________________________________
Layer (type)                                     Output Shape                                Param #          
==============================================================================================================
input_1 (InputLayer)                             [(None, 128, 1250, 1)]                      0                
______________________________________________________________________________________________________________
conv2d (Conv2D)                                  (None, 128, 1250, 8)                        80               
______________________________________________________________________________________________________________
mix_depth_group_convolution2d (MixDepthGroupConv (None, 128, 1250, 8)                        162              
______________________________________________________________________________________________________________
average_pooling2d (AveragePooling2D)             (None, 64, 625, 8)                          0                
______________________________________________________________________________________________________________
batch_normalization (BatchNormalization)         (None, 64, 625, 8)                          32               
______________________________________________________________________________________________________________
conv2d_1 (Conv2D)                                (None, 64, 625, 16)                         1168             
______________________________________________________________________________________________________________
mix_depth_group_convolution2d_1 (MixDepthGroupCo (None, 64, 625, 16)                         414              
______________________________________________________________________________________________________________
average_pooling2d_1 (AveragePooling2D)           (None, 32, 313, 16)                         0                
______________________________________________________________________________________________________________
batch_normalization_1 (BatchNormalization)       (None, 32, 313, 16)                         64               
______________________________________________________________________________________________________________
conv2d_2 (Conv2D)                                (None, 32, 313, 32)                         4640             
______________________________________________________________________________________________________________
mix_depth_group_convolution2d_2 (MixDepthGroupCo (None, 32, 313, 32)                         828              
______________________________________________________________________________________________________________
average_pooling2d_2 (AveragePooling2D)           (None, 16, 157, 32)                         0                
______________________________________________________________________________________________________________
batch_normalization_2 (BatchNormalization)       (None, 16, 157, 32)                         128              
______________________________________________________________________________________________________________
conv2d_3 (Conv2D)                                (None, 16, 157, 64)                         18496            
______________________________________________________________________________________________________________
mix_depth_group_convolution2d_3 (MixDepthGroupCo (None, 16, 157, 64)                         1656             
______________________________________________________________________________________________________________
average_pooling2d_3 (AveragePooling2D)           (None, 8, 79, 64)                           0                
______________________________________________________________________________________________________________
batch_normalization_3 (BatchNormalization)       (None, 8, 79, 64)                           256              
______________________________________________________________________________________________________________
conv2d_4 (Conv2D)                                (None, 8, 79, 128)                          73856            
______________________________________________________________________________________________________________
mix_depth_group_convolution2d_4 (MixDepthGroupCo (None, 8, 79, 128)                          3402             
______________________________________________________________________________________________________________
average_pooling2d_4 (AveragePooling2D)           (None, 4, 40, 128)                          0                
______________________________________________________________________________________________________________
batch_normalization_4 (BatchNormalization)       (None, 4, 40, 128)                          512              
______________________________________________________________________________________________________________
global_average_pooling2d (GlobalAveragePooling2D (None, 128)                                 0                
______________________________________________________________________________________________________________
dense (Dense)                                    (None, 1)                                   129              
==============================================================================================================
Total params: 105,823
Trainable params: 105,327
Non-trainable params: 496
______________________________________________________________________________________________________________
Epoch 1/65
90/90 - 133s - loss: 0.4285 - accuracy: 0.8674 - val_loss: 0.2701 - val_accuracy: 0.9332
…
Model: "conv2d"
______________________________________________________________________________________________________________
Layer (type)                        Output Shape            Param #      Connected to                         
==============================================================================================================
input_2 (InputLayer)                [(None, 128, 1250, 1)]  0                                                 
______________________________________________________________________________________________________________
batch_normalization_5 (BatchNormali (None, 128, 1250, 1)    4            input_2[0][0]                        
______________________________________________________________________________________________________________
conv2d_5 (Conv2D)                   (None, 128, 1250, 16)   32           batch_normalization_5[0][0]          
______________________________________________________________________________________________________________
conv2d_7 (Conv2D)                   (None, 128, 1250, 16)   32           batch_normalization_5[0][0]          
______________________________________________________________________________________________________________
max_pooling2d (MaxPooling2D)        (None, 128, 1250, 1)    0            batch_normalization_5[0][0]          
______________________________________________________________________________________________________________
conv2d_6 (Conv2D)                   (None, 128, 1250, 16)   2320         conv2d_5[0][0]                       
______________________________________________________________________________________________________________
conv2d_8 (Conv2D)                   (None, 128, 1250, 16)   6416         conv2d_7[0][0]                       
______________________________________________________________________________________________________________
conv2d_9 (Conv2D)                   (None, 128, 1250, 16)   32           max_pooling2d[0][0]                  
______________________________________________________________________________________________________________
concatenate_21675 (Concatenate)     (None, 128, 1250, 48)   0            conv2d_6[0][0]                       
                                                                         conv2d_8[0][0]                       
                                                                         conv2d_9[0][0]                       
______________________________________________________________________________________________________________
average_pooling2d_5 (AveragePooling (None, 64, 625, 48)     0            concatenate_21675[0][0]              
______________________________________________________________________________________________________________
batch_normalization_6 (BatchNormali (None, 64, 625, 48)     192          average_pooling2d_5[0][0]            
______________________________________________________________________________________________________________
dropout (Dropout)                   (None, 64, 625, 48)     0            batch_normalization_6[0][0]          
______________________________________________________________________________________________________________
inverted_residual (InvertedResidual (None, 64, 625, 32)     35840        dropout[0][0]                        
______________________________________________________________________________________________________________
inverted_residual_1 (InvertedResidu (None, 64, 625, 32)     20864        inverted_residual[0][0]              
______________________________________________________________________________________________________________
average_pooling2d_6 (AveragePooling (None, 32, 312, 32)     0            inverted_residual_1[0][0]            
______________________________________________________________________________________________________________
batch_normalization_7 (BatchNormali (None, 32, 312, 32)     128          average_pooling2d_6[0][0]            
______________________________________________________________________________________________________________
dropout_1 (Dropout)                 (None, 32, 312, 32)     0            batch_normalization_7[0][0]          
______________________________________________________________________________________________________________
inverted_residual_2 (InvertedResidu (None, 32, 312, 64)     27136        dropout_1[0][0]                      
______________________________________________________________________________________________________________
inverted_residual_3 (InvertedResidu (None, 32, 312, 64)     66304        inverted_residual_2[0][0]            
______________________________________________________________________________________________________________
average_pooling2d_7 (AveragePooling (None, 16, 156, 64)     0            inverted_residual_3[0][0]            
______________________________________________________________________________________________________________
batch_normalization_8 (BatchNormali (None, 16, 156, 64)     256          average_pooling2d_7[0][0]            
______________________________________________________________________________________________________________
dropout_2 (Dropout)                 (None, 16, 156, 64)     0            batch_normalization_8[0][0]          
______________________________________________________________________________________________________________
inverted_residual_4 (InvertedResidu (None, 16, 156, 128)    91136        dropout_2[0][0]                      
______________________________________________________________________________________________________________
inverted_residual_5 (InvertedResidu (None, 16, 156, 128)    230912       inverted_residual_4[0][0]            
______________________________________________________________________________________________________________
average_pooling2d_8 (AveragePooling (None, 8, 78, 128)      0            inverted_residual_5[0][0]            
______________________________________________________________________________________________________________
batch_normalization_9 (BatchNormali (None, 8, 78, 128)      512          average_pooling2d_8[0][0]            
______________________________________________________________________________________________________________
dropout_3 (Dropout)                 (None, 8, 78, 128)      0            batch_normalization_9[0][0]          
______________________________________________________________________________________________________________
inverted_residual_6 (InvertedResidu (None, 8, 78, 256)      329728       dropout_3[0][0]                      
______________________________________________________________________________________________________________
inverted_residual_7 (InvertedResidu (None, 8, 78, 256)      855040       inverted_residual_6[0][0]            
______________________________________________________________________________________________________________
average_pooling2d_9 (AveragePooling (None, 4, 39, 256)      0            inverted_residual_7[0][0]            
______________________________________________________________________________________________________________
batch_normalization_10 (BatchNormal (None, 4, 39, 256)      1024         average_pooling2d_9[0][0]            
______________________________________________________________________________________________________________
dropout_4 (Dropout)                 (None, 4, 39, 256)      0            batch_normalization_10[0][0]         
______________________________________________________________________________________________________________
inverted_residual_8 (InvertedResidu (None, 4, 39, 512)      1249280      dropout_4[0][0]                      
______________________________________________________________________________________________________________
inverted_residual_9 (InvertedResidu (None, 4, 39, 512)      3282944      inverted_residual_8[0][0]            
______________________________________________________________________________________________________________
global_average_pooling2d_1 (GlobalA (None, 512)             0            inverted_residual_9[0][0]            
______________________________________________________________________________________________________________
dense_1 (Dense)                     (None, 1)               513          global_average_pooling2d_1[0][0]     
==============================================================================================================
Total params: 6,200,645
Trainable params: 6,159,139
Non-trainable params: 41,506
______________________________________________________________________________________________________________
2021-06-30 16:41:05.625562: I tensorflow/core/kernels/data/shuffle_dataset_op.cc:177] Filling up shuffle buffer (this may take a while): 481 of 2858
…
