…
Number of train recordings: 2458 with pneumonia: 158 and non-pneumonia: 2300
Number of val recordings: 614 with pneumonia: 41 and non-pneumonia: 573
-----------------------
Initializing weights...
weights = {0: 0.5257570483814827, 1: 10.20608108108108}
Model: "conv2d"
______________________________________________________________________________________________________________
Layer (type)                        Output Shape            Param #      Connected to                         
==============================================================================================================
input_1 (InputLayer)                [(None, 25, 50, 128, 1) 0                                                 
______________________________________________________________________________________________________________
batch_normalization (BatchNormaliza (None, 25, 50, 128, 1)  4            input_1[0][0]                        
______________________________________________________________________________________________________________
time_distributed (TimeDistributed)  (None, 25, 50, 128, 16) 32           batch_normalization[0][0]            
______________________________________________________________________________________________________________
time_distributed_2 (TimeDistributed (None, 25, 50, 128, 16) 32           batch_normalization[0][0]            
______________________________________________________________________________________________________________
time_distributed_4 (TimeDistributed (None, 25, 50, 128, 1)  0            batch_normalization[0][0]            
______________________________________________________________________________________________________________
time_distributed_1 (TimeDistributed (None, 25, 50, 128, 16) 2320         time_distributed[0][0]               
______________________________________________________________________________________________________________
time_distributed_3 (TimeDistributed (None, 25, 50, 128, 16) 6416         time_distributed_2[0][0]             
______________________________________________________________________________________________________________
time_distributed_5 (TimeDistributed (None, 25, 50, 128, 16) 32           time_distributed_4[0][0]             
______________________________________________________________________________________________________________
concatenate (Concatenate)           (None, 25, 50, 128, 48) 0            time_distributed_1[0][0]             
                                                                         time_distributed_3[0][0]             
                                                                         time_distributed_5[0][0]             
______________________________________________________________________________________________________________
time_distributed_6 (TimeDistributed (None, 25, 25, 64, 48)  0            concatenate[0][0]                    
______________________________________________________________________________________________________________
batch_normalization_1 (BatchNormali (None, 25, 25, 64, 48)  192          time_distributed_6[0][0]             
______________________________________________________________________________________________________________
dropout (Dropout)                   (None, 25, 25, 64, 48)  0            batch_normalization_1[0][0]          
______________________________________________________________________________________________________________
time_distributed_7 (TimeDistributed (None, 25, 48)          0            dropout[0][0]                        
______________________________________________________________________________________________________________
bidirectional (Bidirectional)       (None, 25, 256)         181248       time_distributed_7[0][0]             
______________________________________________________________________________________________________________
bidirectional_1 (Bidirectional)     (None, 25, 256)         394240       bidirectional[0][0]                  
______________________________________________________________________________________________________________
dense (Dense)                       (None, 25, 128)         32896        bidirectional_1[0][0]                
______________________________________________________________________________________________________________
dense_1 (Dense)                     (None, 25, 1)           129          dense[0][0]                          
______________________________________________________________________________________________________________
flatten (Flatten)                   (None, 25)              0            dense_1[0][0]                        
______________________________________________________________________________________________________________
dense_2 (Dense)                     (None, 1)               26           flatten[0][0]                        
==============================================================================================================
Total params: 617,567
Trainable params: 617,469
Non-trainable params: 98
______________________________________________________________________________________________________________
Epoch 1/65
154/154 - 54s - loss: 0.7815 - accuracy: 0.1347 - val_loss: 1.0002 - val_accuracy: 0.0668
…
