…
Excel_dest: ../data/excel_spreadsheets/2026.xls
coch_path: ../cochlear_preprocessing/128_channels/
Model: "student"
__________________________________________________________________________________________________
Layer (type)                    Output Shape         Param #     Connected to                     
==================================================================================================
input_2 (InputLayer)            [(None, 128, 1250, 3 0                                            
__________________________________________________________________________________________________
batch_normalization_6 (BatchNor (None, 128, 1250, 3) 12          input_2[0][0]                    
__________________________________________________________________________________________________
conv2d_5 (Conv2D)               (None, 128, 1250, 8) 32          batch_normalization_6[0][0]      
__________________________________________________________________________________________________
conv2d_7 (Conv2D)               (None, 128, 1250, 8) 32          batch_normalization_6[0][0]      
__________________________________________________________________________________________________
max_pooling2d_1 (MaxPooling2D)  (None, 128, 1250, 3) 0           batch_normalization_6[0][0]      
__________________________________________________________________________________________________
conv2d_6 (Conv2D)               (None, 128, 1250, 8) 584         conv2d_5[0][0]                   
__________________________________________________________________________________________________
conv2d_8 (Conv2D)               (None, 128, 1250, 8) 1608        conv2d_7[0][0]                   
__________________________________________________________________________________________________
conv2d_9 (Conv2D)               (None, 128, 1250, 8) 32          max_pooling2d_1[0][0]            
__________________________________________________________________________________________________
concatenate_1 (Concatenate)     (None, 128, 1250, 24 0           conv2d_6[0][0]                   
                                                                 conv2d_8[0][0]                   
                                                                 conv2d_9[0][0]                   
__________________________________________________________________________________________________
average_pooling2d_5 (AveragePoo (None, 64, 625, 24)  0           concatenate_1[0][0]              
__________________________________________________________________________________________________
batch_normalization_7 (BatchNor (None, 64, 625, 24)  96          average_pooling2d_5[0][0]        
__________________________________________________________________________________________________
conv2d_10 (Conv2D)              (None, 64, 625, 16)  400         batch_normalization_7[0][0]      
__________________________________________________________________________________________________
conv2d_12 (Conv2D)              (None, 64, 625, 16)  400         batch_normalization_7[0][0]      
__________________________________________________________________________________________________
max_pooling2d_2 (MaxPooling2D)  (None, 64, 625, 24)  0           batch_normalization_7[0][0]      
__________________________________________________________________________________________________
conv2d_11 (Conv2D)              (None, 64, 625, 16)  2320        conv2d_10[0][0]                  
__________________________________________________________________________________________________
conv2d_13 (Conv2D)              (None, 64, 625, 16)  6416        conv2d_12[0][0]                  
__________________________________________________________________________________________________
conv2d_14 (Conv2D)              (None, 64, 625, 16)  400         max_pooling2d_2[0][0]            
__________________________________________________________________________________________________
concatenate_2 (Concatenate)     (None, 64, 625, 48)  0           conv2d_11[0][0]                  
                                                                 conv2d_13[0][0]                  
                                                                 conv2d_14[0][0]                  
__________________________________________________________________________________________________
average_pooling2d_6 (AveragePoo (None, 32, 313, 48)  0           concatenate_2[0][0]              
__________________________________________________________________________________________________
batch_normalization_8 (BatchNor (None, 32, 313, 48)  192         average_pooling2d_6[0][0]        
__________________________________________________________________________________________________
conv2d_15 (Conv2D)              (None, 32, 313, 32)  1568        batch_normalization_8[0][0]      
__________________________________________________________________________________________________
conv2d_17 (Conv2D)              (None, 32, 313, 32)  1568        batch_normalization_8[0][0]      
__________________________________________________________________________________________________
max_pooling2d_3 (MaxPooling2D)  (None, 32, 313, 48)  0           batch_normalization_8[0][0]      
__________________________________________________________________________________________________
conv2d_16 (Conv2D)              (None, 32, 313, 32)  9248        conv2d_15[0][0]                  
__________________________________________________________________________________________________
conv2d_18 (Conv2D)              (None, 32, 313, 32)  25632       conv2d_17[0][0]                  
__________________________________________________________________________________________________
conv2d_19 (Conv2D)              (None, 32, 313, 32)  1568        max_pooling2d_3[0][0]            
__________________________________________________________________________________________________
concatenate_3 (Concatenate)     (None, 32, 313, 96)  0           conv2d_16[0][0]                  
                                                                 conv2d_18[0][0]                  
                                                                 conv2d_19[0][0]                  
__________________________________________________________________________________________________
average_pooling2d_7 (AveragePoo (None, 16, 157, 96)  0           concatenate_3[0][0]              
__________________________________________________________________________________________________
batch_normalization_9 (BatchNor (None, 16, 157, 96)  384         average_pooling2d_7[0][0]        
__________________________________________________________________________________________________
conv2d_20 (Conv2D)              (None, 16, 157, 64)  6208        batch_normalization_9[0][0]      
__________________________________________________________________________________________________
conv2d_22 (Conv2D)              (None, 16, 157, 64)  6208        batch_normalization_9[0][0]      
__________________________________________________________________________________________________
max_pooling2d_4 (MaxPooling2D)  (None, 16, 157, 96)  0           batch_normalization_9[0][0]      
__________________________________________________________________________________________________
conv2d_21 (Conv2D)              (None, 16, 157, 64)  36928       conv2d_20[0][0]                  
__________________________________________________________________________________________________
conv2d_23 (Conv2D)              (None, 16, 157, 64)  102464      conv2d_22[0][0]                  
__________________________________________________________________________________________________
conv2d_24 (Conv2D)              (None, 16, 157, 64)  6208        max_pooling2d_4[0][0]            
__________________________________________________________________________________________________
concatenate_4 (Concatenate)     (None, 16, 157, 192) 0           conv2d_21[0][0]                  2021-03-30 20:13:55.286970: I tensorflow/compiler/mlir/mlir_graph_optimization_pass.cc:116] None of the MLIR optimization passes are enabled (registered 2)
2021-03-30 20:13:55.288541: I tensorflow/core/platform/profile_utils/cpu_utils.cc:112] CPU Frequency: 2299995000 Hz

                                                                 conv2d_23[0][0]                  
                                                                 conv2d_24[0][0]                  
__________________________________________________________________________________________________
average_pooling2d_8 (AveragePoo (None, 8, 79, 192)   0           concatenate_4[0][0]              
__________________________________________________________________________________________________
batch_normalization_10 (BatchNo (None, 8, 79, 192)   768         average_pooling2d_8[0][0]        
__________________________________________________________________________________________________
conv2d_25 (Conv2D)              (None, 8, 79, 128)   24704       batch_normalization_10[0][0]     
__________________________________________________________________________________________________
conv2d_27 (Conv2D)              (None, 8, 79, 128)   24704       batch_normalization_10[0][0]     
__________________________________________________________________________________________________
max_pooling2d_5 (MaxPooling2D)  (None, 8, 79, 192)   0           batch_normalization_10[0][0]     
__________________________________________________________________________________________________
conv2d_26 (Conv2D)              (None, 8, 79, 128)   147584      conv2d_25[0][0]                  
__________________________________________________________________________________________________
conv2d_28 (Conv2D)              (None, 8, 79, 128)   409728      conv2d_27[0][0]                  
__________________________________________________________________________________________________
conv2d_29 (Conv2D)              (None, 8, 79, 128)   24704       max_pooling2d_5[0][0]            
__________________________________________________________________________________________________
concatenate_5 (Concatenate)     (None, 8, 79, 384)   0           conv2d_26[0][0]                  
                                                                 conv2d_28[0][0]                  
                                                                 conv2d_29[0][0]                  
__________________________________________________________________________________________________
average_pooling2d_9 (AveragePoo (None, 4, 40, 384)   0           concatenate_5[0][0]              
__________________________________________________________________________________________________
batch_normalization_11 (BatchNo (None, 4, 40, 384)   1536        average_pooling2d_9[0][0]        
__________________________________________________________________________________________________
global_average_pooling2d_1 (Glo (None, 384)          0           batch_normalization_11[0][0]     
__________________________________________________________________________________________________
dense_1 (Dense)                 (None, 2)            770         global_average_pooling2d_1[0][0] 
==================================================================================================
Total params: 845,006
Trainable params: 843,512
Non-trainable params: 1,494
__________________________________________________________________________________________________
Starting...
Length of ../data/raw_audios/Bangladesh_wo_details/9501162/093892_11-21-2019-07-10-05-S25_M3-9501162_F.wav is 58317
…
