…
--- Final training dataset went from 4302 to 4302 elements, with 3216 0's, 1086 1's and 0 others ---
--- Validation dataset contains 982 elements, with 700 0's and 282 1's ---
Initializing weights...
weights = {0: 0.6688432835820896, 1: 1.9806629834254144}
Model: "conv2d"
______________________________________________________________________________________________________________
Layer (type)                        Output Shape            Param #      Connected to                         
==============================================================================================================
input_1 (InputLayer)                [(None, 3, 105, 128, 1) 0                                                 
______________________________________________________________________________________________________________
batch_normalization (BatchNormaliza (None, 3, 105, 128, 1)  4            input_1[0][0]                        
______________________________________________________________________________________________________________
time_distributed (TimeDistributed)  (None, 3, 105, 128, 16) 32           batch_normalization[0][0]            
______________________________________________________________________________________________________________
time_distributed_2 (TimeDistributed (None, 3, 105, 128, 16) 32           batch_normalization[0][0]            
______________________________________________________________________________________________________________
time_distributed_4 (TimeDistributed (None, 3, 105, 128, 1)  0            batch_normalization[0][0]            
______________________________________________________________________________________________________________
time_distributed_1 (TimeDistributed (None, 3, 105, 128, 16) 2320         time_distributed[0][0]               
______________________________________________________________________________________________________________
time_distributed_3 (TimeDistributed (None, 3, 105, 128, 16) 6416         time_distributed_2[0][0]             
______________________________________________________________________________________________________________
time_distributed_5 (TimeDistributed (None, 3, 105, 128, 16) 32           time_distributed_4[0][0]             
______________________________________________________________________________________________________________
concatenate (Concatenate)           (None, 3, 105, 128, 48) 0            time_distributed_1[0][0]             
                                                                         time_distributed_3[0][0]             
                                                                         time_distributed_5[0][0]             
______________________________________________________________________________________________________________
time_distributed_6 (TimeDistributed (None, 3, 53, 64, 48)   0            concatenate[0][0]                    
______________________________________________________________________________________________________________
batch_normalization_1 (BatchNormali (None, 3, 53, 64, 48)   192          time_distributed_6[0][0]             
______________________________________________________________________________________________________________
dropout (Dropout)                   (None, 3, 53, 64, 48)   0            batch_normalization_1[0][0]          
______________________________________________________________________________________________________________
time_distributed_7 (TimeDistributed (None, 3, 48)           0            dropout[0][0]                        
______________________________________________________________________________________________________________
bidirectional (Bidirectional)       (None, 3, 256)          181248       time_distributed_7[0][0]             
______________________________________________________________________________________________________________
bidirectional_1 (Bidirectional)     (None, 3, 256)          394240       bidirectional[0][0]                  
______________________________________________________________________________________________________________
dense (Dense)                       (None, 3, 128)          32896        bidirectional_1[0][0]                
______________________________________________________________________________________________________________
dense_1 (Dense)                     (None, 3, 1)            129          dense[0][0]                          
______________________________________________________________________________________________________________
flatten (Flatten)                   (None, 3)               0            dense_1[0][0]                        
______________________________________________________________________________________________________________
dense_2 (Dense)                     (None, 1)               4            flatten[0][0]                        
==============================================================================================================
Total params: 617,545
Trainable params: 617,447
Non-trainable params: 98
______________________________________________________________________________________________________________
Epoch 1/65
135/135 - 23s - loss: 0.6943 - accuracy: 0.4296
…
